checkpoints/LSTM/RET_h1_h1_tr2021-01-01_te2023-01-01_seed3_lam5.0e-04.pt (torch, 25930 bytes, 6 tensors)

lstm.weight_ih_l0 f4 [128, 9]
000000 c1 ba 0a be 7a 31 56 be 14 bb ed bd a3 8f 61 be
       -0.13547803 -0.20917311 -0.11607948 -0.2202745
000010 46 63 c9 bc 55 f1 32 be ac 8a 99 3d ad b3 89 3d
       -0.02458347 -0.17474873 0.07497153 0.067237236
000020 36 52 4c 3d d8 c3 88 3e 4b 03 07 3d 64 b0 df 3d
       0.04988309 0.26711917 0.032962125 0.10922316
000030 8a 67 b3 bd bc 87 c6 bc ee 69 0f be 0c 97 8f bc
       -0.08759983 -0.024234645 -0.14005253 -0.01752808
000040 7d 6c 01 be 04 f4 30 3e 66 28 2b 3e 3e 35 55 3e
       -0.12639041 0.17280585 0.1671463 0.20821092
000050 c5 8f d0 3d b7 e5 8e bd 0e 50 48 3e 1c e4 27 be
       0.10183672 -0.069774084 0.19561788 -0.1639561
000060 d8 4e 11 be 6f 48 12 be 1a db f0 bd a9 03 19 3e
       -0.14190233 -0.14285444 -0.1176054 0.14942802
000070 3b fb b8 bd dc 32 35 be 53 a8 ac bd fa 34 fb 3d
       -0.090322934 -0.17695183 -0.08430543 0.12265964
000080 8c 8d 13 be 7a fb 3d be d8 0c 39 be b4 43 c8 bd
       -0.14409465 -0.18552962 -0.18071306 -0.09778538
000090 b1 5d 76 bd 5b 52 0e be 26 b5 17 be 2e 97 b2 bd
       -0.060147945 -0.13898604 -0.14815196 -0.087202415
0000a0 ab af 53 3d 3e c7 6e bd df a7 c2 bc 50 c4 f3 bd
       0.051681202 -0.05829548 -0.023761688 -0.11902678
0000b0 bb e6 b3 3d df 64 12 b9 80 0d db bd ea 46 df bc
       0.08784243 -0.00013961222 -0.10695934 -0.027255494
0000c0 8e d6 43 bd c7 ac 4f 3e e2 e5 5e bc 28 2d 03 bd
       -0.047812037 0.20280753 -0.013604613 -0.032025486
0000d0 15 cd 07 3d eb 2e 6e 3e 8a 2f 08 3e 07 03 bf 3d
       0.033154566 0.23260085 0.13299385 0.09326749
0000e0 09 c1 04 be e1 f9 7d 3e 98 a5 b7 3c 4f 37 65 bd
       -0.12964262 0.24802352 0.022417828 -0.05596095
0000f0 12 91 de 3d c2 6a ab bb 4a 45 13 be a2 f7 2d bd
       0.10867514 -0.0052312324 -0.143819 -0.04247249
000100 08 d0 fb bd ee cd d3 bd 10 15 0a 3d ec d3 0c be
       -0.12295538 -0.10342012 0.033711493 -0.13752717
000110 90 70 ae 3d f3 ac a2 3d a7 da 1e 3d dc c7 1e 3e
       0.08517563 0.07943144 0.038782742 0.15505928
000120 a0 1a 1b bc 47 d6 21 3e 78 c8 4a bc d4 51 21 3e
       -0.009466797 0.15804397 -0.012376897 0.15753871
000130 ba d1 2e 3d c0 2a 2c 3e 9f e8 fb 3c 69 8a e8 3d
       0.04268048 0.16813183 0.03075057 0.11354525
000140 18 d5 1d be 75 01 97 bd 9e 12 1a bd bf ac 2b bb
       -0.1541332 -0.07373325 -0.03761541 -0.0026195494
000150 79 b4 d1 3d c3 ca 0b be 25 00 91 3c d3 d0 03 be
       0.102395006 -0.13651566 0.017700264 -0.12872629
000160 4b 31 a9 bd 3d ce 90 bc 01 63 f7 bd 3f 73 96 bb
       -0.08261355 -0.017676467 -0.1207943 -0.004591375
000170 a7 e2 60 be 33 81 2f 3e 79 fd 89 3d c9 ac 2b 3d
       -0.21961461 0.1713913 0.06737799 0.041912828
000180 27 37 14 be 19 85 91 3d 29 8e 53 bd 8a 2e 4c be
       -0.14474164 0.071054645 -0.051649246 -0.19939628
000190 b8 36 95 ba bf 9e cf 3b 34 29 1e 3d ca 5e 90 bc
       -0.0011384105 0.0063360627 0.038613513 -0.017623324
0001a0 dd 05 a1 3d bf 93 c9 bd bf 0e c4 bd 72 c5 f6 bd
       0.078624465 -0.098426335 -0.09573125 -0.120493785
0001b0 d2 b3 95 3d 69 0e cd bd b4 09 e2 3d 55 d7 8e 3d
       0.07309689 -0.10012514 0.11037007 0.06974665
0001c0 9f 56 b3 bd d1 c6 25 be 9a 70 e0 bd 06 bd 0d be
       -0.08756756 -0.16189124 -0.10958977 -0.13841638
0001d0 9b 84 03 3e 4a bd 5c 3e 05 16 3f 3c 9f af c4 3d
       0.12843554 0.21556583 0.011662965 0.096038096
0001e0 d9 69 55 3d 70 fc 18 be 33 1c 39 be f6 2a bf bd
       0.052102897 -0.14940047 -0.18077163 -0.09334366
0001f0 31 bc 3c be 11 84 a4 bd 9c 11 7b 3e 73 ab 21 3e
       -0.18431164 -0.08033002 0.24518436 0.15788059
000200 c9 d5 a3 3d 75 5f 4c bd db bc 3a 3e 64 bc 06 bc
       0.07999761 -0.049895722 0.18236105 -0.008223627
000210 ba c9 ba 3d 14 5c 2d bd 51 c8 09 be 7b 12 10 3d
       0.091205075 -0.04232414 -0.13455321 0.035173874
000220 ee bb e9 3d 25 a6 91 3d 5e 72 f5 bc 5d b3 df bc
       0.11412798 0.07111768 -0.029961761 -0.027307207
000230 2b ed 0a bd 8d bf 0a ba bb b0 a0 3b c0 c2 c7 3c
       -0.033917587 -0.00052928255 0.0049038804 0.024384856
000240 0f e4 92 bd ba 17 a4 3d e7 ec ac bd 1d 23 95 bd
       -0.07172405 0.08012338 -0.08443623 -0.07282088
000250 b9 a5 f7 3d c5 c0 3d 3e 3d 9a 05 be c8 45 2d 3e
       0.12092156 0.18530567 -0.13047118 0.1692115
000260 d8 d6 07 3d 6b 0c 41 3e 19 0e 34 3e 66 fa 23 be
       0.033163875 0.18852393 0.17583503 -0.16013488
000270 e1 84 8e 3d 13 27 7d 3d 95 b5 85 bb a5 03 c3 bd
       0.069589384 0.061804842 -0.004080484 -0.095221795
000280 57 72 2f be 33 54 f8 3c 68 8d 29 be 15 92 c2 bc
       -0.17133461 0.030313587 -0.16557848 -0.023751298
000290 98 70 74 be 88 50 d1 bd dd a5 5f 3d 77 9b 9e bc
       -0.23871076 -0.10220438 0.05460154 -0.01936124
0002a0 53 b3 cc 3c f2 d0 a4 bc 3a 25 46 bc 1e 09 10 3e
       0.024987852 -0.020119164 -0.012093836 0.14065978
0002b0 0f 06 20 be 83 69 d3 3d 8a b4 39 3d fa 84 f1 3c
       -0.15627311 0.10322859 0.04533819 0.029482353
0002c0 81 db 90 bd e3 33 f8 3d fa 4e e3 3d cd d0 a1 bd
       -0.07073117 0.121192716 0.11099048 -0.07901154
0002d0 b7 f3 ca 3d 18 0d 88 bd 61 14 86 3e 67 fe 18 3e
       0.09909766 -0.066431224 0.26187423 0.14940797
0002e0 1c ff 8f bc 0b 35 df 3c f7 fc 07 3d 51 cb b4 3d
       -0.0175777 0.027246973 0.03320023 0.08827842
0002f0 4f cf 3f be a1 9d 7a 3b 64 c7 5c 3e 28 31 b9 bd
       -0.18731426 0.0038240927 0.21560436 -0.09042579
000300 39 d5 9f bd e1 eb 76 3b 74 90 eb 3d 41 6c 9d 3d
       -0.07804341 0.0037677216 0.115021616 0.076866634
000310 a2 b6 61 bc 5d e4 1f bd 80 cf 03 be a0 f7 7f 3d
       -0.013776453 -0.039036144 -0.12872124 0.062492013
000320 30 dd 4f be c2 25 86 3d 56 35 ed 3b be d9 21 3e
       -0.2029922 0.065501705 0.007239024 0.15805718
000330 47 0e 17 3e 4f 04 8e bd c8 ac 19 3e f7 56 f5 bd
       0.1475154 -0.069344155 0.15007317 -0.11979478
000340 c1 8b 19 3e 42 3d 8b bd 36 0e a6 bd 0f 73 f2 bd
       0.14994718 -0.067987934 -0.08108179 -0.11838352
000350 39 c4 7e 3e 0f 38 0c 3d d5 52 14 be 15 0d 34 be
       0.2487954 0.03423315 -0.14484723 -0.17583115
000360 8b d7 1a bd 04 4d 91 3c 70 0e 22 bd db d5 28 3e
       -0.037803214 0.01773692 -0.03956455 0.1648783
000370 14 98 9e bd 89 e9 3e be db 87 88 3d f3 85 33 3e
       -0.0774385 -0.18643774 0.066665374 0.17531566
000380 2a 3a 14 3e a8 a8 c2 bc 1c 92 6e bd 94 2e 6d bd
       0.14475313 -0.023762062 -0.05824481 -0.05790575
000390 e8 80 e2 3d 89 3f 10 be 57 4e 80 bd a7 3b f9 3d
       0.11059743 -0.14086737 -0.06264942 0.12169581
0003a0 65 bd fa 3d 0e 18 23 3e a4 2b 46 bd 45 48 a2 3d
       0.122431554 0.15927145 -0.048381463 0.079239406
0003b0 d0 52 88 be 8b 1c 67 3d 3b 33 a2 bc 33 89 89 3d
       -0.2662568 0.056423705 -0.01979982 0.06715622
0003c0 d0 7f 97 3b 24 40 b2 3d 2f 9c 18 be ca a9 3f 3c
       0.0046233907 0.0870364 -0.1490333 0.011698196
0003d0 e9 af 6c 3d 34 89 f1 3d a4 e7 e8 bb 93 d8 c9 3d
       0.05778495 0.117937475 -0.007107692 0.098557614
0003e0 56 bd b4 bd fd 83 32 bb 54 1c 40 3e f0 35 3a 3e
       -0.088251755 -0.0027239316 0.18760806 0.18184638
0003f0 19 27 48 3e ef ed 98 bd 7e d2 81 3d 8c 45 30 be
       0.19546165 -0.07467257 0.06338976 -0.1721403

lstm.weight_hh_l0 f4 [128, 32]
000000 0e b4 ca bb eb 2c 64 bc 63 95 52 3c 49 ab d5 3d
       -0.006186015 -0.013926725 0.012852999 0.10433061
000010 ff 37 cd 3c 5b c9 6b bd 4f 68 36 3e a4 c6 1b 3e
       0.025051115 -0.057565074 0.17813228 0.15212494
000020 91 e9 d5 3c 4c 88 18 bd bc 37 c4 bd 6d bf eb 3c
       0.02611235 -0.037239358 -0.09580943 0.028777802
000030 24 42 72 bc 6d 5c 5d be 94 16 f6 bd 01 b6 10 3c
       -0.014786277 -0.21617289 -0.12016025 0.008832456
000040 c2 76 30 3e d6 47 0d be d2 fa c1 3d 93 29 95 bd
       0.17232803 -0.13796934 0.09471668 -0.0728332
000050 d5 db e1 3d 80 b5 f8 bd 5a 11 39 3e 4e b4 4c 3d
       0.11028258 -0.121439934 0.18073025 0.04997664
000060 82 1d 8b 3d 3a b1 51 be e0 c9 6e 3d 4f d1 b4 bd
       0.067927375 -0.20477763 0.05829799 -0.08828985
000070 6f 03 00 3e 9c a4 d3 3c f8 29 b0 3d 92 45 11 bd
       0.1250131 0.025835328 0.08601755 -0.035466738
000080 2c 13 50 3d 6b 8f f9 3d 32 45 ea 3d f7 fb 0c 3e
       0.050799534 0.12185558 0.11438979 0.13767992
000090 9e 9a 0a be ea 70 75 bd a2 24 ed bc b3 46 fb 3c
       -0.13535544 -0.059922136 -0.028948132 0.03067336
0000a0 13 a4 42 3e c7 c3 00 3e 4a 16 e7 38 20 25 17 3c
       0.19007902 0.12574683 0.0001101909 0.00922516
0000b0 8f 47 08 be 70 0b 96 3c 26 8a 03 bd 9d 9a ea 3d
       -0.13308547 0.018316 -0.03211417 0.114552714
0000c0 1c ad 0c be ea f3 99 bd 19 c9 13 3e df 29 38 bd
       -0.13737911 -0.07517226 0.14432181 -0.044961806
0000d0 d4 01 6b bc 66 49 a3 3b 8a 0b aa bd dd e0 28 3e
       -0.014343698 0.004983115 -0.08302982 0.16492029
0000e0 40 77 21 be bd 1e 30 3e 4d 4a 29 3d 6a 26 ae 3d
       -0.15768147 0.17199226 0.041330624 0.08503421
0000f0 a3 be 10 be fe e8 32 3d ac dd 85 3d cd ac d7 bc
       -0.14135222 0.04367923 0.06536421 -0.026327515
000100 54 13 53 3d b5 9f 3c bd 4d e7 d0 bd fb 93 b6 bd
       0.051532105 -0.046050746 -0.10200367 -0.08914944
000110 a3 b2 20 be 55 22 41 bd bc ae b2 3c ec 23 29 bd
       -0.15693145 -0.047151882 0.021811835 -0.041294023
000120 ae 7f 93 3d 06 c3 8a 3d 9d bd a9 bb 43 87 3e bd
       0.07202087 0.06775479 -0.0051800744 -0.046515714
000130 5d d5 a7 3d ab 56 2b be f1 28 24 bc d4 be 09 3d
       0.08194993 -0.1673228 -0.010019527 0.033629254
000140 e9 bc 18 bd 6d c1 34 bd 0a 6e d2 3c cc d6 fe 3d
       -0.037289534 -0.044129778 0.025687236 0.12443313
000150 96 ce f9 bd 79 6d 3f 3d f5 c2 0c be 66 56 38 bd
       -0.12197606 0.04673526 -0.13746245 -0.04500427
000160 d0 85 96 3d a5 e3 a0 3d 33 df a0 3d 77 35 d4 bc
       0.073497415 0.0785592 0.07855072 -0.0259044
000170 51 e3 46 be c5 7f d9 bd 86 de c6 3d f3 ea 21 3e
       -0.19422652 -0.10620073 0.09710412 0.15812282
000180 2c 7f 0a 3e 2f b2 df 3d 57 f5 05 3e a7 f5 88 bc
       0.13525075 0.10922658 0.13081871 -0.016718699
000190 ce 57 27 be 28 bc f7 3b a3 e6 04 be 5a d5 2e be
       -0.16342089 0.007560272 -0.12978606 -0.17073575
0001a0 1b 75 87 bc 75 69 92 bc 30 ba 52 bd 12 db e9 bd
       -0.016535332 -0.017872551 -0.051447093 -0.114187375
0001b0 71 d1 03 be ac 96 3c be f3 43 57 3b af 84 0d be
       -0.12872864 -0.18416852 0.0032846897 -0.13820146
0001c0 a3 68 41 3e a9 43 2a be 9c 64 b4 bd a0 11 6d bd
       0.18887572 -0.16627373 -0.08808252 -0.057878137
0001d0 cc 9f 04 3d 4a c4 14 3e 30 f6 4b bd 01 56 5a bd
       0.032378957 0.14528003 -0.04979533 -0.053304676
0001e0 a8 cf 46 be e3 10 11 bd f1 10 f8 bd ad 89 1e 3e
       -0.19415152 -0.035416495 -0.12112606 0.15482207
0001f0 9b ff ef 3d f9 c1 ad 3d 8e 82 1c be 86 36 21 3d
       0.11718675 0.08484263 -0.15284178 0.03935864
000200 0e a5 11 3e 56 4e 8d 3d 5a 7e 30 be c8 2a 70 3d
       0.1422312 0.06899707 -0.172357 0.05863455
000210 d8 ca 2e 3d 1f 76 6d bd c7 58 e9 bd e3 02 67 bc
       0.042673916 -0.057973977 -0.11393886 -0.014099809
000220 4a a3 b3 bd eb 92 15 3e b3 82 c1 bc 37 4c cc bd
       -0.08771379 0.14606826 -0.023621893 -0.09975474
000230 e7 4e 00 3e 73 53 d1 bc 2f 1e 1d 3e ad 1f 61 bd
       0.12530099 -0.025552487 0.15343545 -0.05496185
000240 3a 51 3d be 9b 22 59 bc af 73 13 3e af cc c3 bd
       -0.18488017 -0.0132528795 0.14399599 -0.09560525
000250 90 c5 1a bd 2f b2 83 3d f1 ca a3 bd 6b 6f 51 bd
       -0.037786067 0.0643047 -0.079976924 -0.051131647
000260 cd 0f c1 bd e6 22 bb 3d 98 74 c2 3c e2 c0 0c 3d
       -0.09426842 0.09137516 0.023737237 0.034363635
000270 cf d9 fd bd c9 a0 f6 bc 86 02 89 3d 29 fd fc 3d
       -0.12395059 -0.030105965 0.066899344 0.12352974
000280 60 2d 07 3c 93 01 b5 3d f3 f6 1b be a0 dc 88 bd
       0.008250564 0.08838191 -0.15230922 -0.06682706
000290 36 41 88 bd f2 e4 18 be f0 35 19 be 03 e3 c3 3d
       -0.06653063 -0.14931086 -0.14961982 0.095647834
0002a0 68 07 ec 3c 10 2a 81 3b 98 d1 b7 bd 59 a6 be bd
       0.028812125 0.003941782 -0.08975524 -0.09309072
0002b0 97 78 93 bd d4 c1 cb 3d b9 01 f3 bd cc df 54 3d
       -0.07200735 0.09949079 -0.11865563 0.05197124
0002c0 bd 78 16 be 94 4e ba bd 4f 8b d0 bd d7 af 8e bd
       -0.14694495 -0.09097019 -0.10182821 -0.069671325
0002d0 7a 96 ef 3d 4a 7e 58 bd 67 fe e8 bd ed 61 3c 3e
       0.11698623 -0.052854814 -0.113766484 0.1839673
0002e0 eb 27 eb 3d 07 02 81 3d 6a c4 08 bd ee 9f 32 be
       0.11482223 0.06299215 -0.03339044 -0.17443821
0002f0 85 a1 08 3e 81 bd 63 3d 35 21 a9 3c 18 1c 39 3e
       0.13342865 0.055600647 0.020645717 0.18077123
000300 6a 79 e1 bc 1e 8b 18 bc c6 6a c3 bc cd 2f fb 3d
       -0.027523715 -0.009310512 -0.023854624 0.12264977
000310 64 7c f5 3d 19 3c d6 3d cd f2 e4 bb bb 68 cd bc
       0.11986616 0.104606815 -0.006986952 -0.025074353
000320 45 cb 72 3d 01 18 94 bc dd 08 ae bd 4a e7 49 3c
       0.059275884 -0.018077852 -0.08497784 0.01232321
000330 35 31 9e 3d 16 5f c4 3d 36 ce bb bd 2b ae 11 3e
       0.07724229 0.09588449 -0.09170191 0.14226596
000340 bc c7 68 3d 94 c2 06 3e 2b 77 a5 bd fd b3 47 3e
       0.056831107 0.13160163 -0.0807937 0.19502254
000350 01 ff ba 3d 1d f1 53 3e 66 8f 8b 3d 14 26 a3 bd
       0.091306694 0.20697446 0.068144605 -0.07966247
000360 66 d8 7b bd 72 7a 8a bd 9b 79 cb 3c b8 95 6c 3e
       -0.06148567 -0.06761636 0.02483826 0.23103988
000370 61 ad 20 3c f0 bc fd bd 9a 0f 2c 3d bd ba d6 bd
       0.009806962 -0.123895526 0.042007066 -0.10484836
000380 35 97 1c 3c 35 42 a1 bd fd 7a 27 bd 83 bf 01 be
       0.009557535 -0.07873956 -0.040888775 -0.12670712
000390 4b ef 1d be 5b b0 c3 3d 3d 5b 33 bd 3e 43 d3 3d
       -0.15423314 0.095551215 -0.043788183 0.1031556
0003a0 f5 87 d5 3d c2 ea 23 3e ea 10 9a bd 18 2d 09 3e
       0.10426322 0.16007522 -0.07522757 0.13396108
0003b0 69 74 84 3d e1 dc cf 3c 41 03 f4 bc ff 37 4e bd
       0.06467516 0.025373878 -0.029786708 -0.05034637
0003c0 e7 12 8d 3d 9e f7 d4 bd ee 37 84 3d 2d ef db bd
       0.06888371 -0.10398792 0.0645598 -0.107389785
0003d0 42 58 44 be 98 20 af bd e9 4c 2f bd 83 4c eb 3d
       -0.19174293 -0.08551139 -0.042797957 0.11489203
0003e0 f2 cc 7b 3d 84 9f ff bc f0 3b 64 3d 7b 0a 10 3e
       0.061474748 -0.031203993 0.055721223 0.14066498
0003f0 b5 2a 15 bc 8b 04 f5 3b 3a 6a 82 bd 46 57 07 bd
       -0.00910442 0.007477348 -0.06367917 -0.033042215

lstm.bias_ih_l0 f4 [128]
000000 1c f1 16 3d ad 06 0b be 11 64 05 be 52 ae 9c bd
       0.036851034 -0.13576765 -0.13026454 -0.076504365
000010 84 9b 9c bd 6c f1 10 3e 06 77 2a 3d 26 84 1c 3e
       -0.0764685 0.14154595 0.041617416 0.15284786
000020 3a 37 8c bc 6c f9 1b be 10 5a 32 be 5c 3e 7b bd
       -0.017116178 -0.15231866 -0.17417169 -0.061338767
000030 8c cd 69 bd f3 1d 24 3e ba ee 07 3e f5 bc 10 be
       -0.05708079 0.1602705 0.1327466 -0.14134581
000040 a5 bd d1 bd a6 43 a1 bd ce 5e 9d 3d 43 d7 39 bd
       -0.1024125 -0.07874231 0.07684098 -0.045371305
000050 7b 00 cc bc f2 e6 53 3d 50 9f 50 3d 91 a3 84 bd
       -0.024902573 0.05173392 0.050933182 -0.0647651
000060 d5 2f ec bd 87 1c 7f be b3 20 53 3d ad 90 5b bd
       -0.11532561 -0.24913226 0.051544856 -0.05360477
000070 1b 63 1a 3e c9 a2 8e bd 22 5c dc 3d da e3 28 be
       0.15076868 -0.069646426 0.107597604 -0.16493168
000080 c9 4c 41 be 7f 52 cf 3d fe 8a 68 bd f2 87 39 be
       -0.18876947 0.10123157 -0.05677318 -0.18118265
000090 7a 9f 36 bd 0a fa 42 bd a1 e6 5a be 0b 86 a1 bc
       -0.044585682 -0.047601737 -0.2137704 -0.019717237
0000a0 85 64 af bd 77 60 e2 3d 36 bb 01 bd 1c 85 87 3c
       -0.085640945 0.110535555 -0.03167268 0.016542964
0000b0 0f 95 4a be b6 c9 22 be e9 6c 0e 3e 32 08 1a bc
       -0.19783424 -0.15897259 0.13908733 -0.009401368
0000c0 db 14 82 be 2f 4d 02 3e b9 da fb 3d 77 24 cd bd
       -0.25406536 0.12724756 0.122975774 -0.10016721
0000d0 cc d6 ac bb a4 44 fe bd 93 7a a4 3d 62 21 8b bc
       -0.005274629 -0.12415436 0.08031192 -0.016983692
0000e0 b0 35 f6 3d f5 63 75 be d4 70 6c 3d 32 65 0d bd
       0.12021959 -0.23963912 0.05772479 -0.034520335
0000f0 6d 34 0d 3e 26 b4 bd 3d f1 22 b7 bb fd 50 14 3e
       0.1378953 0.09262876 -0.005588882 0.1448402
000100 4b 69 59 3d 74 3d cf bd b4 ae 7e 3c ce 58 3a bc
       0.05307893 -0.10119143 0.015544582 -0.011373712
000110 e0 a1 8f bd e8 8b 32 3e 4e 13 88 3c 29 60 e8 3d
       -0.07013297 0.17436182 0.016610768 0.11346466
000120 7a 66 fc bd 2a 73 1f 3d 28 04 6a 3d 0f 2b 25 bc
       -0.12324233 0.03892819 0.05713287 -0.010081067
000130 3c 02 ec bd c5 c2 cf bd 38 15 dd 3d 7f 12 b5 bd
       -0.11523864 -0.10144571 0.10795063 -0.088414185
000140 17 19 e6 bd 66 2e 95 bd aa 39 8d 3d 82 50 32 be
       -0.11235254 -0.072842404 0.06895764 -0.17413524
000150 c3 55 1e 3c 8a be 93 bd 4f a7 86 bd 22 63 33 3d
       0.009664002 -0.07214077 -0.0657488 0.043795712
000160 4f 1d 3c 3e 8a de d7 3d e6 60 3c bd e2 75 ed bd
       0.18370555 0.10540493 -0.045990847 -0.1159475
000170 b1 89 1a 3d 27 af d9 bc bc 63 89 3d b3 34 85 3d
       0.03772897 -0.026572777 0.06708476 0.06504192
000180 fb 01 fb 3d f5 d2 09 be 6c b6 5f 3d c9 df fe 3d
       0.12256237 -0.1345938 0.05461733 0.124450274
000190 68 24 dd bd 38 b8 e6 bd 7f 78 27 be 69 44 83 bd
       -0.107979596 -0.11265606 -0.1635456 -0.064095326
0001a0 e1 94 2d be b5 be 1e be ee e6 ec 3c f6 f4 19 3d
       -0.16951324 -0.15502436 0.02891871 0.03758713
0001b0 d6 8f 85 3d 6d ad 17 3d 54 71 b3 bd 78 04 1c 3b
       0.06521575 0.037030626 -0.0876185 0.0023806375
0001c0 b7 86 0e be 63 81 db bc 14 a0 13 3c d5 a7 18 be
       -0.13918577 -0.026795095 0.009010334 -0.14907773
0001d0 17 05 e1 3d a2 b7 e1 bc c5 b4 a1 bc b4 d7 cd bd
       0.10987299 -0.027553383 -0.019739518 -0.10050908
0001e0 f0 5e f5 ba ab 3c 74 be 6f fb ba 3d b3 b4 63 bd
       -0.001872031 -0.23851268 0.091299884 -0.05559225
0001f0 2d 80 96 bd df 0d 6e bd a4 60 73 3d e1 fa 6f bd
       -0.07348666 -0.058118697 0.059418336 -0.058588866

lstm.bias_hh_l0 f4 [128]
000000 12 6e 49 be 49 a9 5f bd b7 63 ad 3d 7b e2 2f be
       -0.19670895 -0.054604802 0.08466285 -0.17176239
000010 2b 2b 0e bd 36 96 8b bd 83 40 06 be 3f 43 30 be
       -0.034709137 -0.0681576 -0.13110547 -0.17213152
000020 47 2b b9 3b bc e1 c0 bd cf f3 a2 bc 07 4a a0 3d
       0.005650911 -0.094180554 -0.019891648 0.078266196
000030 5f 20 9d bd db 14 15 be 0a d6 fa 3d 51 3e c3 3c
       -0.0767219 -0.14558737 0.12247856 0.023833426
000040 ed df 88 3c 32 69 0d bd 2e 6f f2 bc 3e cf fa bc
       0.016708339 -0.03452415 -0.02959403 -0.030616399
000050 45 d6 3a bd 6b 76 45 be 70 0d 30 bd d0 1b 98 3d
       -0.0456145 -0.19283454 -0.042981565 0.0742718
000060 a9 b5 96 3d 60 56 4b 3d 2d d3 34 bc cf cb f6 bd
       0.07358868 0.04964292 -0.011036676 -0.12050592
000070 1f 92 a1 bb 3d 86 48 bd 97 70 80 bc 5f 20 45 bd
       -0.004930749 -0.048956145 -0.015678687 -0.048126575
000080 44 d7 58 be b4 25 4b 3d b5 cd bc bd c9 b0 55 be
       -0.21175867 0.049596503 -0.09218923 -0.2086822
000090 a1 a5 d5 3d 29 ae 06 3e 51 53 97 3d f8 8e fd bd
       0.10431982 0.13152374 0.07388938 -0.12380785
0000a0 8d 14 f2 bd 8d fe 27 be 70 15 f2 3d 67 d3 ff 3c
       -0.11820326 -0.16405697 0.11820495 0.031228734
0000b0 3d 46 68 3c fe af 25 3e fc a2 1a be 7e 93 6a be
       0.014176902 0.16180417 -0.15101236 -0.22907826
0000c0 77 fa 4f be aa 6b 2d be ef 0e 7a 3d 0c 98 02 be
       -0.20310389 -0.16935602 0.061049398 -0.12753314
0000d0 84 f8 3a bd 83 0a 33 bd 1d 23 b0 bc 03 2e 36 be
       -0.04564716 -0.043711197 -0.021501118 -0.1779099
0000e0 a2 30 fb bc ca fd 75 be d8 d7 2a be 25 db 26 3e
       -0.030662838 -0.24022594 -0.166839 0.16294535
0000f0 f3 fb 49 be a1 f4 3b 3d 2e 24 c9 bc e2 54 65 bd
       -0.19725017 0.045887593 -0.024553385 -0.055989154
000100 87 41 bd 3d 6c 67 37 be 18 b2 1f bd a1 0b bd 3d
       0.09241014 -0.17910546 -0.038988203 0.09230734
000110 da 71 ac 3d 21 fe 85 3c ce e8 d4 bc e1 25 ee bd
       0.08420153 0.01635653 -0.025989916 -0.116283186
000120 75 e6 e5 3d 38 2b 86 3d 9c 5b 4c bc 74 15 f5 3d
       0.11225597 0.06551212 -0.012473013 0.119669825
000130 d6 58 e3 bd 93 2f 3e 3e 54 30 7b bc c5 8c e1 3d
       -0.111009285 0.18572836 -0.015331347 0.11013178
000140 6b 95 4a 3d a2 7f eb 3d 46 c9 a0 3d f4 cd e9 3d
       0.049458902 0.114989534 0.0785089 0.114162356
000150 dd 8d ec 3b a2 cb c2 bd 3d c2 88 3d 56 6a ab 3d
       0.00721906 -0.09511496 0.06677673 0.08369891
000160 4d 27 d6 3d 3e 56 5c bd ec 94 0b 3e b2 09 2e bd
       0.10456715 -0.053793184 0.13631028 -0.042489715
000170 12 fb b8 3d 30 76 9b bd ac f7 ec 3d f3 91 05 be
       0.09032263 -0.07590902 0.11570677 -0.13043956
000180 79 19 3a 3c 6e b2 30 3e f0 84 a6 3d a4 4a d3 bb
       0.011358612 0.17255566 0.081308246 -0.006448107
000190 31 f1 dd bd d0 30 02 3e 7d 70 48 bd a4 63 f8 bd
       -0.10837019 0.12713933 -0.048935402 -0.1212838
0001a0 13 3e 45 be 7a f5 13 bd 32 91 49 be 22 a2 62 bd
       -0.1926196 -0.036122777 -0.19684294 -0.055330403
0001b0 b8 d5 88 bd 34 00 f9 bd f1 48 21 3e 6f 7a 0b be
       -0.066813886 -0.12158242 0.15750481 -0.13620923
0001c0 52 88 e0 bd 38 d3 ab bd df 6b b1 bc a5 9d 23 be
       -0.10963501 -0.08389896 -0.021657882 -0.15978105
0001d0 65 db a3 3d 69 c5 c8 bd a3 47 29 bd 1f 71 b2 ba
       0.080008306 -0.09803278 -0.041328084 -0.0013614035
0001e0 c2 2f 18 3d 09 a8 1f be d9 3b cd 3d a4 48 38 3e
       0.03715492 -0.15591444 0.10021181 0.1799646
0001f0 73 2f 62 3d e3 68 2e 3d 00 24 fd 3d c8 20 db bd
       0.055221032 0.042580497 0.12360382 -0.10699612

fc.weight f4 [3, 32]
000000 42 fb 76 3d 51 b1 2d 3e 3c 32 12 be 57 f5 bb 3b
       0.060298212 0.16962172 -0.14276975 0.005736034
000010 db fb 21 be ef 66 de bd f6 c9 b7 3c d5 9a ac bd
       -0.15818731 -0.10859477 0.02243517 -0.08427969
000020 18 f4 54 3d 23 af ed bd a5 b1 e9 bd ca 93 a3 3d
       0.0519906 -0.1160567 -0.11410836 0.07987173
000030 05 e7 18 bc 29 bd 2e be 92 e9 95 bd 60 4c e8 bb
       -0.009332423 -0.17064346 -0.073199406 -0.0070891827
000040 54 ae 94 bb 8c 37 80 3d 11 23 32 be 5e 03 cf 3d
       -0.004537383 0.06260595 -0.1739619 0.10108064
000050 2d f9 9c bd 68 f2 06 be a5 e4 02 3c 1a 26 5d 3c
       -0.07664714 -0.13178408 0.007989083 0.013497854
000060 23 b1 a1 bd 91 95 bb bb d3 a3 ec 3d 85 33 31 3e
       -0.07895114 -0.005724617 0.115546845 0.1730481
000070 9d b3 64 bc c1 7f 3b 3c 45 c4 3f bd 3e 5f 17 3e
       -0.013958839 0.011444033 -0.046818037 0.14782426
000080 20 7b 0a be 77 b7 13 be 9d d8 df bd a5 6f 11 3c
       -0.13523531 -0.14425455 -0.109299876 0.008876716
000090 47 19 1b 3e 2d ad 38 be d5 91 3c 3d 1d fc c3 ba
       0.15146361 -0.18034811 0.046037514 -0.0014952455
0000a0 dc 7f 3c bb d2 e5 1e bc 03 1f cb 3d d6 a0 bb 3d
       -0.0028762734 -0.009698348 0.099180244 0.091615364
0000b0 2d e2 b1 3b b4 a9 b6 3d 7b 98 58 3d 32 0f e7 3d
       0.0054285736 0.08919087 0.05287979 0.11282195
0000c0 66 38 52 bd 3b a6 81 bd 8c 29 bd 3d 4c 64 a4 3b
       -0.051323317 -0.06330534 0.0923644 0.005016839
0000d0 d6 5a bc 3d d1 0e 14 be 2c 26 5c 3c 5f 52 ac 3d
       0.09197013 -0.14458777 0.013436835 0.084141485
0000e0 b5 68 17 bc fc e9 e7 bd 57 e1 11 be 36 06 16 3e
       -0.009241273 -0.11323926 -0.14246117 0.14650807
0000f0 29 b0 24 3e 77 02 13 3e fb 91 9c 3d 32 00 8a 3d
       0.16082825 0.14356409 0.07645031 0.067383185
000100 8e cd b9 3d f5 9e cf 3d b1 2d 86 bd f0 95 50 3c
       0.090724096 0.101377405 -0.06551684 0.01273106
000110 67 10 bc bb 80 39 fe 3d 4a 83 a8 bd 2a c6 22 bc
       -0.00573926 0.12413311 -0.082281664 -0.009934941
000120 8b 63 df 3d 4a ec ca 3d 70 be 63 bc 0c 05 d7 3b
       0.10907658 0.0990835 -0.013900384 0.006561881
000130 6f b1 f9 bd da 0c d1 bd 22 58 c3 ba 50 c7 08 3e
       -0.12192046 -0.10207529 -0.0014903585 0.13357282
000140 f2 52 25 bd 80 10 2e bd 2c f5 be 3c 85 1f a3 3d
       -0.040362306 -0.042496204 0.023310266 0.07964996
000150 00 a7 a2 3d 93 69 fd bc 82 f3 a5 bd 62 e8 20 3d
       0.07942009 -0.03093413 -0.08103086 0.039284118
000160 59 d4 92 3d 64 3a 8b 3d 04 c3 0c 3e 09 a1 d5 bc
       0.07169408 0.067982465 0.13746268 -0.026077764
000170 49 4c 5a bd 53 7e ce bc 3f 7e 39 bd dd 66 91 bd
       -0.053295407 -0.02520672 -0.045286413 -0.07099698

fc.bias f4 [3]
000000 d0 82 b7 3d c2 61 e7 bc 0f e4 d2 bc
       0.089604974 -0.028244857 -0.025743512
