checkpoints/LSTM/RET_h1_h1_tr2022-01-01_te2025-01-01_seed5_lam1.0e-04.pt (torch, 25930 bytes, 6 tensors)

lstm.weight_ih_l0 f4 [128, 9]
0	0x3dea1e14	0.11431518
1	0xbdfbeb43	-0.12300732
2	0x3e1c554e	0.15266916
3	0x3e2630ec	0.162296
4	0x3e12ecb7	0.14348112
5	0xbdcbb567	-0.09946709
6	0xbdf29e66	-0.11846618
7	0x3da12cf0	0.07869899
8	0xbe1f5c5b	-0.15562575
9	0x3e2f1597	0.1709808
10	0x3c686b2a	0.014185706
11	0x3e1825e3	0.14858203
12	0xbe0bd6c9	-0.13656153
13	0x3d9b8798	0.07594222
14	0x3cc87574	0.024470069
15	0x3bdece89	0.0067995233
16	0x3e2b549b	0.16731493
17	0x3c910488	0.017702356
18	0xbe255178	-0.16144359
19	0x3e2b021d	0.16700025
20	0x3dbbc97d	0.0916929
21	0xbd988ca6	-0.074487016
22	0xbe4550f1	-0.19269158
23	0x3e048677	0.1294192
24	0x3e2949cb	0.16532056
25	0xbe17257d	-0.14760394
26	0xba98d191	-0.0011659135
27	0x3d926891	0.07148851
28	0xbd569dcc	-0.05239658
29	0xbd1e34d3	-0.038624596
30	0xbe2f4c6e	-0.17119
31	0xbdcf4bc4	-0.10121873
32	0xbdec1c8c	-0.115288824
33	0xbbef2056	-0.007297556
34	0x3dc91ca3	0.09819915
35	0x3db74106	0.08947949
36	0x3e21771d	0.15768094
37	0xbe1d80b0	-0.15381122
38	0xbd556467	-0.052097704
39	0x3e0cf1b8	0.13764083
40	0xbc8dcf75	-0.017310837
41	0xbd76cec2	-0.060255773
42	0xbe22fa1b	-0.1591572
43	0x3da6e452	0.081490174
44	0x3e1248f9	0.1428565
45	0x3e18d2a7	0.14924107
46	0x3e0c4623	0.1369863
47	0x3e024d81	0.12724878
48	0x3d996e7d	0.07491777
49	0xbd8b05b9	-0.06788201
50	0x3dd85eac	0.10564932
51	0xbcaf3190	-0.021385938
52	0xbd1f8e1f	-0.038953897
53	0xbdd1bf65	-0.10241584
54	0x3e0ccda8	0.13750327
55	0x3e0d60d3	0.13806467
56	0x3df3f63d	0.119122006
57	0xbe02146a	-0.127031
58	0xbdf8e56a	-0.12153132
59	0x3e16768d	0.14693661
60	0xbdbdfdf3	-0.092769526
61	0xbdd58f7d	-0.10427759
62	0xbc8e48fc	-0.017368786
63	0xbd7cb0d3	-0.06169207
64	0xbdf6f0e4	-0.12057665
65	0x3df279d7	0.11839645
66	0x3d564a72	0.05231709
67	0x3db1ff60	0.08691287
68	0x3e42e143	0.19031243
69	0xbdf5e3ff	-0.120063774
70	0x3e05c934	0.13065034
71	0xbdaf9cfb	-0.085748635
72	0xbd273f73	-0.040831994
73	0x3dddada4	0.10824135
74	0x3e59b57f	0.21260642
75	0x3e52b883	0.20578198
76	0x3ddbcc58	0.10732335
77	0x3e388e58	0.1802305
78	0xbd90351b	-0.07041379
79	0xbc819da4	-0.01582224
80	0xbd8ca1c4	-0.06866792
81	0xbd632792	-0.05545766
82	0xbdc26380	-0.09491634
83	0xbd0d98c2	-0.03456951
84	0x3e38f6ca	0.18062893
85	0xbe024599	-0.12721862
86	0xbd5eba70	-0.05437702
87	0xbd5c51cf	-0.053788956
88	0x3cb0400d	0.021514917
89	0xbd7140da	-0.058899738
90	0xbe19a41c	-0.15004009
91	0xbd983034	-0.07431069
92	0xbd7cc0fb	-0.061707478
93	0x3d252632	0.04031963
94	0xbe07c3aa	-0.13258234
95	0xbd86ee9a	-0.065884784
96	0xbd869372	-0.06571092
97	0xbcecb3c2	-0.028894309
98	0x3e01d5ea	0.12679258
99	0x3d5fe34e	0.054660134
100	0xbdf56282	-0.119816795
101	0xbe8bc12a	-0.2729581
102	0xbdd84bb3	-0.105613135
103	0xbe242296	-0.16028818
104	0x3d46d11f	0.048539277
105	0xbda4c1c0	-0.080447674
106	0xbe015ae8	-0.12632334
107	0x3d0c7d3e	0.034299128
108	0x3ba1f20d	0.004942185
109	0xbd0c8f2d	-0.03431623
110	0xbd8c27d7	-0.06843536
111	0x3e3233ca	0.17402568
112	0xbe3147be	-0.17312524
113	0x3d2eb993	0.042657446
114	0x3d97d61c	0.07413885
115	0x3df4b3e4	0.11948374
116	0xbe2529d9	-0.16129245
117	0xbc60e46e	-0.013726337
118	0x3e37937e	0.17927358
119	0x3dad4b6d	0.08461652
120	0x3cec3136	0.02883206
121	0xbd7a85ca	-0.061162747
122	0x3da08bbe	0.07839154
123	0xbd8bb348	-0.068213046
124	0xbdc6c67a	-0.09705825
125	0x3e1d33aa	0.1535174
126	0x3dacc976	0.08436863
127	0x3d4b900d	0.049697924
128	0xbe216df8	-0.15764606
129	0xbd51eccb	-0.051251214
130	0xbe362fe9	-0.17791714
131	0xbd05865d	-0.032598842
132	0xbce4883c	-0.027896993
133	0x3cd3a510	0.025835544
134	0xbe02aa4a	-0.12760273
135	0x3e36845e	0.17823932
136	0x3e205c82	0.15660289
137	0xbdd9fc05	-0.10643772
138	0x3dcca9e6	0.09993343
139	0xbe0309eb	-0.12796752
140	0xbdd0ce01	-0.10195542
141	0x3e29eae2	0.16593507
142	0xbd94b807	-0.07261663
143	0xbd48e604	-0.049047485
144	0x3cd9d359	0.026590036
145	0x3dc6f924	0.097154886
146	0x3d69f277	0.057115998
147	0xbd201ef5	-0.039092023
148	0x3dbf1a19	0.093311496
149	0xbe19fc7f	-0.15037726
150	0xbe06bd70	-0.13158202
151	0x3d337339	0.043811057
152	0x3c3e1fd0	0.011604264
153	0x3d956d13	0.07296195
154	0xbd5defaa	-0.05418364
155	0xbe1cfd2f	-0.15330957
156	0xbc5f6fac	-0.0136374645
157	0xbe34027a	-0.1757907
158	0xbc96145d	-0.018320257
159	0x3da40000	0.080078125
160	0x3c3b2425	0.011422192
161	0x3d494b85	0.049144287
162	0xbce3b2fd	-0.02779531
163	0x3d3a6927	0.045510437
164	0x3e67e151	0.22644545
165	0xbbd8fe99	-0.0066221473
166	0xbc59690f	-0.013269677
167	0xbd59b2ea	-0.05314914
168	0x3dcdf73e	0.10056923
169	0x3e17b928	0.14816725
170	0xbe29d94d	-0.165868
171	0x3e063e1b	0.13109629
172	0xbbca5f6c	-0.006175926
173	0xbd387612	-0.045034476
174	0xbe30a6ae	-0.17251083
175	0xbe3cf081	-0.1845112
176	0xbe0ac738	-0.13552558
177	0xbe2f2610	-0.17104363
178	0xbdfceb4a	-0.12349565
179	0xbd9cf4db	-0.0766389
180	0xbe161be2	-0.14659074
181	0xbe0a97e9	-0.13534512
182	0xbcf603f6	-0.030031186
183	0xbd9a99b2	-0.07548846
184	0xbcc2d09d	-0.023781115
185	0xbd46bcbd	-0.04851984
186	0x3cf55655	0.029948393
187	0x3dd9645c	0.10614845
188	0x3dc9f8d1	0.09861911
189	0xbdec7a4a	-0.11546762
190	0xbdb06530	-0.0861305
191	0x3d889163	0.06668355
192	0x3df847a5	0.1212304
193	0x3d948948	0.07252747
194	0xbe2790fa	-0.16363898
195	0xbd0df488	-0.03465703
196	0x3d06dbbc	0.0329244
197	0x3d1025a9	0.035192166
198	0xbdd3250f	-0.10309803
199	0xbe4acedc	-0.19805473
200	0xbb505855	-0.0031790931
201	0xbc9f202c	-0.01942452
202	0xbe02ec00	-0.1278534
203	0x3d02a185	0.03189232
204	0x3db2d244	0.08731511
205	0xbb917c5d	-0.004439874
206	0x3c6c3a11	0.014418141
207	0x3dd85dd9	0.10564775
208	0x3dc90feb	0.09817489
209	0xbdbc9ac5	-0.092092074
210	0x3df434ec	0.119241565
211	0x3cdc2919	0.026875066
212	0xbe1907fc	-0.14944452
213	0x3d1d7108	0.038437873
214	0xbdfde0b5	-0.12396375
215	0x3e17c07e	0.14819524
216	0x3e0c8ab3	0.13724785
217	0xbe02df33	-0.12780456
218	0xbe01a5a3	-0.12660842
219	0x3cbb450c	0.022860073
220	0xbd43c083	-0.047791015
221	0x3d80a73b	0.06281897
222	0xbe2b6d36	-0.1674088
223	0x3e02c489	0.12770285
224	0x3c846994	0.016163625
225	0xbbf600ac	-0.0075074043
226	0xbe113dec	-0.14183778
227	0x3e000319	0.12501182
228	0x3d555f4e	0.052092843
229	0x3e43dbcf	0.19126819
230	0xbe249383	-0.16071896
231	0xbdae533f	-0.08511972
232	0x3d14b1dc	0.036302432
233	0x3da04b7b	0.07826897
234	0xbe20cdab	-0.15703456
235	0xbda277a7	-0.07932978
236	0xbe1be7dc	-0.15225166
237	0x3e7b2cb7	0.24528776
238	0xbd420e04	-0.047376648
239	0x3e19cfa6	0.15020618
240	0x3dc12876	0.094315454
241	0x3c6b6a6c	0.014368635
242	0x3d1298e2	0.03579033
243	0x3d8c2b9d	0.06844256
244	0xbd938ddd	-0.07204793
245	0x3dbe151c	0.0928137
246	0xbc684d43	-0.014178577
247	0xbb607d6e	-0.003425445
248	0x3e1a1d32	0.150502
249	0xbe361f33	-0.17785339
250	0xbdb529c9	-0.088458605
251	0xbe4e43a5	-0.20142992
252	0xbcffed41	-0.031241061
253	0xbcd8ff47	-0.026488913
254	0xbc466701	-0.012109519
255	0xbdde7e0f	-0.108638875

lstm.weight_hh_l0 f4 [128, 32]
0	0x3dff6adf	0.12471556
1	0xbd201f35	-0.03909226
2	0xbde777c8	-0.11302143
3	0xbd481a7f	-0.048853394
4	0x3e0bc1fe	0.13648221
5	0x3e3f17fd	0.18661495
6	0xbc07ae89	-0.0082813585
7	0x3e15c426	0.14625606
8	0xbddfdf4e	-0.10931264
9	0x3bc36855	0.005963365
10	0xbbf61ee6	-0.0075110076
11	0xbe17eada	-0.14835683
12	0x3e064153	0.13110857
13	0x3e24ea90	0.16105103
14	0x3d834390	0.06409371
15	0x3da7a1b7	0.081851415
16	0xbdd0553e	-0.10172509
17	0x3ca6b773	0.020351147
18	0xbddbee5f	-0.10738825
19	0xbdc9d44d	-0.09854946
20	0xbe549eca	-0.20763698
21	0xbdd9e017	-0.10638445
22	0x3e3d4716	0.18484148
23	0x3d7a1d4e	0.061063103
24	0x3e418454	0.18898135
25	0x3c7f4116	0.015579483
26	0xbe231c59	-0.15928783
27	0xbdfc1cf1	-0.12310208
28	0xbe07da85	-0.13266952
29	0x3c851de4	0.016249605
30	0xbc819fa0	-0.015823185
31	0x3e189c98	0.14903486
32	0xbcca4bff	-0.02469444
33	0x3d2ff700	0.042960167
34	0xbe137f24	-0.14403969
35	0xbd9a4af7	-0.0753383
36	0xbe258e2e	-0.16167518
37	0xbdb7445f	-0.089485876
38	0xbe0bd9be	-0.13657281
39	0x3c034ebc	0.008014377
40	0xbcf0b8da	-0.02938502
41	0xbddb5d15	-0.10711113
42	0x3dc1ed66	0.09469108
43	0x3d76a5fb	0.060216885
44	0x3d7b5f56	0.061370216
45	0xbda0e0d6	-0.07855384
46	0x3ce07753	0.027400648
47	0xbd9510b4	-0.072785765
48	0x3e04cd60	0.1296897
49	0xbdec9301	-0.11551476
50	0xbe11b2bb	-0.14228337
51	0x3d87cfdb	0.06631442
52	0x3dcf2151	0.101137765
53	0x3e3b3cec	0.18284959
54	0x3e43034c	0.19044226
55	0x3de0cbf3	0.109764
56	0xbd67b26f	-0.056566652
57	0x3e453489	0.19258322
58	0xbbd9e4e3	-0.0066496
59	0x3d996897	0.07490652
60	0x3e3aa56b	0.18227164
61	0xbe5c1f83	-0.21496396
62	0x3dbcdadf	0.09221434
63	0xbde44381	-0.11145688
64	0xbdf95d60	-0.12176013
65	0xbd1520bc	-0.03640817
66	0xbe200ef7	-0.15630709
67	0xbe02ed55	-0.12785847
68	0x3df3acf6	0.11898224
69	0xbde79c87	-0.11309152
70	0x3e3b8ff1	0.18316628
71	0x3d4057a1	0.04695857
72	0x3d8dfc8b	0.069329344
73	0x3e0a54e5	0.13508947
74	0x3e1e6568	0.15468371
75	0x3d775a22	0.06038869
76	0xbd88aad5	-0.066732086
77	0xbe004f23	-0.12530188
78	0x3db2bdb5	0.0872759
79	0x3a4abecc	0.00077341194
80	0xbd2e0d04	-0.04249288
81	0xbd889164	-0.06668356
82	0xbe3db0ac	-0.18524426
83	0x3d9ee6ed	0.07758889
84	0xbe31bfb2	-0.17358282
85	0xbc8bb071	-0.017051907
86	0x3d6d3810	0.057914793
87	0xbdda2486	-0.106514975
88	0x3e58e186	0.2117978
89	0x3d3ec206	0.046571754
90	0x3d6d0513	0.057866167
91	0xbd8f5d20	-0.07000184
92	0x3d648f7c	0.0558009
93	0xbd5054b2	-0.05086202
94	0xbd897251	-0.06711257
95	0x3d7d9f15	0.06191929
96	0x3c970e1c	0.018439345
97	0xbdc2dd4c	-0.09514865
98	0xbdfa2c79	-0.12215514
99	0xbe291240	-0.16510868
100	0x3d1fa549	0.038975988
101	0x3e1517d5	0.14559872
102	0xbdf536af	-0.11973321
103	0xbdbe005d	-0.09277413
104	0xbdaea134	-0.08526841
105	0x3badf4fe	0.0053087464
106	0x3da308cf	0.079606645
107	0x3bd0881e	0.0063638827
108	0xbe120b2d	-0.14262076
109	0x3dfdb148	0.12387329
110	0xbe1d5b1e	-0.1536679
111	0x3e2f53b3	0.17121772
112	0xbdc1bd47	-0.0945993
113	0x3da4b4a0	0.08042264
114	0xbd0c7312	-0.034289427
115	0x3e1ce72e	0.15322563
116	0xbd8e837b	-0.06958672
117	0xbde4bc10	-0.111686826
118	0xbb900f56	-0.0043963594
119	0x3d9b9005	0.07595829
120	0xbe2a97a6	-0.16659412
121	0xbdf477c8	-0.11936909
122	0x3de21eba	0.11041017
123	0x3e0279cf	0.12741779
124	0x3d4e6113	0.050385546
125	0x3d44b108	0.048020393
126	0xbda09a62	-0.07841946
127	0x3e184015	0.14868195
128	0xbd8e494f	-0.06947576
129	0x3d7c117b	0.06154011
130	0xbdcaa70f	-0.09895145
131	0xbd71ae7f	-0.059004303
132	0x3e0ce43c	0.1375894
133	0xbe2bae3a	-0.16765681
134	0x3e0466f0	0.12929893
135	0x3d00011f	0.03125107
136	0x3e4cadcd	0.19988175
137	0x3ce98c27	0.028509213
138	0x3cde710f	0.02715352
139	0x3e52f4c9	0.2060119
140	0xbe18b9bc	-0.14914602
141	0x3d70fade	0.058832996
142	0xbe01de5d	-0.12682481
143	0x3e296880	0.1654377
144	0x3e29a5ac	0.16567105
145	0xbd80b898	-0.062852085
146	0xbe206006	-0.1566163
147	0x3e2d42ad	0.16919966
148	0xbe2a7252	-0.16645172
149	0x3e299f51	0.1656468
150	0xbc7cb8e9	-0.015424945
151	0x3deb22b6	0.1148123
152	0xbdf224bd	-0.118234135
153	0xbd4c32d4	-0.04985316
154	0xbde02922	-0.109453455
155	0xbddb2538	-0.10700458
156	0xbe2ef57c	-0.17085832
157	0x3ca6003e	0.020263787
158	0xbe254f68	-0.16143572
159	0x3d096581	0.033544067
160	0x3c8ac922	0.01694161
161	0xbd2d1061	-0.04225195
162	0xbe013e08	-0.1262132
163	0xbe54bf59	-0.20776118
164	0xbc86d514	-0.016459025
165	0x3da43c53	0.080193184
166	0x3d8a5d47	0.067560725
167	0x3c3dc45e	0.011582462
168	0xbbff23e1	-0.0077862595
169	0xbe4a89ce	-0.19779131
170	0x3dc1e53b	0.0946755
171	0xbcb71342	-0.02234805
172	0xbd641c58	-0.055691093
173	0x3c9918ea	0.018688638
174	0xbb2891fb	-0.0025721777
175	0x3d88645f	0.06659769
176	0x3e449c6f	0.192003
177	0x3dce67f8	0.10078424
178	0x3cff7227	0.031182362
179	0xbd84100a	-0.06448372
180	0xbe27735b	-0.16352598
181	0x3db55049	0.08853204
182	0x3d3c6335	0.04599305
183	0xbe2efdab	-0.17088954
184	0x3e1aa651	0.15102507
185	0x3e846208	0.25856042
186	0xbd332239	-0.04373381
187	0xbd415637	-0.04720136
188	0xbe119b4c	-0.14219397
189	0xbe5d2d50	-0.21599317
190	0xbdba7575	-0.091044344
191	0x3df8b018	0.12142962
192	0xba99af87	-0.0011725285
193	0x3d82c836	0.063858435
194	0xbce2e22e	-0.027695742
195	0xbd8357ce	-0.06413232
196	0xbddd1adf	-0.10796141
197	0xbdd6082c	-0.104507774
198	0x3cb757c3	0.022380715
199	0x3d9a5dbf	0.07537412
200	0x3cd60343	0.026124602
201	0x3d969ee9	0.073545285
202	0x3dcd3d97	0.10021513
203	0xbdd9b498	-0.10630149
204	0x3e0de21b	0.13855784
205	0xbd065eb1	-0.03280515
206	0x3d976852	0.073929444
207	0x3df5c621	0.12000681
208	0x3dda22c0	0.10651159
209	0xbc7ad8f4	-0.015310515
210	0x3ddeb7a4	0.108748704
211	0xbc916203	-0.017746931
212	0x3c9a894f	0.018864302
213	0x3dcd5013	0.100250386
214	0x3e3f8059	0.18701304
215	0xbdee7451	-0.11643279
216	0x3cb4ba90	0.022061616
217	0x3c0e4315	0.008682986
218	0xbd308bfb	-0.043102246
219	0x3d007946	0.031365655
220	0xbe18031b	-0.14844935
221	0x3cac7588	0.021052137
222	0xbe1c5cac	-0.15269727
223	0xbd837432	-0.06418647
224	0x3e149aa6	0.14512119
225	0x3c7dfb1e	0.0155017655
226	0xbc97e44c	-0.018541478
227	0xbe384564	-0.1799522
228	0x3dc0bb55	0.09410731
229	0x3d198ee7	0.037489798
230	0x3d440e04	0.04786493
231	0x3db80c10	0.08986676
232	0x3d3ff297	0.04686221
233	0x3d3e9f41	0.046538595
234	0xbdbd396e	-0.092394695
235	0x3d4711a7	0.04860082
236	0xbe5739f3	-0.210182
237	0x3e248323	0.1606565
238	0xbe510466	-0.20411834
239	0xbdfd0158	-0.12353772
240	0xbd521611	-0.051290575
241	0x3cd2db97	0.025739474
242	0xbd264b7c	-0.04059933
243	0xbc20c138	-0.009811692
244	0x3d9e83bf	0.07739972
245	0x3ccc6eb6	0.024955135
246	0xbdd56425	-0.10419492
247	0x3c1f5e32	0.009727048
248	0x3ddfcc43	0.10927632
249	0x3dc380b9	0.09546036
250	0x3ca8d2ea	0.020608384
251	0x3dcdc80b	0.10047921
252	0x3d2d7bd0	0.042354405
253	0x3d325641	0.04353929
254	0x3e0988f9	0.13431157
255	0x3c82f324	0.01598508

lstm.bias_ih_l0 f4 [128]
0	0x3e02739d	0.12739415
1	0xbd9fdf29	-0.07806236
2	0xbe3a963c	-0.18221372
3	0xbdb35751	-0.08756889
4	0x3d96a1a1	0.07355047
5	0xbddab082	-0.106781974
6	0xbb4c5d69	-0.0031183606
7	0x3dfab246	0.12241034
8	0xbd31facb	-0.043452065
9	0xbe0c4897	-0.13699566
10	0x3d839ca1	0.06426359
11	0xbd61cdbe	-0.05512785
12	0x3de8296d	0.11336026
13	0x3d46801d	0.048462022
14	0x3ddaf3d3	0.10691037
15	0xbe3a639f	-0.18202065
16	0x3cb790e6	0.02240796
17	0x3dda901b	0.10672017
18	0x3de902d8	0.113774955
19	0xbd97d0af	-0.0741285
20	0xbdcf9c61	-0.10137249
21	0xbd9c2b66	-0.07625465
22	0x3db294bc	0.08719775
23	0x3cdb7241	0.026787879
24	0xbd4d964a	-0.050192155
25	0xbdea4602	-0.11439134
26	0xbd885149	-0.06656129
27	0xbdb48fce	-0.08816491
28	0x3d4be68a	0.049780406
29	0xbe021538	-0.12703407
30	0xbc145196	-0.009052655
31	0xbdf0ad2f	-0.11751782
32	0x3e0ce727	0.13760053
33	0x3e121a55	0.14267857
34	0x3de2fdad	0.11083541
35	0x3d88fa25	0.06688336
36	0x3d92bc20	0.07164788
37	0xbc623572	-0.013806688
38	0x3d9c98e7	0.07646351
39	0xbdc76396	-0.097357914
40	0xbdb0ddcc	-0.086360544
41	0x3db00d83	0.08596327
42	0x3c92ff53	0.017944014
43	0xbddc4f84	-0.10757354
44	0x3caa30dd	0.020775253
45	0xbe26a9a6	-0.16275653
46	0x3dffc1ce	0.12488137
47	0x3ca643cc	0.020296
48	0x3da8d171	0.08243073
49	0xbd810b9a	-0.06301041
50	0x3dd42971	0.10359467
51	0xbe22eaf4	-0.1590994
52	0x3dffd63f	0.12492036
53	0x3ca04cac	0.01956781
54	0x3cca0904	0.024662502
55	0x3d044867	0.03229561
56	0x3cbd495e	0.023106273
57	0x3df27ec7	0.11840587
58	0x3e16425b	0.1467375
59	0x3ca7a5a4	0.020464726
60	0x3d04fca2	0.032467492
61	0xbc2cb412	-0.010540979
62	0x3cabc4f5	0.02096794
63	0x3e051d75	0.12999518
64	0x3d43e98f	0.04783016
65	0x3dd219b0	0.10258806
66	0x3e2dcc13	0.1697238
67	0xbcb77d3c	-0.022398584
68	0x3cfa17cd	0.030528927
69	0xbd9d5460	-0.07682109
70	0xbba582fe	-0.005051016
71	0x3dfe54d5	0.12418524
72	0xbd0808c1	-0.033211473
73	0xbe0998c8	-0.13437188
74	0xbe02123c	-0.12702268
75	0xbe0e5bba	-0.13902178
76	0xbd6cd4ba	-0.05782006
77	0x3e0f3ac1	0.13987257
78	0x3c81ab3c	0.015828721
79	0x3da841c4	0.08215669
80	0x3d062830	0.03275317
81	0xbe262610	-0.16225457
82	0x3dd1f6c4	0.10252145
83	0xbe101462	-0.14070275
84	0xbdc5e65e	-0.0966308
85	0xbbc0b105	-0.0058804774
86	0xbe14d7aa	-0.14535394
87	0xbcd85f41	-0.026412608
88	0x3d6183cc	0.055057332
89	0xbd593d84	-0.05303718
90	0x3dd584b5	0.104257025
91	0xbd81fbcc	-0.063468546
92	0x3dd154b8	0.10221237
93	0x3e2bb04d	0.16766472
94	0xbc812b2b	-0.015767654
95	0xbbcf526c	-0.006326964
96	0xbdbe9483	-0.0930567
97	0xbd9d8da6	-0.07693033
98	0xbdeea388	-0.11652285
99	0x3de1d2b9	0.1102652
100	0xbdccce09	-0.100002356
101	0xbe0d02de	-0.13770625
102	0x3db7b914	0.08970848
103	0xbe51786c	-0.20456094
104	0xbe42e881	-0.19034006
105	0x3dfc149a	0.12308617
106	0xbd65ef26	-0.056136273
107	0x3d98a4d7	0.07453316
108	0xbdaa52c6	-0.08316569
109	0x3df6fdef	0.12060153
110	0x3d7390d2	0.059464283
111	0xbe05bb25	-0.13059671
112	0xbe1a0685	-0.1504155
113	0xbdcf56ec	-0.10124001
114	0x3dd9be30	0.106319785
115	0x3e0fad76	0.14031014
116	0x3d05e1fb	0.032686215
117	0x3d9d8cea	0.07692893
118	0xbdf16991	-0.11787713
119	0x3d8e6e5f	0.06954645
120	0xbd97e623	-0.07416942
121	0x3d86f110	0.06588948
122	0xbe275d3a	-0.16344157
123	0x3d751e46	0.059843324
124	0x3dc3de41	0.09563876
125	0xbe3d7ccf	-0.18504642
126	0xbe35ccd1	-0.17753913
127	0x3bca93bb	0.0061821616

lstm.bias_hh_l0 f4 [128]
0	0x3e17d3a1	0.14826824
1	0x3cf4fa33	0.02990446
2	0x3e03aa0c	0.12857836
3	0xbe333bf7	-0.17503344
4	0xbde13ccd	-0.10997925
5	0xbca83cbf	-0.020536778
6	0x3d5d2d39	0.053998206
7	0xbdd73ba2	-0.10509421
8	0xbd98e7a8	-0.0746606
9	0x3c4e2904	0.012583021
10	0x3e0e4726	0.13894328
11	0xbdb525d0	-0.08845103
12	0x3cd21b32	0.025647733
13	0xbe10fb78	-0.14158428
14	0x3d2c5fcc	0.042083547
15	0xbc0645ab	-0.008195321
16	0xbdfb80b4	-0.122804075
17	0xbb3fe1d7	-0.0029278898
18	0xbd1e44ea	-0.03863994
19	0x3d988941	0.07448054
20	0xbdd11b31	-0.102102645
21	0x3dc73bb0	0.09728181
22	0x3e0b1651	0.13582732
23	0x3d236e6a	0.03990022
24	0xbe1f00b3	-0.1552761
25	0xbe49f1f7	-0.19721209
26	0x3d9a4417	0.07532518
27	0xbdb81f20	-0.089903116
28	0x3df282c5	0.118413486
29	0x3d2e7862	0.042595275
30	0xbcb7dcfa	-0.022444237
31	0xbd2ee17f	-0.04269552
32	0x3ddecf2c	0.10879359
33	0xbe30ec51	-0.17277648
34	0xbe04bb39	-0.12962045
35	0x3db88699	0.090100475
36	0xbccddb1f	-0.0251289
37	0xbd966c07	-0.07344823
38	0xbdd8ee77	-0.105923586
39	0xbddcb4d0	-0.10776675
40	0xbe0b042c	-0.1357581
41	0xbd4b02d5	-0.049563248
42	0x3d83e250	0.0643965
43	0xbd4074fb	-0.04698656
44	0xbdc2794d	-0.094957925
45	0x3d2bcc1d	0.041942704
46	0x3ded2a8b	0.1158038
47	0xbd509463	-0.050922763
48	0xbe53c548	-0.20680726
49	0xbd0b935e	-0.034076087
50	0x3d727c46	0.059200548
51	0xbda0b131	-0.078462966
52	0xbd9d9131	-0.07693709
53	0xbcb6d895	-0.022320071
54	0xbdfcc133	-0.12341537
55	0xbd7b561f	-0.06136143
56	0xbe3b2026	-0.18273982
57	0x3ca7f89b	0.020504287
58	0xbdda4f9d	-0.10659716
59	0x3dd9b87e	0.10630892
60	0x3dbf7c9d	0.0934994
61	0x3df95976	0.121752664
62	0xbdbbc6c5	-0.09168772
63	0xbdd683a2	-0.10474326
64	0xbe1fe042	-0.15612891
65	0x3dadfc54	0.084953934
66	0xbe0d40f8	-0.13794315
67	0x3e027948	0.12741578
68	0xbd0761f3	-0.033052396
69	0x3d90919a	0.07059021
70	0xbdd4fec1	-0.10400153
71	0xbd8cf977	-0.06883519
72	0xbc81ce06	-0.01584531
73	0x3e176d48	0.14787781
74	0xbcd800b8	-0.02636753
75	0x3d9d5305	0.0768185
76	0x3de8ba40	0.11363649
77	0xbe08613d	-0.13318343
78	0x3d42fa2f	0.047601875
79	0xbe099885	-0.13437088
80	0xbd69c4f8	-0.05707261
81	0xbe23fee2	-0.16015199
82	0x3d0faef6	0.035078965
83	0xbd14c2b9	-0.036318514
84	0x3db65ddb	0.0890462
85	0xbdafcb4c	-0.08583698
86	0x3c2ff33d	0.010739145
87	0x3daeb453	0.08530488
88	0xbd8293ed	-0.06375871
89	0xbc8052df	-0.015664516
90	0xbdadc43d	-0.08484695
91	0xbd9aa064	-0.07550123
92	0xbdb17b59	-0.08666105
93	0xbba65075	-0.005075509
94	0x3e113eea	0.14184156
95	0xbe271c29	-0.16319336
96	0x3cc75352	0.024331722
97	0xbe359ab6	-0.17734799
98	0xbd0649bb	-0.03278516
99	0x3cb8d1db	0.022561004
100	0xbd2b3803	-0.041801464
101	0x3cb6a4e1	0.022295417
102	0xbde34496	-0.11097066
103	0xbc60d1cb	-0.013721894
104	0xbe42314e	-0.18964121
105	0xbdc14e78	-0.09438795
106	0x3de50406	0.11182408
107	0xbe1b5314	-0.1516841
108	0xbcc0560f	-0.023478536
109	0x3d6973fc	0.056995377
110	0xbdc7da10	-0.09758389
111	0xbdc4d156	-0.0961024
112	0xbe4ad6e7	-0.19808541
113	0x3db615f6	0.088909075
114	0x3dea9b5e	0.11455415
115	0xbd41ea87	-0.047342803
116	0x3d736a6d	0.059427667
117	0x3db44d3a	0.08803792
118	0xbdec8509	-0.11548812
119	0x3e026a4c	0.12735862
120	0xbe14ef01	-0.14544298
121	0xbdfdbbb0	-0.12389314
122	0xbe4e8fdf	-0.2017207
123	0xbe34c494	-0.17653114
124	0x3cd1512f	0.025551407
125	0xbdc7ea3d	-0.09761474
126	0x3c54f811	0.012998597
127	0xbd7f54d3	-0.062336754

fc.weight f4 [3, 32]
0	0xbcb9db20	-0.022687495
1	0x3d167676	0.036734067
2	0x3a4e7148	0.00078751566
3	0xbe0dda6b	-0.13852851
4	0x3bdeb476	0.006796415
5	0xbe1ab92c	-0.151097
6	0xbe1fd9b6	-0.15610394
7	0xbde89b5b	-0.11357757
8	0x3e0ce3b7	0.13758741
9	0xbdc55e61	-0.09637142
10	0xbdecf425	-0.115700044
11	0xbce5ff8d	-0.028075958
12	0xbde43d7d	-0.111445405
13	0xbd9a4848	-0.07533318
14	0xbd0f677d	-0.035010803
15	0xbdc86e9c	-0.09786722
16	0xbdfde9f7	-0.12398141
17	0x3aa8c0a4	0.0012874794
18	0x3e2fb849	0.17160143
19	0x3dbbfb9a	0.091788486
20	0x3e182085	0.14856155
21	0x3b30ba44	0.0026966492
22	0xbd776578	-0.060399503
23	0x3dd48c41	0.10378314
24	0xbca651aa	-0.020302612
25	0xbd02c5df	-0.031926986
26	0xbcf728c8	-0.030170813
27	0x3e0ba0a9	0.13635506
28	0xbdf06901	-0.11738778
29	0x3e1944ac	0.14967602
30	0xbca98c72	-0.020696852
31	0x3d3975af	0.045278247
32	0xbd551de3	-0.052030455
33	0xbd2d2913	-0.0422755
34	0x3de5b541	0.11216212
35	0x3df4b8c4	0.11949304
36	0xbd619681	-0.055075172
37	0x3e1e230a	0.15443054
38	0x3d0908f7	0.033455815
39	0x3d8fdd11	0.07024587
40	0xbd2c6e75	-0.042097528
41	0x3dfe3931	0.12413252
42	0xbe073d1a	-0.13206902
43	0x3be921c2	0.00711462
44	0xbc44cf33	-0.012012291
45	0x3d00bc05	0.03142931
46	0xbd0d9cb2	-0.034573264
47	0x3d3c4951	0.045968357
48	0x3dfff2b7	0.12497466
49	0xbe3c790f	-0.18405555
50	0x3df43893	0.11924853
51	0x3d688efe	0.056776993
52	0x3d17d50b	0.037068408
53	0xbd6aab6f	-0.057292398
54	0xbe17ca7c	-0.14823335
55	0x3e2267f0	0.15859962
56	0xbdae6146	-0.08514647
57	0xbcb2339c	-0.021753125
58	0x3be82e7c	0.0070856195
59	0xbe1dcf44	-0.15411097
60	0xbdf6e674	-0.12055674
61	0x3b9a2c3a	0.0047049792
62	0x3e24015e	0.16016147
63	0xbcee3baa	-0.029081184
64	0x3d8eb908	0.06968886
65	0x3e21a139	0.15784158
66	0xbcaab3c5	-0.020837674
67	0xbd34728f	-0.044054564
68	0x3d62cd2b	0.055371445
69	0x3d060c79	0.03272674
70	0x3d9cc3c6	0.07654528
71	0x3d4f1023	0.0505525
72	0xbd4c828b	-0.049929183
73	0xbde635ab	-0.11240705
74	0x3dce5af4	0.10075942
75	0x3d6fcce5	0.058545012
76	0x3e0d9199	0.13825072
77	0xbc8df871	-0.01733038
78	0xbcf40c68	-0.029791072
79	0x3ca9bd02	0.020720009
80	0xbd2a935b	-0.041644435
81	0x3d0e9e69	0.03481904
82	0xbc187ba1	-0.009306819
83	0xbe1d3b29	-0.15354599
84	0xbdfba8d9	-0.122880645
85	0xbe0ce696	-0.13759837
86	0xbde1de83	-0.11028769
87	0xbd1fbf89	-0.03900102
88	0x3d839d12	0.06426443
89	0xbdf16c60	-0.11788249
90	0xbc510ec7	-0.012759871
91	0xbdd9e9c7	-0.106402926
92	0xbc89e33f	-0.016831992
93	0x3e20deae	0.15709946
94	0xbd9ad50c	-0.07560167
95	0xbe19cc35	-0.15019305

fc.bias f4 [3]
0	0xbcc9aee0	-0.02461952
1	0xbda9745c	-0.08274147
2	0xbd0eaed0	-0.034834683
