checkpoints/LSTM/VOL_h4_h4_tr2022-01-01_te2025-01-01_seed1_lam5.0e-04.pt (torch, 25930 bytes, 6 tensors)

lstm.weight_ih_l0 f4 [128, 9]
-0.05503401 -0.16762252 -0.17397949 0.12842594 -0.1794138 -0.0033887478 -0.054680362 0.07163558
0.04775231 0.3169743 0.39940828 0.1591039 0.162467 -0.073499255 0.005895489 -0.00414589
-0.02015513 0.0007263183 0.4335337 0.37554926 0.100340135 -0.124071345 -0.04989702 -0.05296206
-0.036687158 -0.07153442 -0.061757557 0.47240096 0.18980551 0.15765618 -0.008561828 0.06197104
0.2210885 -0.15533501 -0.214067 0.27986115 0.41878194 0.2636926 0.36015072 0.0034508784
0.17701378 -0.026381474 0.15088344 -0.015797364 -0.4491714 0.25410932 0.115076706 -0.14285822
-0.10745554 -0.081628196 -0.18002163 -0.11918454 0.037448563 0.19447997 0.43191907 0.5225925
0.32760546 -0.17406945 0.045499664 0.07156793 -0.100157306 0.07168782 -0.28129914 0.15959735
-0.09819798 -0.147987 -0.04888562 0.011462269 -0.1619888 -0.14444624 0.07308938 0.041920006
0.32345524 0.27180916 0.17252225 -0.008327211 0.029977106 0.102556996 -0.1628071 0.07268692
-0.09118955 0.19841704 0.36064905 0.14412278 0.017189553 -0.16218904 -0.21400896 0.10846415
-0.07383515 0.087228544 0.021165987 -0.17179897 -0.048207957 0.010152979 -0.16174774 -0.11941268
0.029777542 -7.54222e-05 0.0061120586 0.027239395 0.24084789 0.09701926 0.05694658 0.06573133
-0.16178405 -0.16841012 0.14646755 -0.16796835 0.14192355 0.050826456 0.42684278 0.15027565
0.16031949 -0.1342671 0.017507983 0.13507879 -0.18838374 0.10028284 -0.13272677 -0.029435359
-0.13209473 0.0031385077 0.19996074 -0.1278696 0.08148703 -0.20353226 -0.23765957 -0.104027405
0.009658275 0.13830754 -0.117680356 0.004026859 0.11811045 0.08600869 0.22053967 0.32926038
0.43220007 0.47976124 -0.09847805 -0.10036201 -0.010881248 -0.010037039 -0.12382831 -0.3673745
0.17469066 0.065628715 0.28087085 0.021157803 0.0834761 0.132505 -0.06908819 0.16037765
-0.16255447 0.062537044 -0.022109332 0.16247413 -0.069363035 -0.10378692 0.14751282 -0.060217
-0.1453207 -0.26248923 0.01621729 0.07247104 -0.113794714 0.086299926 -0.07848645 -0.073177986
-0.1635215 -0.099898055 -0.08158546 0.3606049 0.31471035 0.43170565 0.12522869 0.15330498
0.1330773 0.021702493 -0.12752926 -0.30659965 -0.030228619 -0.049346387 -0.56507075 -0.041057307
-0.1165495 0.11639442 -0.16654485 -0.15617314 0.097599305 0.16015786 0.35636392 0.21619505
-0.060616463 0.0021862045 0.15235576 -0.08706113 0.04346495 -0.4605839 0.25360122 -0.008718358
0.27493924 -0.10364706 0.10712865 -0.06375211 0.103255734 -0.0026156567 -0.06494948 0.11269753
0.10755385 0.38107035 -0.0031786093 -0.013604563 -0.1089499 0.116838284 0.14618967 -0.14330341
0.3773319 0.21559347 0.21143806 0.14332423 -0.15825659 0.23737805 -0.129241 -0.15245314
-0.19991648 0.065954804 0.22648501 0.65501773 0.22142498 0.16930522 0.043796573 -0.12219537
0.17448118 -0.6652135 0.13585961 0.29261252 0.0003886709 0.15572704 0.04212803 -0.08847638
-0.1539169 -0.052276343 -0.016013958 0.018838244 0.057751592 0.3060112 -0.15466386 -0.10284675
-0.018175691 0.13274066 0.13482851 -0.32583782 0.036642823 0.13113096 0.010360161 -0.05014574
00000000: 586b 61bd 3da5 2bbe ae27 32be 1782 033e
00000010: 40b8 37be c115 5ebb 84f8 5fbd adb5 923d
00000020: ed97 433d 754a a23e 3e7f cc3e 22ec 223e
00000030: c05d 263e c786 96bd f22e c13b 3fda 87bb
00000040: 5f1c a5bc 6566 3e3a 21f8 dd3e fe47 c03e
00000050: 217f cd3d 1e19 febd d160 4cbd bfee 58bd
00000060: 4645 16bd a380 92bd 7ef5 7cbd 8ade f13e
00000070: 605c 423e 9f70 213e e946 0cbc 58d5 7d3d
00000080: 0665 623e 2410 1fbe 6134 5bbe f649 8f3e
00000090: 966a d63e b702 873e ad65 b83e 2228 623b
000000a0: 1a43 353e f61d d8bc 3081 1a3e 7969 81bc
000000b0: cbf9 e5be 9e1a 823e 56ad eb3d 6d49 12be
000000c0: a611 dcbd af2c a7bd 9757 38be 0617 f4bd
000000d0: aa63 193d c225 473e 7f24 dd3e 9fc8 053f
000000e0: e7bb a73e 433f 32be db5d 3a3d 3592 923d
000000f0: 461f cdbd 10d1 923d 7106 90be 7d6d 233e
00000100: 061c c9bd e789 17be 4a3c 48bd 3ecc 3b3c
00000110: 64e0 25be b7e9 13be e3af 953d 50b4 2b3d
00000120: ed9b a53e 922a 8b3e aca9 303e db6e 08bc
00000130: 8c92 f53c 6709 d23d e8b6 26be e1dc 943d
00000140: 96c1 babd d62d 4b3e fea6 b83e ec94 133e
00000150: 1bd1 8c3c e214 26be 2a25 5bbe 7422 de3d
00000160: e236 97bd e1a4 b23d 4b64 ad3c 12ec 2fbe
00000170: b575 45bd ae58 263c 33a1 25be a38e f4bd
00000180: 08f0 f33c fc2b 9eb8 aa47 c83b 2725 df3c
00000190: d4a0 763e 09b2 c63d d140 693d 269e 863d
000001a0: b8aa 25be b473 2cbe 97fb 153e e5ff 2bbe
000001b0: 6854 113e 672f 503d 238b da3e dce1 193e
000001c0: cb2a 243e 517d 09be e76c 8f3c 1852 0a3e
000001d0: abe7 40be 1761 cd3d 87e9 07be 6c22 f1bc
000001e0: d743 07be 6caf 4d3b 82c2 4c3e 40f0 02be
000001f0: ace2 a63d c36a 50be 085d 73be 520c d5bd
00000200: be3d 1e3c 7ea0 0d3e 6602 f1bd bef3 833b
00000210: e4e3 f13d 5325 b03d 27d5 613e d194 a83e
00000220: 5449 dd3e 44a3 f53e dcae c9bd 998a cdbd
00000230: 4347 32bc 6572 24bc b299 fdbd 8318 bcbe
00000240: 1ce2 323e 5968 863d 4ece 8f3e 2153 ad3c
00000250: 84f5 aa3d 64af 073e 1c7e 8dbd 0a3a 243e
00000260: ae74 26be 6c13 803d a11e b5bc 9e5f 263e
00000270: 350e 8ebd 3d8e d4bd 9a0d 173e 1aa6 76bd
00000280: f3ce 14be fd64 86be 1fda 843c b26b 943d
00000290: 340d e9bd 04be b03d 81bd a0bd 57de 95bd
000002a0: 2e72 27be 5a97 ccbd 4716 a7bd 35a1 b83e
000002b0: b721 a13e 8608 dd3e f33b 003e fbfb 1c3e
000002c0: 6a45 083e 6dc9 b13c 0897 02be a1fa 9cbe
000002d0: 02a2 f7bc 701f 4abd 7aa8 10bf b52b 28bd
000002e0: 81b1 eebd 3360 ee3d bc8a 2abe daeb 1fbe
000002f0: 25e2 c73d 6c00 243e 5575 b63e 3c62 5d3e
00000300: f848 78bd 6d46 0f3b 2603 1c3e 1b4d b2bd
00000310: 4e08 323d a7d1 ebbe 05d8 813e 72d7 0ebc
00000320: d6c4 8c3e e944 d4bd 4466 db3d 7790 82bd
00000330: be77 d33d 706b 2bbb 3c04 85bd f6cd e63d
00000340: 3145 dc3d a71b c33e 3750 50bb ace5 5ebc
00000350: 2021 dfbd e948 ef3d bfb2 153e 21be 12be
00000360: a631 c13e 89c4 5c3e 3883 583e 96c3 123e
00000370: 040e 22be 3b13 733e c157 04be ad1c 1cbe
00000380: e8b6 4cbe 5013 873d b0eb 673e 3eaf 273f
00000390: 3bbd 623e 595e 2d3e 0964 333d 9141 fabd
000003a0: 32ab 323e 6f4b 2abf c81e 0b3e 4fd1 953e
000003b0: 86c6 cb39 e976 1f3e 718e 2c3d 1b33 b5bd
000003c0: 649c 1dbe b81f 56bd b42f 83bc a952 9a3c
000003d0: ef8c 6c3d 80ad 9c3e 3460 1ebe 51a1 d2bd
000003e0: 30e5 94bc 2bed 073e 7c10 0a3e 37d4 a6be
000003f0: c916 163d 3247 063e aabd 293c 9f65 4dbd

lstm.weight_hh_l0 f4 [128, 32]
-0.14195609 -0.13649148 0.03654949 -0.0439273 0.1166837 -0.09661422 -0.14368775 -0.080697365
-0.082226194 0.054944545 0.18396822 -0.13440314 -0.12509148 0.19135514 -0.16495144 0.104865566
-0.2104933 -0.117723815 -0.03242387 -0.05350119 0.075893946 -0.09374884 0.00066688214 -0.17784213
0.022009809 0.20479816 -0.054854643 -0.118448526 -0.12907302 0.12879224 0.1006636 0.121905334
0.083719395 0.10024113 0.05146181 0.06976489 0.1261233 0.04393278 0.16676986 0.13399076
-0.023616659 -0.060496543 -0.008666651 0.16540046 0.11095147 -0.11011011 -0.022542737 0.05664486
0.054577053 0.17731053 0.100874245 0.047510378 0.14117435 -0.15441379 0.0135240005 -0.010685401
-0.103142336 -0.16576546 0.08798988 0.032184314 -0.19878913 0.011280684 0.049286533 0.08713561
0.21121664 -0.051724225 0.06061944 -0.16807878 -0.000119844655 -0.087934226 -0.011660878 0.12304852
0.061096296 -0.067641675 -0.06942855 -0.011937621 -0.062148795 -0.13755675 0.15178065 0.10203587
0.14239873 -0.08433841 0.15088366 -0.070378065 0.040651098 -0.029064974 0.082515635 -0.098166056
0.05139921 -0.13127907 0.04530088 -0.16837913 -0.121781416 -0.11604565 0.065201476 0.100980274
-0.10182618 -0.09151471 0.15197231 0.039169233 0.1281485 -0.12370438 0.09016161 0.11436907
-0.054647718 0.003821318 0.11799039 0.09340599 0.04184897 -0.028726982 -0.059373815 -0.11447422
0.17548576 0.0148212155 0.16991699 0.14180453 -0.0007742495 0.017885163 0.023895111 -0.0013282115
0.12425658 0.091857195 -0.13747723 -0.12081107 -0.19469011 -0.15894707 0.06589007 -0.108619116
0.057978038 0.017482985 0.013897874 -0.033492815 0.11438373 0.044880148 0.14706503 0.06571615
-0.027273133 0.047134746 0.09294419 0.04703143 0.12968606 -0.056978907 0.019054558 0.12571265
-0.1683682 0.024911957 0.17570843 -0.10461844 0.0608793 0.006856037 0.14083204 0.04381489
0.06894861 0.05363312 -0.09253231 0.05888888 -0.10885178 0.118154675 -0.103660285 -0.17271839
-0.03017421 0.046998218 0.033720896 0.04483199 -0.043747004 0.05360018 -0.027028142 -0.20556872
-0.07874763 -0.031493858 0.027157916 0.14191207 -0.10331521 0.17483987 -0.18792534 -0.11693184
-0.006723196 -0.06759212 -0.089600794 0.06638571 -0.14508916 0.07920009 -0.07697069 0.1457101
0.009756517 0.010750789 -0.15553299 0.043667167 -0.09534352 0.09313626 -0.11261998 0.0041397978
-0.035648525 -0.09737067 -0.10760007 -0.042001873 0.032965876 0.050315678 0.11087695 -0.05512097
-0.13685337 -0.013585375 0.1423104 -0.009399452 -0.14106064 0.09105955 0.059853297 0.010449814
0.032779593 0.14134635 -0.06627172 0.11075861 0.27054435 -0.02882712 0.23070008 0.083896816
0.19478877 -0.05580044 -0.123606384 -0.0776649 -0.18105115 0.016754188 0.109840326 0.14974187
0.101621054 -0.013031251 0.03321761 0.14622693 0.075381465 -0.048825048 -0.07202711 0.032681797
0.015216581 -0.15358886 -0.048476037 0.10437276 0.10956572 -0.04059428 -0.06870205 -0.05648288
-0.022561632 0.15555213 -0.1872433 0.11358931 -0.16484165 -0.113686316 -0.0009800646 0.04681389
-0.053288404 -0.049946003 -0.05070844 -0.06436144 -0.09440177 -0.15660922 0.1922195 -0.05874348
00000000: f05c 11be 6cc4 0bbe ebb4 153d 1ded 33bd
00000010: ddf7 ee3d addd c5bd e222 13be a944 a5bd
00000020: 3566 a8bd 880d 613d 2a62 3c3e faa0 09be
00000030: fb17 00be 9af2 433e 08e9 28be c2c3 d63d
00000040: 8e8b 57be 2f19 f1bd e4ce 04bd 1024 5bbd
00000050: 496e 9b3d 64ff bfbd b4d1 2e3a 3f1c 36be
00000060: ea4d b43c 9cb6 513e 43af 60bd 2495 f2bd
00000070: b82b 04be 1de2 033e b828 ce3d 81a9 f93d
00000080: 1375 ab3d 394b cd3d 9ec9 523d e5e0 8e3d
00000090: 7726 013e dcf2 333d b8c5 2a3e e034 093e
000000a0: b977 c1bc 39cb 77bd 92fe 0dbc bd5e 293e
000000b0: 863a e33d 6981 e1bd 8cab b8bc 7104 683d
000000c0: 308c 5f3d e490 353e 2897 ce3d 3e9a 423d
000000d0: 0290 103e a61e 1ebe c593 5d3c d211 2fbc
000000e0: 4a3c d3bd 6cbe 29be 0a34 b43d b3d3 033d
000000f0: 618f 4bbe 9ed2 383c ade0 493d 2874 b23d
00000100: 2d49 583e c8dc 53bd 174c 783d d81c 2cbe
00000110: 1c55 fbb8 dc16 b4bd 440d 3fbc dd00 fc3d
00000120: 1c40 7a3d b887 8abd 8e30 8ebd 0396 43bc
00000130: bc8f 7ebd addb 0cbe 636c 1b3e 2ff8 d03d
00000140: f9d0 113e 9eb9 acbd 3f81 1a3e 6022 90bd
00000150: c481 263d ab19 eebc f5fd a83d 490b c9bd
00000160: fa87 523d 056e 06be 6a8d 393d 946b 2cbe
00000170: 8968 f9bd 57a9 edbd 5a88 853d bfce ce3d
00000180: 3f8a d0bd 106c bbbd a19e 1b3e eb6f 203d
00000190: 5c39 033e b958 fdbd a6a6 b83d 553a ea3d
000001a0: 49d6 5fbd 146f 7a3b f2a4 f13d a44b bf3d
000001b0: d369 2b3d d954 ebbc f531 73bd 7671 eabd
000001c0: 8ab2 333e afd4 723c b8fe 2d3e 3535 113e
000001d0: 01f7 4aba e883 923c aebf c33c 6217 aeba
000001e0: 3c7a fe3d a01f bc3d d5c6 0cbe cb6b f7bd
000001f0: d85c 47be 05c3 22be 5ff1 863d b373 debd
00000200: 617a 6d3d 7a38 8f3c e9b3 633c c32f 09bd
00000210: 0442 ea3d 3fd4 373d 3798 163e 3096 863d
00000220: e86b dfbc 5d10 413d 8659 be3d 07a4 403d
00000230: 6ccc 043e b762 69bd 4e18 9c3c d1ba 003e
00000240: b768 2cbe 2914 cc3c e9ec 333e 3142 d6bd
00000250: 935c 793d 9ba8 e03b 4636 103e 3e77 333d
00000260: ee34 8d3d 67ae 5b3d 9481 bdbd 7735 713d
00000270: afed debd 14fb f13d d84b d4bd 17dd 30be
00000280: e82f f7bc 3481 403d ec1e 0a3d c0a1 373d
00000290: 0f30 33bd dd8b 5b3d 1f6a ddbc 9b80 52be
000002a0: 7046 a1bd b4ff 00bd 477a de3c 6651 113e
000002b0: ed96 d3bd 3909 333e 806f 40be f679 efbd
000002c0: 414e dcbb bd6d 8abd 9f80 b7bd 3bf5 873d
000002d0: 4192 14be a833 a23d cfa2 9dbd 0735 153e
000002e0: ccd9 1f3c 1424 303c 0a44 1fbe 58dc 323d
000002f0: 7743 c3bd 39be be3d 4ea5 e6bd 24a7 873b
00000300: 3004 12bd 466a c7bd 6d5d dcbd 280a 2cbd
00000310: 3a07 073d d017 4e3d 7413 e33d 87c6 61bd
00000320: 4a23 0cbe 3195 5ebc d1b9 113e 2900 1abc
00000330: 3372 10be 6e7d ba3d bb28 753d b235 2b3c
00000340: e543 063d 19bd 103e 78b9 87bd 69d5 e23d
00000350: ca84 8a3e da26 ecbc a43c 6c3e 18d2 ab3d
00000360: b576 473e 018f 64bd 5825 fdbd c60e 9fbd
00000370: 7965 39be 1440 893c f7f3 e03d ef55 193e
00000380: b31e d03d 0781 55bc 300f 083d 83bc 153e
00000390: 9961 9a3d c6fc 47bd f382 93bd 59dd 053d
000003a0: f74e 793c 6646 1dbe cf8e 46bd 63c1 d53d
000003b0: fe63 e03d 3046 26bd a9b3 8cbd 985a 67bd
000003c0: 2cd3 b8bc 0f49 1f3e b5bc 3fbe 83a1 e83d
000003d0: 40cc 28be 5fd4 e8bd 8375 80ba ecbf 3f3d
000003e0: f144 5abd 2e94 4cbd a7b3 4fbd eecf 83bd
000003f0: b755 c1bd 2b5e 20be 30d5 443e 019d 70bd

lstm.bias_ih_l0 f4 [128]
-0.10928865 0.18781863 -0.09054518 -0.03331872 0.032389794 -0.20407397 0.14484371 0.10820051
-0.15849347 -0.06634859 -0.0045619085 0.07083534 0.07857896 -0.05288568 0.1226037 -0.019984469
-0.029588712 -0.12262539 -0.13750018 -0.03973454 -0.15454827 -0.0039005645 0.13881972 -0.16215514
-0.12715635 0.16092297 -0.093791194 -0.16410987 -0.09632128 -0.08784783 -0.20581058 -0.015230596
-0.11384424 -0.039137274 0.10014095 0.020606807 0.17088614 -0.21398102 0.1768163 0.068370305
-0.028923478 0.07621898 0.13019755 -0.010649158 0.06551233 -0.08697367 -0.04296641 0.018208373
-0.10154619 0.010385855 -0.10806326 0.10900998 0.035473052 -0.114200845 0.3500546 0.0196723
0.11667527 -0.16185664 0.1244749 0.031784218 -0.061998498 -0.11858316 -0.0051096184 0.083594136
0.01827726 0.14245175 -0.18401444 -0.1464245 0.18634872 0.10161798 -0.0014286652 0.064761534
0.11723497 0.080916286 -0.051277068 -0.09460364 -0.08147115 -0.006340256 0.13453057 -0.019801833
-0.115010455 0.11361119 0.035199102 0.013201271 -0.12590194 0.1500143 -0.15539943 0.10653604
-0.0019253491 -0.07194085 -0.13633582 0.053024776 -0.053891014 -0.056189377 0.13207796 -0.13013053
0.13208738 0.1550242 0.14775553 0.028837254 -0.11797313 -0.08530845 -0.06943896 -0.055092644
-0.15458807 -0.119117685 -0.06640332 -0.035016038 -0.03965228 0.0004167281 -0.12840904 -0.10180972
-0.16742308 0.15384385 0.06898993 -0.14440447 -0.14209369 0.0125286905 0.003671503 0.01871253
-0.04240962 0.022372022 -0.062126357 -0.17123793 -0.068350114 0.15626024 0.10039619 -0.11242876
00000000: bad2 dfbd 8753 403e c06f b9bd 3679 08bd
00000010: 29ab 043d c4f8 50be e951 143e 3b98 dd3d
00000020: 1d4c 22be c5e1 87bd 107c 95bb 1e12 913d
00000030: 01ee a03d a89e 58bd a617 fb3d 78b6 a3bc
00000040: 0764 f2bc 0523 fbbd d9cc 0cbe afc0 22bd
00000050: e741 1ebe 9da0 7fbb c226 0e3e ff0b 26be
00000060: 4635 02be fec8 243e 9915 c0bd 6b0c 28be
00000070: 1744 c5bd 90e9 b3bd 02c0 52be c089 79bc
00000080: 2b27 e9bd 684e 20bd b316 cd3d 9bcf a83c
00000090: c7fc 2e3e d71d 5bbe 550f 353e bb05 8c3d
000000a0: eef0 ecbc b218 9c3d 8252 053e ce79 2ebc
000000b0: 542b 863d 401f b2bd 8cfd 2fbd ba29 953c
000000c0: 73f7 cfbd 6f29 2a3c 4550 ddbd a040 df3d
000000d0: 314c 113d 22e2 e9bd 5b3a b33e ce27 a13c
000000e0: 72f3 ee3d bfbd 25be b2ec fe3d 2b30 023d
000000f0: 23f2 7dbd badb f2bd 966e a7bb 6733 ab3d
00000100: 31ba 953c dfde 113e 486e 3cbe 4ef0 15be
00000110: 33d2 3e3e 161d d03d 0d42 bbba b2a1 843d
00000120: e318 f03d 70b7 a53d e707 52bd 8ebf c1bd
00000130: 59da a6bd ecc1 cfbb 62c2 093e 7437 a2bc
00000140: 9a8a ebbd fcac e83d ef2c 103d 254a 583c
00000150: 70ec 00be 599d 193e 0721 1fbe 912f da3d
00000160: ff5b fcba b955 93bd 9e9b 0bbe 8230 593d
00000170: d3bc 5cbd d526 66bd 723f 073e f040 05be
00000180: ea41 073e aabe 1e3e 3a4d 173e 1b3c ec3c
00000190: e59b f1bd 32b6 aebd 0336 8ebd d3a8 61bd
000001a0: 564c 1ebe f9f3 f3bd 77fe 87bd fa6c 0fbd
000001b0: 6e6a 22bd 4c7c da39 a97d 03be 9d81 d0bd
000001c0: f570 2bbe 3e89 1d3e 984a 8d3d c4de 13be
000001d0: 0281 11be 2345 4d3c 999d 703b 054b 993c
000001e0: b6b5 2dbd 8845 b73c 3578 7ebd ff58 2fbe
000001f0: 25fb 8bbd af02 203e 859c cd3d 0d41 e6bd

lstm.bias_hh_l0 f4 [128]
0.017255481 0.16465344 0.02974412 -0.006644845 0.16795833 -0.042194176 -0.01685751 0.13274217
0.08466134 -0.15166718 0.094512336 0.11046542 0.14719813 -0.12019246 -0.09881611 0.13132118
0.093060605 -0.15480913 0.11142635 0.09951902 0.06005888 -0.031483095 0.07851346 0.06755465
0.04937588 0.1444126 -0.12615058 -0.096207894 -0.072289325 0.06690006 0.024494454 0.10215656
-0.13134037 -0.015943397 0.09013755 -0.06589819 0.14959033 0.08678187 0.120007925 0.06564523
0.12646103 -0.19580075 -0.08930008 0.104297094 -0.056953583 -0.022196334 -0.089964874 0.019668052
-0.04240644 -0.07092795 -0.0012977598 0.1811508 0.011717165 -0.027976282 0.33597535 -0.1138768
0.078265205 0.016492128 0.02464892 0.08180541 -0.0013175508 -0.015429852 0.036206156 0.04177899
-0.065781385 0.052233133 -0.11255058 0.007068053 -0.08949898 0.031964008 0.18600751 -0.09089492
-0.16731048 0.09899214 -0.058446985 0.08764772 0.13342738 -0.020156473 -0.027230626 -0.09108275
0.17408893 -0.14731568 -0.014713282 -0.11482953 0.1060735 0.108087055 0.141229 -0.06236989
0.07912187 -0.15828843 0.12784632 -0.029873049 0.08832158 0.09977235 -0.07866397 0.082631394
-0.10745008 0.07985239 -0.041318722 0.018301008 0.035278983 0.107785225 0.0664771 0.00050553685
-0.022489587 -0.21580568 -0.11439738 -0.09518976 0.07216939 -0.049476847 0.023325622 -0.07309077
-0.21460561 0.055086374 0.059567027 0.105006024 0.15393287 -0.15285939 0.15104508 0.09915439
-0.069730125 0.10385309 0.07403928 0.0037544519 -0.22084527 0.07811185 0.121562034 -0.016115403
00000000: 5e5b 8d3c e99a 283e f1a9 f33c 00bd d9bb
00000010: 45fd 2b3e cdd3 2cbd c318 8abc 90ed 073e
00000020: ed62 ad3d a44e 1bbe af8f c13d b23b e23d
00000030: 1bbb 163e 7727 f6bd 1a60 cabd 0f79 063e
00000040: 8f96 be3d 4986 1ebe 8033 e43d a1d0 cb3d
00000050: 4d00 763d 6bf4 00bd aacb a03d 185a 8a3d
00000060: 5d3e 4a3d e6e0 133e 9e2d 01be a508 c5bd
00000070: 6d0c 94bd e602 893d 98a8 c83c 7537 d13d
00000080: 177e 06be ba9b 82bc 099a b83d a1f5 86bd
00000090: 352e 193e b1ba b13d b7c6 f53d 0271 863d
000000a0: 007f 013e fe7f 48be f6e2 b6bd b799 d53d
000000b0: 2948 69bd 16d5 b5bc 813f b8bd e51e a13c
000000c0: 60b2 2dbd ac42 91bd 9819 aaba 987f 393e
000000d0: 5af9 3f3c 842e e5bc f604 ac3e 3d38 e9bd
000000e0: 8249 a03d 801a 873c 88ec c93c 9889 a73d
000000f0: abb1 acba 7dcd 7cbc e84c 143d 7220 2b3d
00000100: 64b8 86bd 69f2 553d eb80 e6bd 209b e73b
00000110: 3e4b b7bd b1ec 023d c178 3e3e 1e27 babd
00000120: 7053 2bbe 64bc ca3d 1b66 6fbd a680 b33d
00000130: 30a1 083e 301f a5bc c312 dfbc 9889 babd
00000140: 5e44 323e ecd9 16be fa0f 71bc bf2b ebbd
00000150: 103d d93d bf5c dd3d 569e 103e 9277 7fbd
00000160: a60a a23d 5d16 22be 25ea 023e 53b8 f4bc
00000170: f2e1 b43d 7255 cc3d 931a a1bd a63a a93d
00000180: ca0e dcbd a689 a33d d23d 29bd ffeb 953c
00000190: b280 103d 80be dc3d 2525 883d 0186 043a
000001a0: 153c b8bc 2afc 5cbe 2c49 eabd d9f2 c2bd
000001b0: 8ccd 933d 3ca8 4abd 6015 bf3c 9db0 95bd
000001c0: 93c1 5bbe 40a2 613d 8efc 733d 660d d73d
000001d0: 94a0 1d3e 2c87 1cbe 90ab 1a3e 7511 cb3d
000001e0: abce 8ebd eeb0 d43d e8a1 973d 400d 763b
000001f0: 4325 62be 1bf9 9f3d 84f5 f83d 7304 84bc

fc.weight f4 [3, 32]
0.10888667 0.156872 -0.15485083 -0.18823966 0.092916384 0.021867746 -0.059321772 -0.13457802
-0.12973762 0.07526764 -0.06303328 -0.12058291 -0.01598268 -0.046613473 -0.13670953 0.08584957
0.14194015 0.121729776 -0.12964612 -0.124853805 -0.08849775 0.17098846 -0.02941834 0.09749689
-0.04901554 0.04751242 0.1123051 -0.11697218 0.030067952 0.08852314 -0.0007197223 -0.08425894
-0.09884064 0.060956024 -0.18496992 -0.08778111 0.053555015 0.1405946 0.1615169 -0.1206563
-0.10228072 0.014008997 -0.03721109 -0.0062826374 -0.11138956 -0.07878927 -0.0037791906 -0.12620108
0.03407763 -0.12433849 -0.12019126 0.011495626 -0.051904857 0.17954677 -0.087657325 -0.1408121
0.18833067 0.008818812 0.16059321 0.12433627 0.116708785 0.13923341 0.06341959 -0.12191126
-0.002424778 0.0066279694 -0.023564653 0.10765915 0.08198267 -0.13443394 0.07139552 0.044895213
0.050341878 -0.045142367 0.11450688 -0.10030758 0.14975148 0.1155088 -0.11593288 -0.14921494
0.093246 -0.13897042 0.015742108 -0.124922484 0.13612176 0.19156526 0.21246496 0.12437821
0.13099858 -0.17457272 0.049686283 0.1429094 0.04336083 -0.095601104 0.028679634 0.013145845
00000000: f9ff de3d 0ea3 203e 3791 1ebe e6c1 40be
00000010: f24a be3d fd23 b33c 63fb 72bd d2ce 09be
00000020: f0d9 04be ec25 9a3d 9817 81bd 2cf4 f6bd
00000030: 1cee 82bc c5ed 3ebd 95fd 0bbe e6d1 af3d
00000040: c258 113e 764d f93d f4c1 04be 5ab3 ffbd
00000050: 4f3e b5bd 9917 2f3e bbfe f0bc 73ac c73d
00000060: 85c4 48bd 629c 423d 3700 e63d 1c8f efbd
00000070: 1151 f63c 9f4b b53d bfab 3cba f38f acbd
00000080: f66c cabd 06ad 793d c168 3dbe 95c6 b3bd
00000090: 815c 5b3d 08f8 0f3e b064 253e a61a f7bd
000000a0: 8e78 d1bd fe85 653c a86a 18bd 95de cdbb
000000b0: 3620 e4bd 455c a1bd 4cac 77bb db3a 01be
000000c0: fc94 0b3d 2ea5 febd d626 f6bd 2658 3c3c
000000d0: 309a 54bd 1cdb 373e af85 b3bd 0c31 10be
000000e0: c1d9 403e c77c 103c 8c72 243e 04a4 fe3d
000000f0: 0405 ef3d 3493 0e3e 21e2 813d 9cac f9bd
00000100: 06e9 1ebb 702f d93b a90a c1bc 677c dc3d
00000110: 88e6 a73d 0da9 09be d037 923d 0be4 373d
00000120: 4933 4e3d 34e7 38bd 9582 ea3d 0f6e cdbd
00000130: 7458 193e e18f ec3d 386e edbd cdcb 18be
00000140: c2f7 be3d 434e 0ebe 98f5 803c 5cd7 ffbd
00000150: 8163 0b3e af29 443e 6a90 593e 01ba fe3d
00000160: 7e24 063e 31c3 32be d883 4b3d d756 123e
00000170: 209b 313d 83ca c3bd 8df1 ea3c ac61 573c

fc.bias f4 [3]
-0.084932044 -0.12670332 -0.07407975
00000000: daf0 adbd 84be 01be 20b7 97bd
