checkpoints/LSTM/VOL_h12_h12_tr2021-01-01_te2024-01-01_seed3_lam1.0e-04.pt (torch, 26014 bytes, 6 tensors)

lstm.weight_ih_l0 f4 [128, 9]
000000 50 c3 c3 be cb ee d0 be 7e bf 8d bd 65 b2 2f be
       -0.3823495 -0.40807185 -0.0692129 -0.17157896
000010 3a 26 0c 3d ac e9 38 be ec 0a da 3d 57 a7 e8 3d
       0.034216143 -0.18057889 0.106466144 0.113600425
000020 e6 8c 17 be 9f 30 6a 3d 85 af f5 bc 47 52 70 bc
       -0.14799842 0.057175275 -0.02999092 -0.014668054
000030 4a 30 dc bd a4 a4 41 bc 40 d7 04 be bc 0b 45 be
       -0.10751398 -0.011819039 -0.12972736 -0.19242758
000040 6a ef b3 be 75 be ad 3e e5 69 f2 3d 6a bf 14 3e
       -0.35143596 0.3393437 0.11836604 0.14526144
000050 31 2d 06 bc ca 7f c7 bd ea e9 08 3e b7 74 2d be
       -0.008189485 -0.09741171 0.13370481 -0.16939054
000060 30 fe e5 bd 33 b8 cc bd ca 7e 9e bd 0d 9d b4 bd
       -0.11230123 -0.09996071 -0.07739027 -0.088190176
000070 5e fe 81 be 6b 97 a0 be 67 b4 10 be c1 d8 c5 3d
       -0.2538938 -0.31365523 -0.14131318 0.09660483
000080 3c f5 22 be c6 24 4d be 6a 18 4f be 92 12 a8 bd
       -0.15913862 -0.20033559 -0.20224157 -0.08206667
000090 c0 45 c4 bd 40 aa 35 be 53 c2 18 be dc 47 9d bd
       -0.09583616 -0.17740726 -0.14917879 -0.07679722
0000a0 c0 89 4b 3d 65 9b 31 bd 11 41 90 bd 2d d9 38 be
       0.049691916 -0.043361086 -0.070436604 -0.18051596
0000b0 dc d5 df 3d a7 08 93 be 2d 29 d8 be e1 62 a0 3d
       0.10929462 -0.2871754 -0.42218915 0.0783136
0000c0 4b d8 04 bd eb ff 20 3e dd 77 50 bb 4f e7 f0 bc
       -0.032432836 0.15722625 -0.0031809725 -0.029407172
0000d0 d7 8b 20 3d 2e 07 74 be a5 55 97 3e eb d8 82 3e
       0.03919586 -0.23830864 0.2955753 0.2555612
0000e0 94 73 1d be f1 49 6b 3e 82 28 c9 3d 2f 55 40 bc
       -0.15376121 0.22977425 0.098221794 -0.011739059
0000f0 6b ee c4 3d d9 71 d3 bc 1d 6d 6c bd 39 71 ed bd
       0.09615787 -0.025811123 -0.057721246 -0.11593861
000100 e9 8e 23 be ee a7 2c be c8 cd 99 bb 88 d7 ff bd
       -0.15972485 -0.16860935 -0.0046937205 -0.12492281
000110 a8 84 9a 3d 41 dd 8f 3d cd 94 de 3c 78 15 12 3e
       0.075448334 0.07024623 0.027170563 0.14266002
000120 da 85 6d be 13 ee 60 be 59 60 12 be a1 3e 9f 3d
       -0.23195592 -0.21965818 -0.14294566 0.077756174
000130 99 c1 2d 3d 82 df 78 3e 52 a2 40 3d 36 c5 fc 3d
       0.042420957 0.24304011 0.0470298 0.123423025
000140 7e 42 52 be c3 9d ad be fd 93 a7 be f3 2f 00 3d
       -0.20533177 -0.33909425 -0.32730094 0.031295728
000150 55 f7 e6 3d 89 df 05 be d6 ed c3 3c 49 33 0d be
       0.112776436 -0.13073553 0.02391712 -0.13789095
000160 7c 81 b4 bd d8 1f 94 be a2 12 dc bd 78 c3 ea 3c
       -0.0881376 -0.28930545 -0.107457414 0.02865766
000170 cb 87 2f be bc 90 eb 3d 23 dc 3a 3d 74 d6 2f 3d
       -0.17141645 0.11502215 0.045620095 0.042929128
000180 5e cc 11 be 66 0e 98 3d 38 35 84 bd a3 d0 65 bd
       -0.14238116 0.07424621 -0.06455463 -0.056107175
000190 75 a9 f3 3d 30 e3 15 3d 12 95 94 bb 56 bb 25 ba
       0.11897556 0.036593616 -0.004534372 -0.0006322166
0001a0 35 f8 2b 3d 95 ea 47 bd 8f 1a e5 bc 40 f8 82 bd
       0.041984756 -0.0488077 -0.027966766 -0.06395006
0001b0 6e d2 bb bd 56 91 83 be 88 4d 26 3e 59 ec e1 3c
       -0.09170996 -0.2569682 0.16240513 0.02757852
0001c0 dc c1 d4 bd 48 53 92 be 5e 30 b9 3c 3c 29 21 3d
       -0.10388538 -0.28579164 0.022606071 0.039345965
0001d0 15 2a 0b be 7f d9 a1 3d 61 2c 85 bd 72 b5 a0 3d
       -0.13590272 0.07902812 -0.06502605 0.07847108
0001e0 6e 8e ef 3c 65 77 0f be 48 df 02 be 81 10 48 be
       0.02924272 -0.14010389 -0.12780488 -0.19537546
0001f0 03 b9 a4 be d6 7d 5e 3b 79 eb 7a bd f0 11 db bd
       -0.32172403 0.0033949516 -0.06125972 -0.10696781
000200 34 56 56 be 1c b4 da bd e0 39 19 3e 7d 4d 3b bc
       -0.20931321 -0.106788844 0.14963484 -0.011432049
000210 44 76 c7 ba a3 30 26 be ad 4b 7c bd 9c c2 32 be
       -0.0015217741 -0.16229491 -0.061595608 -0.1745705
000220 be ca 12 bd cf 84 31 be 39 66 14 be 2d 2e 2c bd
       -0.03583788 -0.17335819 -0.1449212 -0.042036224
000230 e3 e0 e6 bd dc a6 c8 3d b5 22 e8 3d 53 bd 7d bd
       -0.112733625 0.09797451 0.11334745 -0.06194813
000240 57 d6 15 be 23 31 f5 bd 2c 43 b3 bc ab c3 8e bd
       -0.14632545 -0.11972263 -0.021882616 -0.069709145
000250 19 e8 3a 3e a6 99 71 3e c8 dd 05 be 63 a8 2a 3e
       0.182526 0.23593768 -0.13072884 0.16665797
000260 73 71 26 3c 96 0a f3 3d 48 8c eb 3d f9 ee 79 be
       0.010158884 0.118672535 0.11501366 -0.24407567
000270 11 82 16 3d 00 b7 6d 3d fa de c3 bc 5c 6c b1 bd
       0.036745135 0.05803585 -0.023910034 -0.08663246
000280 68 8a 24 be e2 50 ea bb fc 60 4c bd c5 e1 9a 3d
       -0.16068423 -0.0071507553 -0.04989718 0.07562593
000290 38 1b 19 be 3c ca e9 bd c6 2d 84 3d 36 eb f5 bc
       -0.1495179 -0.11415526 0.06454043 -0.030019384
0002a0 29 5e 3b bc da 75 7a bd f1 1d ee bd 9c f4 b8 bd
       -0.011436024 -0.06114755 -0.116268046 -0.090310305
0002b0 5c ad aa be d3 07 6a bd 69 0e de bb f6 b8 83 3d
       -0.33335388 -0.057136368 -0.00677662 0.06431763
0002c0 21 37 c1 bc b4 44 00 3d e5 02 76 bc 77 54 9a bc
       -0.023585858 0.03131552 -0.015015339 -0.018839104
0002d0 53 65 03 3e 14 55 bf bb 5e 92 e1 3d f6 bd c0 3d
       0.12831621 -0.0058389995 0.110142455 0.09411232
0002e0 5d 59 3d bd 21 da 76 bc 58 6b bb 3c 31 09 9b 3d
       -0.0462278 -0.015066654 0.022878334 0.075701125
0002f0 8f 20 15 be a8 d3 e9 3c 60 f7 6b 3e a1 a1 1a be
       -0.14563201 0.028543308 0.23043585 -0.15100719
000300 cb 6b e7 bd 05 7e 39 bc 56 c1 92 3d 76 94 20 3e
       -0.11299857 -0.011321549 0.07165782 0.15681633
000310 47 e0 b8 3d ef 32 88 3d af 3d 63 be 5c 60 be 3d
       0.090271525 0.0665034 -0.22191499 0.09295723
000320 1c 26 d6 bd b5 c8 08 bd 0e 92 70 3d 96 9e 83 3d
       -0.104564875 -0.033394534 0.05873304 0.06426732
000330 bf 7b a1 3e a3 57 bb 3d 9e 8a 15 3d 85 2b 43 be
       0.31539723 0.09147575 0.03650915 -0.1905957
000340 58 36 fa 3d 07 02 73 be eb d3 07 be e2 1a f7 bd
       0.122173965 -0.23731242 -0.13264434 -0.12065674
000350 31 dd 61 3e ec 58 42 3d 17 89 00 be 16 ea 22 be
       0.22057034 0.047448084 -0.12552296 -0.15909609
000360 59 73 42 be bd df 47 be 37 1c 9a 3d ef 49 19 3e
       -0.18989314 -0.19518943 0.07524913 0.1496961
000370 94 e5 90 bd ab 9a 42 be 03 a8 9d 3d b9 43 4b 3e
       -0.070750386 -0.19004314 0.07698061 0.19850053
000380 4d c9 7d be 48 fb c5 bc 5f dd fc bc e5 5a 9e bd
       -0.24783821 -0.024167672 -0.030867277 -0.077321805
000390 c6 ca ea 3c c0 4c 34 be 1b 4b a2 bd b7 b1 f1 3d
       0.028661143 -0.17607403 -0.079244815 0.118014745
0003a0 77 f5 f8 3d 5a 53 41 3e a2 18 7e 3d f7 af 19 3e
       0.12156194 0.18879452 0.06203521 0.15008532
0003b0 21 f6 f9 bd d0 a7 b1 3d 8b 02 96 bc ad 63 9a 3d
       -0.122051485 0.08674586 -0.01831176 0.07538543
0003c0 95 2a c1 3d dd 1e 4c 3e e5 26 98 be 59 ed 2a be
       0.0943195 0.19933648 -0.29717174 -0.16692103
0003d0 1e cd d7 bd c7 7e 26 3e af 53 2f bc 05 c6 e5 3d
       -0.1053717 0.16259299 -0.010701104 0.1121941
0003e0 70 48 9e bd da bd 87 bd 3e 35 e4 3d 91 2b a5 bd
       -0.0772866 -0.06628008 0.11142968 -0.0806495
0003f0 3a 02 ea 3d cb ed 75 bd 21 57 06 be a5 3c 12 be
       0.11426206 -0.06004123 -0.13119175 -0.14280947

lstm.weight_hh_l0 f4 [128, 32]
000000 d6 60 fc b9 19 e6 ac bc 32 ca 5c 3c 77 c5 dd 3d
       -0.00048137334 -0.021105813 0.0134759415 0.10828679
000010 a6 4c f1 3c 7e f7 40 bd 00 a4 2a 3e a7 94 1b 3e
       0.029455494 -0.047111027 0.16664124 0.15193425
000020 0d 09 20 3d 86 70 da bc d5 fb bb bd f9 5b 07 3d
       0.03907113 -0.026664983 -0.091788925 0.033046696
000030 ea b8 b1 bc ac 6a 55 be 37 d6 ec bd d3 71 5a 3c
       -0.02169462 -0.20841473 -0.11564296 0.013332802
000040 3e b3 25 3e c2 54 10 be 7c 89 d6 3d e2 aa a0 bd
       0.16181657 -0.14094833 0.10475442 -0.07845093
000050 8b 59 df 3d 71 9a 00 be 0b 9b 0a 3e fe a1 5f 3d
       0.10905751 -0.12558915 0.13535707 0.054597847
000060 77 17 9f 3d ab 37 4a be 4d a5 81 3d ef 82 c1 bd
       0.077681474 -0.19747798 0.06330357 -0.09448802
000070 c7 3c 04 3e 75 d6 91 3c ec c4 b4 3d 5e c9 45 bd
       0.1291381 0.017802456 0.08826622 -0.04828774
000080 b7 4e 4a 3d 78 72 f8 3d 8f 20 ea 3d e9 44 0c 3e
       0.049391475 0.12131208 0.11431991 0.13698162
000090 73 fd 05 be 36 97 78 bd d5 db bb bc 04 25 07 3d
       -0.13084964 -0.06069108 -0.022931973 0.032994285
0000a0 70 c8 27 3e 46 26 01 3e 34 d2 ce 3b 3c e4 98 3b
       0.16385055 0.12612256 0.0063116793 0.0046658795
0000b0 34 0b 03 be d7 d0 9e 3c 16 cb e8 bc 36 f7 a2 3d
       -0.12797242 0.019386692 -0.028417151 0.07957308
0000c0 c8 33 0c be 63 b3 83 bd 93 54 14 3e b4 2f 67 bd
       -0.13691628 -0.064307 0.14485388 -0.056441978
0000d0 0e e9 a8 bc a4 b7 ff 3b 22 f3 8f 3b 0d c8 27 3e
       -0.020618942 0.007803874 0.0043929974 0.16384907
0000e0 3d 61 24 be 10 6f 31 3e 48 2e 20 3d a9 64 a8 3d
       -0.16052718 0.17327523 0.039106637 0.082223244
0000f0 93 2d 11 be 70 6f 20 3d 40 67 8d 3d 7f 89 a1 bc
       -0.14177541 0.039168775 0.06904459 -0.019718884
000100 10 4f 5b 3d e5 d3 52 bd a3 f2 d8 bd 85 8e b2 bd
       0.053542197 -0.05147161 -0.10593154 -0.0871859
000110 a5 89 1a be 5f b7 2f bd 75 d3 e1 3c 25 1a 47 bd
       -0.1509157 -0.042899486 0.02756665 -0.048608918
000120 5e 89 9c 3d 07 22 92 3d 7f bd e1 bb d6 54 2d bd
       0.07643388 0.071353965 -0.006889045 -0.042317234
000130 51 ae 9f 3d 59 6b 23 be 62 bd f8 bb e9 93 49 3d
       0.0779692 -0.15958919 -0.0075909356 0.049213324
000140 ae f5 f5 bc c0 3a 47 bd cf d9 ff 3c 73 53 00 3e
       -0.030024376 -0.048640013 0.031231789 0.12531833
000150 15 54 ef bd 6d 53 2d 3d 10 35 56 be 58 ef 2c bd
       -0.11685959 0.04231589 -0.20918679 -0.042220443
000160 72 9d a1 3d 33 13 9a 3d b9 17 a3 3d 4c c7 e9 bc
       0.078913584 0.07523193 0.07963509 -0.028537415
000170 0b cc 42 be 68 6b d5 bd 19 8e ce 3d 7e 13 19 3e
       -0.19023149 -0.10420877 0.10085697 0.14948842
000180 bc 76 0c 3e fa 13 d7 3d e5 51 04 3e 0e 31 76 bc
       0.13717169 0.10501857 0.12921865 -0.015026344
000190 9b e0 0f be 58 db 39 3c db 8e 04 be 54 a6 2d be
       -0.14050524 0.0113437995 -0.1294512 -0.1695798
0001a0 df 8e 2c bd 82 c7 57 bc 1e c0 4f bd 33 12 e8 bd
       -0.04212844 -0.013170125 -0.050720327 -0.11331596
0001b0 8c 60 05 be 37 3e 36 be 05 31 ff 3b 39 93 15 be
       -0.13025111 -0.1779717 0.007787826 -0.14606942
0001c0 15 d3 45 3e a9 3c 29 be 6e 4b a9 bd 5f 04 8a bd
       0.19318803 -0.16527046 -0.0826634 -0.06739115
0001d0 8a 02 03 3d 6a d1 12 3e 90 a5 d7 bc 2f de 51 bd
       0.031984843 0.14337698 -0.026324064 -0.05123728
0001e0 13 89 43 be 55 5b 0b bd a8 65 f6 bd d0 ff 19 3e
       -0.19095258 -0.034022648 -0.12031108 0.15038991
0001f0 7f 5d f5 3d ba 0b a8 3d f9 de 17 be 8d 55 12 3d
       0.119807236 0.08205362 -0.14831151 0.03572612
000200 02 e3 10 3e 07 e4 94 3d e2 59 27 be 26 b7 75 3d
       0.14149097 0.07270055 -0.16342881 0.059989117
000210 5c 4c 43 3d e3 95 81 bd e7 d6 e0 bd 0b 9c 6c bc
       0.047680244 -0.06327417 -0.10978489 -0.0144415
000220 f5 5c c7 bd 50 e7 17 3e 7a 21 92 bc d6 69 e1 bd
       -0.09734527 0.14834332 -0.017838228 -0.11006515
000230 22 d7 05 3e 19 40 cd bc d5 68 20 3e dc e1 88 bd
       0.13070348 -0.025054978 0.1566499 -0.06683704
000240 00 6b 3f be ed 11 c2 3b 35 d2 1a 3e dc fc bf bd
       -0.18693161 0.005922547 0.1511925 -0.09374401
000250 ac ee 16 bd 5c 00 86 3d 76 5d 0e bd 85 4f 61 bd
       -0.03684871 0.06543037 -0.0347571 -0.055007476
000260 03 4b c1 bd 97 29 bc 3d fd 7b ac 3c 7f e5 ff 3c
       -0.094381355 0.0918762 0.021055216 0.031237362
000270 7e 12 f8 bd 0e f7 df bc 37 cc 8d 3d 97 e9 fa 3d
       -0.12112902 -0.027339485 0.069237165 0.12251585
000280 32 45 85 3c e1 cb a9 3d a0 88 13 be 72 b1 7c bd
       0.016268346 0.0829084 -0.14407587 -0.061692663
000290 25 cf 94 bd 34 55 0d be ff 50 37 be c3 32 b5 3d
       -0.07266072 -0.13802034 -0.17901991 0.08847573
0002a0 29 20 b3 3c 30 ba 76 3c 55 fa a4 bd 3f 2e c3 bd
       0.021865921 0.015059039 -0.080555595 -0.09530305
0002b0 8d db a2 bd 07 ad dc 3d 19 6a e9 bd 27 c1 de 3c
       -0.07952032 0.1077519 -0.1139719 0.027191712
0002c0 c9 42 1a be cd 7b b7 bd 40 22 b7 bd 82 a5 9f bd
       -0.15064539 -0.0895916 -0.089420795 -0.0779524
0002d0 ee db e9 3d 2e e6 63 bd 58 e6 ce bd 6b 4a 40 3e
       0.114189014 -0.05563944 -0.10102528 0.18778388
0002e0 55 80 fb 3d 6a aa a6 3d 9f 02 e1 bc 11 ed 3b be
       0.12280337 0.08137973 -0.02746707 -0.18352152
0002f0 1c b4 09 3e 55 f9 18 3d 7c eb ab 3c e6 df 29 3e
       0.13447613 0.037347157 0.020986311 0.16589317
000300 ae bd f7 bb 3c 4c 91 bd 88 ff 5b bd 7c 47 08 3e
       -0.0075604534 -0.07094619 -0.05371049 0.13308519
000310 ca 9a 6b 3e 19 e4 14 3e 4f 24 e7 3c b6 e8 5e 3c
       0.23008266 0.14540137 0.028215555 0.013605287
000320 f6 ae 09 3d b0 d5 10 3d e5 a7 8a bd c3 11 33 3d
       0.03361412 0.03536004 -0.067703046 0.04371811
000330 8c 06 72 3d 73 50 1a 3e 37 d8 8c bc 91 66 09 3e
       0.059088275 0.15069751 -0.017192943 0.13418032
000340 d2 b8 d9 3c 35 59 22 3e a8 78 fc bc 05 8e ee 3d
       0.026577387 0.15854342 -0.030819252 0.11648182
000350 0e 22 91 3d e6 bb 2d 3e b3 5a 07 3e f8 bb 75 bd
       0.070865735 0.16966209 0.13218193 -0.059993714
000360 68 97 69 bc d0 87 b6 bd 5d 21 65 3d 27 e4 29 3e
       -0.0142572895 -0.08912623 0.05594002 0.1659094
000370 dc 5e 72 3d 5d 6f e7 bd ca ba ed 3d 0e 06 08 be
       0.059172496 -0.11300538 0.11607893 -0.1328356
000380 2c b6 1c 3c 82 62 a3 bd ec 70 2c bd fe 8d 01 be
       0.009564918 -0.07977773 -0.04209988 -0.12651822
000390 c5 05 20 be d6 b0 c6 3d f5 5b 40 bd 97 ff d4 3d
       -0.15627201 0.097016975 -0.046962697 0.104003124
0003a0 94 44 c6 3d 6b 7b 25 3e ae 6c 87 bd d7 12 09 3e
       0.09681049 0.16160361 -0.06612526 0.13386093
0003b0 7e 56 84 3d d1 72 db 3c 58 d2 e7 bc 81 d4 8d bd
       0.064618096 0.026788147 -0.028298542 -0.069252975
0003c0 fb f7 95 3d 35 9f ea bd f7 7a 86 3d b8 08 e3 bd
       0.07322689 -0.114561476 0.065664224 -0.11085647
0003d0 99 ba 45 be bb 48 ae bd e6 89 02 bd c0 fd eb 3d
       -0.19309463 -0.08509966 -0.03186979 0.11523008
0003e0 2b a0 7e 3d 15 3b 0c bd 07 63 6b 3d e1 04 0f 3e
       0.062164467 -0.034236033 0.057467487 0.13966705
0003f0 f5 56 24 bc 12 b0 9f 3b e4 9d 7f bd 60 68 02 bd
       -0.010030498 0.004873284 -0.062406436 -0.03183782

lstm.bias_ih_l0 f4 [128]
000000 1a c6 36 3d 97 31 0b be 0b ab 00 be 9b b9 93 bd
       0.044622518 -0.13593136 -0.12565248 -0.07213136
000010 6e f0 a6 bd c6 e1 16 3e 89 e4 af 3d b4 dd 1d 3e
       -0.08151327 0.14734563 0.085885115 0.15416604
000020 4e 40 47 3c 6e 5b 18 be 8d c0 2f be 48 8d 6e bd
       0.0121613275 -0.14878628 -0.17163296 -0.058240205
000030 5a 55 55 bd c5 50 24 3e ae d2 0d 3e ac da 82 bd
       -0.05208335 0.16046436 0.13849899 -0.063893646
000040 5b 77 a5 bd a8 6d 8f bd f7 54 9d 3d 2d 63 14 bd
       -0.08079406 -0.07003337 0.076822214 -0.036227394
000050 39 66 9d bc c4 3f 5c 3d 76 ca a8 3e 55 84 69 bd
       -0.019213783 0.05377175 0.32966965 -0.057010967
000060 cf a4 e7 bd e3 95 1a be 8d 2d 54 3d c1 ce 4f bd
       -0.113107316 -0.1509624 0.051801253 -0.050734285
000070 f5 ce 18 3e 30 a8 9f bc 7f 77 e6 3d d3 4b 27 be
       0.14922698 -0.019489378 0.11253261 -0.16337518
000080 8f 1b 3a be ba c7 cf 3d a7 f3 55 bd 3f a4 36 be
       -0.18174575 0.10145517 -0.052234318 -0.17836092
000090 4d f7 38 bd fe 61 25 bd ca 49 08 be 58 f8 94 bc
       -0.04515772 -0.040376656 -0.13309398 -0.018184826
0000a0 39 f8 42 bc 4a 18 eb 3d c0 de f4 bc 52 a5 b8 3c
       -0.011900001 0.11479242 -0.029891372 0.022539768
0000b0 53 1c 3d be c2 13 22 be 6a 60 15 3e 4c 89 83 3e
       -0.18467836 -0.1582785 0.1458756 0.25690687
0000c0 3d c7 6d be 3a e8 0c 3e 48 c9 fc 3d 5d be 9f bd
       -0.23220535 0.13760462 0.12343079 -0.07799981
0000d0 66 36 54 3b 37 53 f8 bd 0f 62 31 3f 0d 3d 81 bc
       0.0032381057 -0.12125247 0.6929025 -0.015776182
0000e0 14 77 fd 3d 12 fb 0d be ce 9d 75 3d ac 41 ef bc
       0.12376228 -0.13865307 0.059964947 -0.02920612
0000f0 fe d5 12 3e 10 c7 38 3e 42 53 34 3b 15 2d 18 3e
       0.14339444 0.18044686 0.0027515446 0.14860947
000100 80 d8 5f 3d 00 88 ce bd f8 d8 66 3c 1c f2 e1 bb
       0.05464983 -0.10084534 0.014089815 -0.0068953168
000110 f8 82 90 bd d7 26 33 3e 7b 2b b2 3c 34 b4 e8 3d
       -0.0705623 0.17495285 0.021749249 0.11362496
000120 28 e8 fb bd 3e bc 20 3d 1f de 65 3d bd 55 09 bc
       -0.1230014 0.03924202 0.056120034 -0.008382258
000130 e6 64 df bd ea a7 cf bd 23 63 de 3d cd 28 a5 bd
       -0.10907917 -0.10139449 0.108587526 -0.08064423
000140 af dc e2 bd 51 d7 90 bd 14 08 8b 3d f3 ce 31 be
       -0.11077248 -0.07072318 0.0678865 -0.17364101
000150 b0 66 c8 3b 14 8f 96 bd 23 48 88 bd e9 7c 2d 3d
       0.006115757 -0.07351509 -0.06654384 0.04235545
000160 e5 fb 3c 3e a6 95 dc 3d 8a 69 39 bd 47 4c ed bd
       0.18455465 0.10770731 -0.045266666 -0.115868144
000170 70 97 19 3d dd b7 e8 bc 45 ef 8a 3d 2a 96 85 3d
       0.037497938 -0.028407985 0.06783918 0.06522782
000180 c8 81 05 3e f9 5f 0a be 93 0e 72 3d be 36 04 3e
       0.13037789 -0.13513173 0.05909593 0.12911507
000190 74 76 e7 bd 76 db d9 bd fd dd f2 bd d9 7b 80 bd
       -0.1130189 -0.10637562 -0.11858747 -0.06273622
0001a0 eb 9c 0f be e5 c2 1a be 9f 26 01 3d fe 2c 26 3d
       -0.14024703 -0.15113409 0.031530973 0.04057025
0001b0 ad 4c 90 3d de f5 18 3d 2b 98 a7 bd a7 3b 94 3d
       0.07045875 0.037343852 -0.081833206 0.0723794
0001c0 9c fd ed bd 24 4f 96 bc 1e 99 14 3c 71 dd 0e be
       -0.11620638 -0.018348284 0.009069709 -0.1395166
0001d0 e6 42 ec 3d c4 18 d0 bc be 04 70 3e 0f 3f be bd
       0.11536197 -0.025402434 0.23439309 -0.09289371
0001e0 47 be 27 3a a3 90 11 be 61 56 bb 3d 65 aa 57 bd
       0.0006398898 -0.14215331 0.09147335 -0.052652735
0001f0 c6 86 99 bd 95 34 df bb 8e dc 85 3d e8 2a 69 bd
       -0.07496409 -0.006811688 0.06536208 -0.056925684

lstm.bias_hh_l0 f4 [128]
000000 c7 78 41 be 11 55 60 bd 98 d5 b6 3d 35 68 2b be
       -0.18893729 -0.054768626 0.089274585 -0.1673897
000010 f8 d4 22 bd 25 6b 7f bd 0b d8 b1 bd b1 e9 2e be
       -0.039753884 -0.06235804 -0.08683785 -0.17081334
000020 1f 11 0f 3d b6 a5 b9 bd 80 28 8e bc 93 a2 a6 3d
       0.034928437 -0.0906481 -0.017353296 0.08136477
000030 47 e4 92 bd 09 e2 14 be fa 4e 03 3e e6 6e cf 3d
       -0.07172447 -0.1453935 0.12823096 0.10128574
000040 6a fc 1c 3d d4 7a d3 bc 6f 96 f2 bc 2c e7 af bc
       0.03832666 -0.025815405 -0.029612748 -0.021472536
000050 39 89 23 bd 1f 60 43 be a8 69 71 3e 26 fd a7 3d
       -0.039925788 -0.19079636 0.23575461 0.08202581
000060 af 40 9b 3d 44 5c 17 3e 80 9f 30 bc de ea f0 bd
       0.07580697 0.1478129 -0.010780215 -0.11763547
000070 df 17 d4 bb f4 66 9d 3a 88 05 30 bc 6a c0 3e bd
       -0.006472572 0.0012008832 -0.010743506 -0.04657022
000080 0a a6 51 be fb 0f 4c 3d fd 81 b3 bd 16 cd 52 be
       -0.20473495 0.049819928 -0.08765028 -0.20586047
000090 b2 79 d4 3d 1c 14 0e 3e 77 46 1e 3e 97 6b fa bd
       0.10374774 0.13874859 0.15456568 -0.122275524
0000a0 08 1e 36 bd 9e a2 23 be 5a bb f5 3d d4 79 18 3d
       -0.044462234 -0.15980002 0.11998625 0.03722556
0000b0 2f e9 df 3c f2 65 26 3e 7b af 13 be 2d 7e 18 3d
       0.02733287 0.16249827 -0.14422409 0.037229706
0000c0 01 98 39 be 9f d0 22 be e6 eb 7b 3d fb c9 d7 bd
       -0.18124391 -0.15899895 0.061504267 -0.105365716
0000d0 47 1a 18 bd b2 27 27 bd 9e 51 17 3f 70 f1 34 be
       -0.037134435 -0.04080934 0.5910891 -0.17670226
0000e0 30 2b de bc e6 94 0e be 8b 8c 28 be 3f 4c 2c 3e
       -0.027120203 -0.13923988 -0.16459863 0.1682596
0000f0 62 5a 44 be 28 ea 08 3e ff d0 84 bc 8a e4 55 bd
       -0.19175103 0.13370574 -0.016212938 -0.052219905
000100 13 79 c0 3d be 0c 37 be 8a a7 25 bd 93 37 c6 3d
       0.09398093 -0.17875955 -0.04044298 0.09678569
000110 c4 90 ab 3d b2 d5 8a 3c a5 d0 aa bc d5 d1 ed bd
       0.08377221 0.016947601 -0.020851443 -0.11612288
000120 d0 64 e6 3d d3 cf 86 3d d4 f3 5c bc 19 90 f8 3d
       0.11249697 0.06582608 -0.0134858675 0.121368594
000130 7e bb d6 bd 0a 3d 3e 3e 95 c0 70 bc 79 76 f1 3d
       -0.1048498 0.18577972 -0.014694353 0.11790175
000140 42 0e 51 3d b7 d6 ef 3d b0 97 9e 3d ff d0 ea 3d
       0.051038988 0.117108755 0.07743776 0.11465644
000150 1a 92 70 3b 2c 9c c5 bd 6d 21 87 3d 48 77 a8 3d
       0.0036708177 -0.09648928 0.06598172 0.08225876
000160 67 e4 d7 3d 16 e8 52 bd b3 52 0c 3e 9f b6 2d bd
       0.10541611 -0.051490866 0.13703422 -0.04241049
000170 fd 81 b8 3d 58 38 9f bd 35 83 ee 3d 1a 61 05 be
       0.09009168 -0.077744186 0.116461195 -0.13025323
000180 fe 12 9d 3c 6a 25 30 3e 13 b1 af 3d ab be e9 ba
       0.019174095 0.17201772 0.08578696 -0.0017833313
000190 3d 43 e8 bd 2a 9f 08 3e f3 55 82 bb 1a 9b f5 bd
       -0.1134095 0.13341966 -0.003977531 -0.11992474
0001a0 1b 46 27 be de 06 04 bd 67 e4 46 be 1a 6a 56 bd
       -0.16335337 -0.03223311 -0.19423066 -0.05234728
0001b0 e7 31 7c bd e7 5b f8 bd 91 35 27 3e 69 99 87 bd
       -0.061571028 -0.12126904 0.16329028 -0.066210575
0001c0 6b 78 b1 bd b4 86 9a bd 68 ef b0 bc 43 d3 19 be
       -0.08665546 -0.07545224 -0.021598533 -0.15021996
0001d0 34 19 af 3d b7 5d c4 bd 70 e9 59 3e 1d ed cc 3b
       0.08549729 -0.09588187 0.21280456 0.006253852
0001e0 c0 79 22 3d 2d f0 73 bd c9 96 cd 3d 2e 4b 3b 3e
       0.03966689 -0.05955522 0.100385256 0.18290398
0001f0 23 22 5c 3d 0e 48 c0 3d 21 a8 04 3e d6 b8 d7 bd
       0.053743493 0.09388743 0.12954761 -0.105333015

fc.weight f4 [3, 32]
000000 67 7c 7a 3d f6 2f 2c 3e 34 ba 15 be cf 6b d6 3b
       0.061153796 0.1681517 -0.14621812 0.0065436135
000010 b6 41 1a be 59 7c de bd ed e0 c1 3c 1c 64 a8 bd
       -0.15064129 -0.10863561 0.023666823 -0.08222219
000020 53 73 7a 3d a9 b7 ef bd fd 11 f0 bd bd 1d aa 3d
       0.061145138 -0.11704952 -0.11722181 0.083064534
000030 82 d1 3d bc 76 5b 2e be fc 42 95 bd 2a 2a 90 3c
       -0.011585595 -0.17027077 -0.07288167 0.01759823
000040 76 f0 0e bc ff ac 6f 3d 4b 0e 32 be e0 83 d5 3d
       -0.008724323 0.05851459 -0.17388265 0.10425544
000050 24 b3 98 bd e9 55 09 be c7 a0 03 bd 3f 22 86 3c
       -0.07456043 -0.13411678 -0.03213575 0.016373752
000060 73 aa 9d bd 17 12 02 bc 33 09 ec 3d 81 5d 32 3e
       -0.07698526 -0.007938883 0.11525192 0.17418481
000070 48 7a 30 bc 49 d2 7f 3c de b9 37 bd cc a0 15 3e
       -0.010771342 0.015614101 -0.04485499 0.1461212
000080 f3 8c 09 be 02 4c 19 be dc da 0a be 91 2e 97 3c
       -0.13432674 -0.14970401 -0.1356005 0.018454822
000090 98 e0 14 3e ad b8 3b be 88 2c 7b 3d 9d fb c2 3c
       0.145388 -0.18332167 0.061321765 0.02380162
0000a0 da 0c 80 bc b3 e0 b5 bc 9a f0 86 3d cb a5 d2 3d
       -0.015631128 -0.022201871 0.0658886 0.10285529
0000b0 2c ed 0a 3c 6e af ba 3d d7 5b 51 3d de da 45 3e
       0.008479398 0.09115492 0.051112976 0.19321772
0000c0 b9 74 42 bd d0 32 7b bd 66 a6 b3 3d 33 95 df 3c
       -0.047474597 -0.061327755 0.08771972 0.027292823
0000d0 65 a4 e1 3d e2 1a 16 be 2b ed a9 bc e0 24 ce 3d
       0.11017684 -0.14658692 -0.020742973 0.10065627
0000e0 1d e4 05 bb 55 4f ed bd 74 4e 2a be 24 d8 1e 3e
       -0.0020430156 -0.11587397 -0.1663149 0.15512139
0000f0 6d 0c 42 3e cf 90 32 3e 68 56 ab 3d fb ac 59 3d
       0.18950053 0.17438053 0.0836609 0.053143483
000100 50 0d d7 3d ec c2 c5 3d 32 34 9e bd 29 39 e4 3c
       0.10500586 0.09656319 -0.07724799 0.027859287
000110 e3 f9 8b bd 08 9a 0d 3e bc ce 12 be bd d6 63 bc
       -0.068347715 0.1382829 -0.14336675 -0.013906178
000120 06 34 d4 3d 40 b8 dc 3d e1 6a c6 bc af fb 46 3c
       0.10361485 0.107773304 -0.024220886 0.012144967
000130 35 2b 12 be b0 37 ae bd 20 81 81 ba 23 74 45 3e
       -0.14274295 -0.08506715 -0.0009880401 0.19282584
000140 dc 78 15 bd 84 a9 b0 bd 0c 91 1c 3d 02 23 ad 3d
       -0.036492214 -0.086260825 0.038224265 0.08453943
000150 f6 5d d5 3d d6 24 17 bd 3d 33 62 be 88 13 91 3d
       0.10418312 -0.036900364 -0.22089858 0.070838034
000160 d7 29 b1 3d 7c 17 c8 3d 49 a1 08 3e 40 56 59 bc
       0.086505584 0.09770104 0.13342775 -0.0132651925
000170 71 8b 80 bd 9d 90 2c bd 61 b9 62 bd 87 64 c8 bd
       -0.06276596 -0.0421301 -0.055352572 -0.09784799

fc.bias f4 [3]
000000 da 70 ba 3d 34 e7 e0 bc f4 6f eb bc
       0.09103556 -0.027453996 -0.028739907
