checkpoints/StaticGVAR/RET_h1_h1_tr2021-01-01_te2023-01-01_seed1_lam1.0e-03.pt (torch, 3855 bytes, 3 tensors)

S f4 [4, 3, 3]
-0.0063971956 -0.024563994 0.020069774 -0.011880223 -0.027871259 0.026272414 -0.0015850337 -0.02029139
0.01010064 -0.03265953 0.017603254 0.0072913347 -0.02891356 0.006361654 0.009323034 -0.045975734
0.040852737 -0.009175092 -0.016935991 -0.0054591596 0.007735014 -0.045111068 0.014915201 0.008523882
-0.02011812 -0.004448753 -0.0040827636 0.009543469 0.0134428535 -0.0053923037 -0.015504281 0.019521356
-0.007087877 -0.0050901826 0.017530315 0.0054856353
00000000: 919f d1bb 6e3a c9bc 5e69 a43c 44a5 42bc
00000010: 4452 e4bc 3f39 d73c e8c0 cfba 213a a6bc
00000020: 287d 253c 00c6 05bd b334 903c 26ec ee3b
00000030: 21dc ecbc 6c75 d03b a4bf 183c 0d51 3cbd
00000040: 3355 273d 2053 16bc 59bd 8abc c0e2 b2bb
00000050: 0076 fd3b 62c6 38bd e35e 743c c1a7 0b3c
00000060: c1ce a4bc d8c6 91bb b4c8 85bb 365c 1c3c
00000070: 6a3f 5c3c ecb1 b0bb ab05 7ebc 40eb 9f3c
00000080: 6c41 e8bb 8ccb a6bb bc9b 8f3c d8c0 b33b

bias f4 [3]
-0.009250745 -0.0061590504 -0.0094176205
00000000: 7090 17bc dcd1 c9bb 5d4c 1abc

Wc.weight f4 [3, 6]
0.013550838 0.006321525 0.006614703 0.02744976 -0.030569037 -0.010229211 0.010907415 0.011811601
0.0026532905 0.014793826 -0.01165243 -0.011635818 -0.0043590055 0.008395917 0.0076610986 0.039997563
-0.021072565 -0.0076064067
00000000: 5604 5e3c cc24 cf3b 27c0 d83b 52de e03c
00000010: eb6b fabc 6c98 27bc 04b5 323c 7285 413c
00000020: d4e2 2d3b ce61 723c d5e9 3ebc 28a4 3ebc
00000030: fdd5 8ebb 078f 093c f409 fb3b 7cd4 233d
00000040: 5fa0 acbc 2a3f f9bb
