checkpoints/StaticGVAR/RET_h4_h4_tr2021-01-01_te2023-01-01_seed5_lam1.0e-03.pt (torch, 3855 bytes, 3 tensors)

S f4 [4, 3, 3]
00000000: ed5e 503c 2db0 14bc b0d3 d9b8 64b9 9dbb
00000010: 1a40 fd3a b3f9 1fbc 247e 933c ed85 3abc
00000020: e489 a5ba e85d 9ebc e472 5fbb e80e c53b
00000030: 340b 38bd 2fc3 813c 6e3a 063c 751b 8fbc
00000040: 0687 b4bb 9016 63bb 3c75 f93c 2fd6 c539
00000050: 7c8f 6ebc 6a47 1a3d 9ef0 a8bc 19e4 92bc
00000060: a7b0 4e3b 55e3 903b dcef 013c a0e6 703b
00000070: f05c 6fbc e146 c63c 65b6 41bc 58c3 833a
00000080: 0bed eb3c 6c1a 1abc b528 7bbc 2488 a53c
0.012717945 -0.009075207 -0.00010386796 -0.00481336 0.0019321472 -0.009764123 0.018004484 -0.011384469
-0.0012629596 -0.019331887 -0.003409558 0.00601374 -0.04493256 0.015840141 0.008192642 -0.017469147
-0.00550926 -0.00346509 0.03045141 0.00037734347 -0.0145605765 0.037665762 -0.020622548 -0.017931031
0.0031538398 0.0044216313 0.007930722 0.0036758557 -0.01460956 0.02420372 -0.011823271 0.0010052724
0.028799554 -0.0094057135 -0.0153295295 0.020206518

bias f4 [3]
00000000: 8bc4 f6bb 9cdf 0abc 4d1e aabb
-0.007530754 -0.008476164 -0.0051916004

Wc.weight f4 [3, 6]
00000000: a4ec 65ba cf14 01bb a225 7e3c a018 b2bb
00000010: 9eeb 723b 75b4 b1bb 5c24 a13b 06c1 cdbb
00000020: 2646 6b3c 0279 f83b e84d 2abb 1eac e0bb
00000030: 6ec1 1fbb 52cb ffba b8e4 4d3c 2c5a d93b
00000040: 5863 cb3c bb81 71bc
-0.0008770919 -0.001969624 0.015511902 -0.0054350644 0.0037066708 -0.0054231235 0.0049176645 -0.0062791137
0.014359986 0.0075827846 -0.0025986377 -0.0068564555 -0.0024376768 -0.001951555 0.012566738 0.006633064
0.024827644 -0.014740403
