checkpoints/StaticGVAR/RET_h24_h24_tr2021-01-01_te2023-01-01_seed4_lam1.0e-04.pt (torch, 3933 bytes, 3 tensors)

S f4 [4, 3, 3]
000000 e3 83 27 bc 80 f5 dc bc 74 8a c6 38 8f 3b dd 3b
       -0.010224315 -0.026972532 9.467165e-05 0.0067514847
000010 fe ba 04 bd f7 d1 a7 bb 4b b2 7d 3b f0 60 54 bc
       -0.032404892 -0.0051214653 0.0038711007 -0.012962565
000020 36 b0 95 bc 30 05 9f b9 58 ce b5 3b 96 1d a7 bc
       -0.0182725 -0.00030330708 0.0055482797 -0.02039985
000030 ed 9a 40 3c 1c 5e a6 ba f3 20 dd bc 93 e1 2b ba
       0.011755687 -0.0012692842 -0.02699325 -0.00065567455
000040 59 02 ae 3c b9 3f 59 bc 41 ae 53 3b b2 79 d5 ba
       0.021241354 -0.013259822 0.0032299908 -0.0016286878
000050 5d ec 72 3c 00 5e c3 3b fb 83 bf 3b cb 90 02 3c
       0.014826861 0.0059621334 0.0058445907 0.007969092
000060 e2 3b a6 3c 58 d0 fe 3a e9 34 03 3c 7b 48 3a 3b
       0.020292226 0.0019440753 0.00800822 0.002842455
000070 72 ae ac 3c ef 67 69 bc 5c 84 66 bb 96 6d ed 3c
       0.021079276 -0.014245971 -0.0035174107 0.028982919
000080 16 4c 82 bc 2d 66 b4 3c 05 5d e6 3b 21 58 e9 bb
       -0.015905421 0.022021377 0.0070301318 -0.0071211015

bias f4 [3]
000000 72 ac 00 bc 90 4c 4a bc 1e e3 ed bb
       -0.007853614 -0.0123473555 -0.0072597405

Wc.weight f4 [3, 6]
000000 b1 6c 25 bb da 49 49 bc 6a 76 27 bb 50 64 a7 3c
       -0.0025241787 -0.012285674 -0.0025552758 0.020433575
000010 0c c9 72 bc b5 fa 28 bc d8 8d d6 bb 99 3f b3 bb
       -0.014818441 -0.010313679 -0.006547671 -0.005470228
000020 9b 71 b3 bb a9 33 41 3d cb 96 2b bd 75 3f 5c bc
       -0.0054761893 0.047168408 -0.041891854 -0.013442864
000030 41 e8 a6 bb 32 b3 e8 bb de c3 52 bb 21 0f f6 3a
       -0.005093605 -0.00710144 -0.0032160203 0.0018772819
000040 66 48 f3 3c 3a 45 e4 bb
       0.029697608 -0.0069662603
