checkpoints/StaticGVAR/RET_h24_h24_tr2021-01-01_te2024-01-01_seed4_lam5.0e-04.pt (torch, 3933 bytes, 3 tensors)

S f4 [4, 3, 3]
00000000: cf7a 33bb ed27 69bc 4d52 373c ae19 163c
00000010: dc62 b9bc bcd9 be3b 9071 073b b8fe e5bb
00000020: 5193 1dbc 5edf d43a 2231 b93b 7e4a 85bc
00000030: 8cc1 503c 8a53 11b9 149b aebc 8044 0139
00000040: 09ed 383c 0c11 8fbc 6af8 1c3b 96b5 00bc
00000050: 78c3 093c 8687 933a 25eb d3ba 3c0c 003b
00000060: a946 7d3c e60b 3dbb 017a a63b 9872 523b
00000070: cbd5 823c 3d9b 8bbc 07fd dfbb 7ba7 bc3c
00000080: a5f8 82bc 61f6 753c eb6f 4b3c 1f3b e4bb
-0.0027386432 -0.01423071 0.011189056 0.009161396 -0.022630148 0.005824296 0.0020667054 -0.00701889
-0.0096176425 0.0016240885 0.005651609 -0.016270872 0.012741458 -0.00013859398 -0.021314181 0.00012327917
0.011286982 -0.017464183 0.0023951777 -0.007855793 0.00840842 0.0011255599 -0.0016168101 0.0019538542
0.015458741 -0.0028846203 0.005080462 0.003211176 0.015971085 -0.017041797 -0.006835583 0.02302908
-0.015987704 0.015012355 0.01241682 -0.0069650556

bias f4 [3]
00000000: 4195 6b3a 2724 a7bb e09c da38
0.0008986779 -0.0051007452 0.0001042427

Wc.weight f4 [3, 6]
00000000: 1258 da3b cc9a a73b a2b8 8939 ac1d a83c
00000010: 4faa a8bc d1d0 f7bb fa5c 37bb 9f76 7a3b
00000020: 5588 1c3b 8e72 f43c a487 ddbc 3811 4bbc
00000030: 7b31 47bb a755 033c 1125 a2bb 0542 ee3a
00000040: 3fc1 c43c 7c85 e1bb
0.006663331 0.005114889 0.00026268238 0.020521961 -0.020589022 -0.0075627347 -0.0027979002 0.0038217676
0.002388497 0.02983978 -0.027042218 -0.012394242 -0.0030394483 0.008016027 -0.0049482663 0.0018177634
0.024017928 -0.0068823677
