checkpoints/StaticGVAR/RET_h1_h1_tr2021-01-01_te2023-01-01_seed1_lam1.0e-04.pt (torch, 3855 bytes, 3 tensors)

S f4 [4, 3, 3]
000000 61 b0 91 bb 2b fd f2 bc dc eb be 3c 18 53 35 bc
       -0.004446075 -0.029661736 0.023305826 -0.011067174
000010 08 e6 01 bd a1 6a f1 3c fc e1 b8 b9 b2 69 be bc
       -0.031713516 0.02946979 -0.00035263586 -0.023243759
000020 d2 19 42 3c e2 f6 1c bd 94 05 ba 3c 8a 42 ef 3b
       0.011846976 -0.038321383 0.022707738 0.0073016332
000030 87 08 03 bd 6e aa 10 3c 79 45 21 3c 58 ea 5a bd
       -0.031990554 0.008829696 0.009843224 -0.053446144
000040 5b 2b 4b 3d 29 dc 3c bc 62 ac 97 bc c7 cb ab bb
       0.049601894 -0.0115271 -0.018514816 -0.005242798
000050 00 03 13 3c 59 2e 51 bd b1 10 a1 3c 35 1d 1a 3c
       0.008972883 -0.05106959 0.01966128 0.009406378
000060 fa e5 b4 bc c1 ed 56 bb 5a 60 5a bb f3 4d 1b 3c
       -0.022082318 -0.003279552 -0.003332159 0.009479034
000070 95 f7 71 3c 56 17 eb bb 45 cc 96 bc f7 dd bf 3c
       0.014768501 -0.0071744127 -0.01840795 0.02342127
000080 34 6a 0d bc e2 9d ec bb 29 ff a2 3c 06 ba a2 3b
       -0.008631278 -0.0072209695 0.01989706 0.0049660234

bias f4 [3]
000000 db 91 17 bc 00 b7 c9 bb b4 80 1a bc
       -0.009251083 -0.0061558485 -0.009430099

Wc.weight f4 [3, 6]
000000 d6 4b 5f 3c be e4 d2 3b 2b 0c d6 3b 41 f2 e0 3c
       0.013628921 0.0064359596 0.0065322123 0.027459266
000010 90 4f fb bc b7 63 27 bc 03 cf 33 3c 2a 32 43 3c
       -0.030677587 -0.010216645 0.010974648 0.0119138155
000020 13 06 2a 3b 2f 28 72 3c b1 f7 40 bc ef d4 3d bc
       0.0025943562 0.014780088 -0.011777804 -0.011586412
000030 4b 33 8c bb 75 7b 0a 3c 21 d6 fb 3b 5a ea 23 3d
       -0.0042785755 0.008452286 0.0076854383 0.040018417
000040 73 7f ad bc b8 85 f8 bb
       -0.021178937 -0.0075843
