checkpoints/StaticGVAR/RET_h1_h1_tr2022-01-01_te2025-01-01_seed5_lam1.0e-03.pt (torch, 3855 bytes, 3 tensors)

S f4 [4, 3, 3]
00000000: 04a7 8ebb 4b42 54bc 59a5 153c c58a 223c
00000010: 8a97 53bc cdfe be3b d7b4 c23a b1ff f6ba
00000020: 6cd3 07bd 726e 28bc 4979 703c 389e 9239
00000030: b3a4 d0bb 4541 323c 2f95 b93b 3e23 983b
00000040: a918 893c 018c 5dbc cf1f 6a3c 1206 99bc
00000050: a6b6 9e3c 349a e03a 455c 41bc aba0 ad3b
00000060: 09be f53b e9fb 69bc 8139 023c c445 8dbb
00000070: c63b c33a 16a6 803c 8309 3bbc c50d 70bb
00000080: 5f5c 853c 7aee 3bbc f7fc 16bc 90a9 e43c
-0.004353406 -0.012955259 0.00913366 0.009920781 -0.012914548 0.0058287145 0.001485492 -0.0018844513
-0.033160612 -0.010280238 0.014677354 0.00027965172 -0.00636729 0.010879819 0.005663536 0.004642873
0.016735392 -0.013522149 0.01428981 -0.018679652 0.019374203 0.00171358 -0.011801784 0.005298694
0.0074994606 -0.0142812515 0.00794828 -0.004311295 0.0014895133 0.015704196 -0.011415842 -0.00366293
0.016279398 -0.011470431 -0.009215585 0.027912885

bias f4 [3]
00000000: ce3c 1e3c d336 873b 266b 613c
0.009658052 0.0041264086 0.013758456

Wc.weight f4 [3, 6]
00000000: 8405 0e3c 9aba 763b a2ac d9bb 2749 9cbc
00000010: 3db9 993c aa7d a3ba f41c 753c f201 d5ba
00000020: 1fae 4abc 58a4 bdbc b9cf aa3c e989 00bc
00000030: f503 c7ba 4812 babb e182 7fbc e82f 82bc
00000040: c59d d33c 81bf 94bb
0.008668307 0.0037647844 -0.006642894 -0.01907785 0.018765086 -0.0012473364 0.014960516 -0.001625119
-0.012370615 -0.023149654 0.020851003 -0.00784538 -0.0015183674 -0.005678449 -0.015595169 -0.015891984
0.025832066 -0.0045394306
