checkpoints/StaticGVAR/RET_h4_h4_tr2021-01-01_te2024-01-01_seed1_lam1.0e-04.pt (torch, 3855 bytes, 3 tensors)

S f4 [4, 3, 3]
00000000: f0c8 f23b 1173 dcba 95bd b9bb 1732 e2bb
00000010: d186 1d3c 52f6 a0bb 4d5f af3c 452f 00bc
00000020: 800c 5d3b bd41 c8bc e512 ccbb 492f 293c
00000030: d144 3fbd 15bd b13c 8109 513c dc79 a0bc
00000040: 2409 c5bb dce8 5739 5731 cf3c 563e 63bc
00000050: 848b 7cbc 9ac7 223d 9090 02bd d1cb 64bc
00000060: 5c2f 8c3b 9dea 17bc 1d12 723b c4ba bf3b
00000070: de7d a7bc 3350 c93c 1f4e 55bc de50 24ba
00000080: a880 fb3c d50c efbb 5a1f b8bc 27d3 ea3c
0.0074092075 -0.001681896 -0.005668352 -0.006902944 0.009614662 -0.004912176 0.021407748 -0.00782377
0.0033729374 -0.024445409 -0.0062278383 0.010326215 -0.046696488 0.021696607 0.012758614 -0.019589357
-0.0060130525 0.00020590745 0.025292082 -0.0138698425 -0.0154141225 0.039741136 -0.031876147 -0.013964609
0.0042781066 -0.009272245 0.0036937066 0.0058511216 -0.02044576 0.024574375 -0.013019114 -0.00062681537
0.030700997 -0.007295231 -0.022475887 0.028665138

bias f4 [3]
00000000: 049d 833a 0008 5cbb ed17 d2ba
0.0010041301 -0.0033574104 -0.0016028859

Wc.weight f4 [3, 6]
00000000: 786c 2e3b 9390 a0ba aba9 133c 8129 0a3c
00000010: fd56 7ebc d982 cbbb 8deb 313b 41fb 22bc
00000020: 2c37 dc3b 8d91 8c3c f548 5abc ef2d 19bc
00000030: c644 e53b 976b 32bb 0842 673b 920d b93c
00000040: 40b2 583a 3903 95bc
0.0026614945 -0.0012250118 0.00901262 0.008432747 -0.015523669 -0.0062106666 0.0027148456 -0.009947599
0.006720444 0.017159248 -0.013323058 -0.00934933 0.006996724 -0.0027224773 0.003528716 0.022589479
0.00082663074 -0.018190013
