checkpoints/StaticGVAR/VOL_h1_h1_tr2021-01-01_te2023-01-01_seed2_lam5.0e-04.pt (torch, 3919 bytes, 3 tensors)

S f4 [4, 3, 3]
0.5594034 0.18847053 0.08793089 0.16864116 0.48195508 0.118912034 0.083321504 0.12438992
0.4745401 0.27819338 -0.011544837 -0.0070545124 -0.0047155614 0.27251536 0.0031363214 -0.016141728
-0.0035905114 0.3081423 0.10178449 -0.06913126 -0.036173776 -0.080984786 0.14525378 -0.039532714
-0.050353337 -0.04588615 0.17152068 -0.019693857 -0.06720472 -0.023601681 -0.08392292 0.050761607
-0.057183087 -0.01744437 -0.053064667 -0.0038672157
00000000: 1035 0f3f 6bfe 403e 1c15 b43d 45b0 2c3e
00000010: d1c2 f63e 2788 f33d 77a4 aa3d 24c0 fe3d
00000020: ecf6 f23e 5d6f 8e3e 8e26 3dbc 8a29 e7bb
00000030: ff84 9abb 2287 8b3e be8a 4d3b a83b 84bc
00000040: c94e 6bbb d4c4 9d3e 6374 d03d b194 8dbd
00000050: f42a 14bd 5adb a5bd 68bd 143e 0eed 21bd
00000060: 4d3f 4ebd 1ef3 3bbd 1ea3 2f3e 0355 a1bc
00000070: a1a2 89bd 5058 c1bc c8df abbd 67eb 4f3d
00000080: d038 6abd 7fe7 8ebc 565a 59bd 1d71 7dbb

bias f4 [3]
-0.008999531 -0.00089207874 -0.0016113791
00000000: c572 13bc 64da 69ba e934 d3ba

Wc.weight f4 [3, 6]
-0.011217993 0.0012986101 0.0030932913 -0.0041951616 0.008628972 0.0021380426 -0.012994069 0.0019408865
-0.002770227 -0.05215507 0.05470174 0.010617454 -0.00886812 -0.001548536 0.0049807993 -0.04913473
0.06640911 -0.013761144
00000000: accb 37bc 2036 aa3a d1b8 4a3b 9177 89bb
00000010: 8860 0d3c 671e 0c3b 13e5 54bc 5865 fe3a
00000020: b28c 35bb 8ea0 55bd ef0e 603d d4f4 2d3c
00000030: 974b 11bc 3ff8 caba f935 a33b 8041 49bd
00000040: 8001 883d 6c76 61bc
