checkpoints/StaticGVAR/VOL_h1_h1_tr2022-01-01_te2025-01-01_seed3_lam1.0e-04.pt (torch, 3855 bytes, 3 tensors)

S f4 [4, 3, 3]
000000 f0 e3 2f 3f 2d 7e 57 3e 4b 3f a8 3d 3d b1 5b 3e
       0.6870718 0.21044226 0.08215197 0.2145433
000010 55 27 25 3f b4 70 b8 3d dd 14 0a 3e d5 7e 07 3e
       0.6451314 0.090058714 0.13484521 0.13231976
000020 68 3d 00 3f a2 63 56 3e 41 47 97 bd 02 f5 e3 bc
       0.500937 0.20936444 -0.073866375 -0.02782679
000030 f5 80 c4 bd 62 16 67 3e 50 60 11 bd 06 ea 87 bd
       -0.09594909 0.22567132 -0.03549224 -0.06636433
000040 b1 1a 0e bd 6d 96 a0 3e f6 7f 80 3d 58 32 c5 bd
       -0.034693424 0.31364766 0.062744066 -0.09628743
000050 5c a7 08 bd 43 77 c3 bd ed ee ad 3d af ff 4c bd
       -0.03336273 -0.09544232 0.08492837 -0.050048526
000060 12 42 a6 bd b6 76 65 bd c8 cb 1f 3e 26 41 18 bd
       -0.08118071 -0.056021415 0.1560508 -0.037171505
000070 97 a9 64 bc 33 7f 3a bc 02 d5 ed bc 98 c6 4b bc
       -0.013956449 -0.011382866 -0.029032234 -0.012437485
000080 20 13 a7 39 4a d7 1f 3b 45 e9 b6 bc db 0f cb bc
       0.0003186697 0.0024389797 -0.022328028 -0.024787834

bias f4 [3]
000000 a9 ba 1e bb c8 fe ec bb 92 7c 0a bc
       -0.0024220145 -0.0072325207 -0.008452551

Wc.weight f4 [3, 6]
000000 37 09 42 3a e6 e1 95 3b e9 ee b6 39 43 c3 e5 3b
       0.0007401886 0.0045740483 0.00034891747 0.0070118024
000010 36 31 8a 3b 24 55 cb 3a 32 58 71 3b 9b be 9e 3b
       0.004217292 0.0015513045 0.003682625 0.0048444993
000020 e8 f8 a7 38 e9 9d 66 3c a2 7f d9 bb bd 06 5f 3b
       8.009543e-05 0.014075735 -0.0066375295 0.0034031116
000030 dc 2e 6e ba bc 81 26 bb 24 0a 0c 3b e7 b5 96 3c
       -0.0009085962 -0.0025406918 0.002136835 0.018397285
000040 4c b8 92 bb 54 e0 98 bc
       -0.0044775363 -0.018661655
