checkpoints/StaticGVAR/VOL_h12_h12_tr2021-01-01_te2023-01-01_seed5_lam1.0e-03.pt (torch, 3997 bytes, 3 tensors)

S f4 [4, 3, 3]
000000 e0 53 05 3f eb 2b 74 3e c2 be 24 3e 64 9f 23 3e
       0.5208111 0.23844878 0.16088393 0.15978771
000010 cb 74 fe 3e 5e 45 4f 3e 45 6b 7b 3d 6b 71 0d 3e
       0.4969848 0.20241305 0.061381597 0.13812797
000020 6d 8d 19 3f 52 d9 3e 3e ec d4 9e 3c 4a 33 c2 3c
       0.59981424 0.18637589 0.019388638 0.023706097
000030 a5 7e 23 bc e2 61 72 3e dc 32 38 3d 2e 5e 60 bd
       -0.009978925 0.23670152 0.04497038 -0.054777317
000040 27 03 c4 3c da 57 9f 3e fc 3f 79 bb ea 91 2b bd
       0.023927284 0.31121713 -0.0038032522 -0.0418872
000050 82 5a dd bc ee 2e c3 bd dd 70 c3 3d 9f ad 73 bd
       -0.027020697 -0.095304355 0.09543011 -0.05949175
000060 a5 16 5c bd 45 9c 0d bd 0d 08 3e 3d 83 f5 32 be
       -0.053732533 -0.03457286 0.046394397 -0.17476468
000070 6f 1e 1e bc 40 63 b6 bd 7c 52 c6 bd 8c 9d 60 bd
       -0.009650811 -0.08905649 -0.096837014 -0.05483775
000080 d4 82 ea bd 43 ad b3 3c cb 1b c6 3c 02 88 79 be
       -0.11450735 0.021933204 0.024183175 -0.24368289

bias f4 [3]
000000 79 ff 15 bd bc 3b 8e bc ad 72 63 bc
       -0.03662059 -0.017362468 -0.013882321

Wc.weight f4 [3, 6]
000000 42 d3 34 bd c6 d1 2b bc ab 2c bd bb 6c 9d 3f bb
       -0.044146784 -0.010487026 -0.005773147 -0.0029238118
000010 d3 f7 7f 3d 97 59 3b bc ec 17 38 bd 3f 34 d9 bb
       0.062492203 -0.011434934 -0.04494469 -0.0066285427
000020 83 ba 11 bc be bf f3 39 a9 da 41 3d c8 88 b4 ba
       -0.0088945655 0.0004649143 0.04732767 -0.0013773674
000030 df 00 02 bd 36 2c 8a bb d9 c0 8b 3b 5f 12 1f 3d
       -0.031739112 -0.004216696 0.0042649326 0.03883588
000040 7f ff 5d 3d 4c 40 59 bd
       0.05419874 -0.053039834
