checkpoints/StaticGVAR/VOL_h1_h1_tr2021-01-01_te2023-01-01_seed1_lam1.0e-04.pt (torch, 3919 bytes, 3 tensors)

S f4 [4, 3, 3]
0	0x3f16ac62	0.58856785
1	0x3e47daf0	0.19517112
2	0x3da76eeb	0.08175453
3	0x3e2e5f49	0.17028536
4	0x3f024361	0.5088406
5	0x3ddb522a	0.10709031
6	0x3da6d191	0.0814544
7	0x3df3b880	0.11900425
8	0x3f0fd62f	0.56186193
9	0x3e8b0634	0.2715317
10	0xbcafb91a	-0.021450568
11	0xbc69aa06	-0.014261728
12	0xbcaea32a	-0.021318037
13	0x3e923b12	0.28560692
14	0x3b10fb92	0.0022122604
15	0xbd064c89	-0.032787833
16	0xbc5fc209	-0.013657101
17	0x3e9c238c	0.3049587
18	0x3dc8c7ad	0.0980371
19	0xbdb32deb	-0.087489925
20	0xbce39715	-0.027782002
21	0xbdab76f5	-0.08372299
22	0x3e08d479	0.13362302
23	0xbd2b49f5	-0.041818578
24	0xbd7ed4e0	-0.062214732
25	0xbd67d6a6	-0.05660119
26	0x3e15b210	0.14618707
27	0xbd1f9b87	-0.03896668
28	0xbd2c98ff	-0.042138096
29	0xbc9790fb	-0.01850175
30	0xbd978965	-0.07399253
31	0x3cfcbde1	0.03085226
32	0xbd33ad33	-0.043866348
33	0x3b8447ea	0.004036893
34	0xbca635dd	-0.020289356
35	0xbd726891	-0.059181754

bias f4 [3]
0	0xbc119332	-0.008885192
1	0xbb1cbcdd	-0.0023916282
2	0xbb71a137	-0.0036869773

Wc.weight f4 [3, 6]
0	0xbc346080	-0.0110093355
1	0x3a5fc896	0.00085366645
2	0xba0474d0	-0.0005052807
3	0x3c34d5d0	0.011037305
4	0xbbd19859	-0.006396335
5	0x3aebcf31	0.0017990825
6	0xbc4d4efa	-0.0125310365
7	0x3b411adb	0.002946547
8	0xbb268bb5	-0.0025412862
9	0x3bf3d1b7	0.0074407714
10	0xbab6eb23	-0.0013955574
11	0x3bbb74e0	0.0057207197
12	0xbc02ae81	-0.007976175
13	0xb9f74085	-0.00047159582
14	0x3b76e3a4	0.0037672305
15	0x3d74a42d	0.059726883
16	0xbd2b1b10	-0.041773856
17	0xbc701922	-0.01465443
