checkpoints/NeuralGVAR/RET_h24_h24_tr2022-01-01_te2025-01-01_seed3_lam5.0e-04.pt (torch, 16393 bytes, 7 tensors)

S f4 [4, 3, 3]
-0.13072206 -0.04374629 0.1397167 -0.064111 -0.11701225 0.16481203 -0.14602312 -0.0645615
0.17078622 -0.054292426 0.12038991 -0.11280099 0.07692068 -0.09785253 -0.10909351 -0.10094985
0.17039783 -0.082246 0.18046728 -0.13786031 0.12503442 0.08375118 0.095519595 -0.12912618
-0.073676996 0.13100295 0.040754907 0.116504595 -0.076542795 -0.042433925 0.057472073 0.08699555
-0.05316157 0.05697222 0.082767926 -0.10182465
00000000: 01dc 05be 4f2f 33bd e511 0f3e a14c 83bd
00000010: 1ea4 efbd 7cc4 283e 1687 15be d238 84bd
00000020: 95e2 2e3e bc61 5ebd fc8e f63d 3504 e7bd
00000030: 9788 9d3d e866 c8bd 6b6c dfbd ccbe cebd
00000040: c57c 2e3e 9770 a8bd 6acc 383e 412b 0dbe
00000050: 0609 003e bd85 ab3d c79f c33d a739 04be
00000060: f7e3 96bd a325 063e 9eee 263d f699 ee3d
00000070: 78c2 9cbd 32cf 2dbd d667 6b3d b92a b23d
00000080: f2bf 59bd b45b 693d 3b82 a93d 7189 d0bd

bias f4 [3]
0.00890077 0.0052186097 0.010934359
00000000: 89d4 113c df00 ab3b 0726 333c

gate.0.weight f4 [64, 6]
-0.0074770544 0.5697726 0.34963694 0.23088552 -0.8137369 0.8141564 0.1527719 -0.5526048
0.5758968 0.014879054 -0.57336193 0.027030682 -0.13038781 -0.72311854 -0.0420807 -0.01026996
0.4836556 0.607422 0.2684138 0.92217207 0.10604811 -0.117167294 0.10490835 0.057674244
0.10206158 0.1622407 0.067367055 0.32129842 -0.6116814 -0.31703427 -0.283605 -0.10633742
0.18213363 -0.2022583 0.2158488 -0.37540194 -0.32348055 -0.32306576 -0.01237775 0.53751457
-0.46946245 0.9843984 -0.07976807 0.22892593 -0.9293386 0.33368993 -0.20471099 -0.06677984
0.13164116 0.054362103 0.0038617305 -0.21331127 0.21234512 -0.39099216 -0.40048555 -0.29048917
0.3793929 -0.8540181 0.20892732 0.02643397 0.060992103 -0.51094186 -0.064144894 -0.70746946
0.5892356 0.7688284 -0.09749702 0.34823018 0.32204252 -0.5129317 -0.46356472 -0.14004774
-0.50253195 -0.33665815 0.12845732 -0.4045931 -0.38691702 0.082959734 0.6069262 -0.15997182
-0.17159417 -0.6725278 -0.42042848 0.089610666 0.21420841 0.58665085 -0.8467185 -0.057342354
-0.7439389 0.112546414 0.016572895 0.24827628 -0.43504983 -0.13720804 0.19566737 -0.5259124
0.3303378 0.4096138 -0.12944126 0.50077665 0.35478702 1.277025 0.48149377 -0.6783724
0.18282862 -0.057284776 0.61089724 0.17982742 -0.32340586 0.13490652 0.33133188 0.278451
-0.65629953 -0.4244186 1.1702192 0.06805727 -0.0443411 0.05096592 0.2373481 0.4629369
-0.6784505 0.3381258 -0.03624092 0.24892497 -0.6407115 0.11416022 0.2615168 -0.54841155
0.41589266 0.07626462 0.9467109 0.9701492 0.059925545 0.1115308 -0.0848492 0.7259909
-0.66023505 -0.06973151 0.79594517 -0.4296751 -0.4016852 -0.0058374507 0.2061271 0.098522894
-0.12749732 0.08436845 -0.14039515 0.6577807 -0.69567823 0.3605358 0.21455377 0.41328725
0.20742644 -0.14503254 0.68336135 -0.6362456 0.096827306 -0.2956521 -0.73225504 -0.5641076
0.7493698 0.1729507 -0.2796061 -0.36313155 -0.09694888 -0.4031878 -0.13095309 0.07927815
-0.7614483 -0.5961195 -0.104764946 0.34757861 0.42432514 -0.26212972 -0.52293146 0.31966674
0.58642995 -0.528334 -0.3586965 0.3976642 0.14274588 0.1999624 0.2153578 0.8035997
-0.66286594 0.02273132 0.2121802 0.13130188 0.21032734 0.27270535 -0.9477364 0.00886969
0.17260212 0.020120379 0.06371299 0.30969208 -0.24860562 -0.036020067 0.67544746 0.555608
0.21708146 -0.2095995 0.02298296 -0.31438857 0.34969097 0.43061706 0.2252425 -0.51224273
-0.33099276 -0.3491773 0.21579464 0.17377885 0.29142714 -0.5586796 -0.27497056 0.13798901
0.0071640615 0.13733408 0.5188565 0.17336735 -0.40840116 0.09153597 0.12298323 -0.32975385
-0.05522536 -0.57299477 0.4734798 -0.04473774 -0.23379819 0.29160523 0.14083587 -0.42341182
0.28217217 -0.41636726 0.3781376 0.5907752 0.58282334 0.27005798 -0.46068555 -0.083785206
-0.29810628 0.32861826 0.4792512 -0.13915431 -1.0298584 0.4904933 0.24289101 0.19323099
-0.3610123 -0.6442103 -0.35840598 0.07274594 0.118618496 0.0057844985 -0.2792494 -0.13157819
00000000: 1402 f5bb 9edc 113f 9d03 b33e 416d 6c3e
00000010: 1051 50bf 8e6c 503f 3d70 1c3e 8277 0dbf
00000020: f96d 133f 47c7 733c d9c7 12bf 736f dd3c
00000030: 6284 05be 4c1e 39bf d05c 2cbd 5643 28bc
00000040: b5a1 f73e 0280 1b3f 896d 893e 7813 6c3f
00000050: c02f d93d 68f5 efbd 30da d63d d43b 6c3d
00000060: a905 d13d 6d22 263e bdf7 893d 3a81 a43e
00000070: 2797 1cbf 5152 a2be ad34 91be 6fc7 d9bd
00000080: 3d81 3a3e cd1c 4fbe 7807 5d3e af34 c0be
00000090: 3e9f a5be e068 a5be 0ccc 4abc 8e9a 093f
000000a0: 625d f0be 8901 7c3f 715d a3bd 8f6b 6a3e
000000b0: 22e9 6dbf 68d9 aa3e c29f 51be dec3 88bd
000000c0: f1cc 063e ccaa 5e3d 1615 7d3b 456e 5abe
000000d0: 0071 593e 2030 c8be 710c cdbe ffba 94be
000000e0: c93f c23e eea0 5abf 0bf1 553e 0e8c d83c
000000f0: dbd2 793d 16cd 02bf 665e 83bd b81c 35bf
00000100: 25d8 163f f0d1 443f 85ac c7bd 3a4b b23e
00000110: c2e2 a43e 7e4f 03bf 5b58 edbe ad68 0fbe
00000120: efa5 00bf 755e acbe 518a 033e d426 cfbe
00000130: fd19 c6be cbe6 a93d 845f 1b3f a7cf 23be
00000140: 62b6 2fbe c82a 2cbf 6742 d7be cc85 b73d
00000150: 7359 5b3e c02e 163f 8bc2 58bf d1df 6abd
00000160: c872 3ebf bc7e e63d e1c3 873c 233c 7e3e
00000170: dabe debe 4480 0cbe 075d 483e 32a2 06bf
00000180: 0922 a93e e6b8 d13e 408c 04be e632 003f
00000190: a5a6 b53e 8e75 a33f 5a86 f63e d0a9 2dbf
000001a0: 6d37 3b3e 71a3 6abd c363 1c3f ae24 383e
000001b0: 7495 a5be ef24 0a3e 55a4 a93e 2191 8e3e
000001c0: 3f03 28bf 654d d9be bec9 953f 9c61 8b3d
000001d0: 039f 35bd a4c1 503d 610b 733e 1106 ed3e
000001e0: efae 2dbf d31e ad3e 5c71 14bd 30e6 7e3e
000001f0: ab05 24bf d5cc e93d 88e5 853e b364 0cbf
00000200: e2ef d43e a030 9c3d a55b 723f b35b 783f
00000210: 7d74 753d 436a e43d 6bc5 adbd 8ada 393f
00000220: 2a05 29bf 65cf 8ebd 10c3 4b3f 60fe dbbe
00000230: afa9 cdbe 1648 bfbb fc12 533e 5fc6 c93d
00000240: a88e 02be 5ec9 ac3d bfc3 0fbe 5164 283f
00000250: f817 32bf 2698 b83e fcb3 5b3e 639a d33e
00000260: 9967 543e 6983 14be c5f0 2e3f fee0 22bf
00000270: 654d c63d b65f 97be 1175 3bbf 5b69 10bf
00000280: b3d6 3f3f fd19 313e 8828 8fbe 61ec b9be
00000290: 228d c6bd a26e cebe 9118 06be 955c a23d
000002a0: 47ee 42bf 4a9b 18bf 018f d6bd d3f5 b13e
000002b0: 2541 d93e de35 86be d6de 05bf 5cab a33e
000002c0: 4620 163f e640 07bf 11a7 b7be a49a cb3e
000002d0: fa2b 123e f2c2 4c3e c186 5c3e b6b8 4d3f
000002e0: 95b1 29bf 0837 ba3c c445 593e 0074 063e
000002f0: 0d60 573e 09a0 8b3e da9e 72bf 2d52 113c
00000300: 9cbe 303e 7ed3 a43c f57b 823d f68f 9e3e
00000310: 7992 7ebe c789 13bd 20ea 2c3f 533c 0e3f
00000320: 9a4a 5e3e 40a1 56be c346 bc3c 8af7 a0be
00000330: b20a b33e d779 dc3e f8a5 663e 5722 03bf
00000340: e277 a9be 5ec7 b2be 45f9 5c3e 15f3 313e
00000350: f035 953e a005 0fbf f1c8 8cbe fe4c 0d3e
00000360: 81c0 ea3b 4ea1 0c3e c8d3 043f 3687 313e
00000370: f519 d1be 3677 bb3d a2de fb3d 7fd5 a8be
00000380: fd33 62bd c9af 12bf f26b f23e ec3e 37bd
00000390: cb68 6fbe 484d 953e 4737 103e 6fc9 d8be
000003a0: df78 903e 172e d5be 409b c13e 0b3d 173f
000003b0: e933 153f 0a45 8a3e fade ebbe 9497 abbd
000003c0: 63a1 98be a740 a83e 6a60 f53e 787e 0ebe
000003d0: 66d2 83bf f021 fb3e 6cb8 783e 58de 453e
000003e0: 9bd6 b8be f7ea 24bf fd80 b7be d3fb 943d
000003f0: 41ee f23d e48b bd3b c7f9 8ebe 6fbc 06be

gate.0.bias f4 [64]
-0.22268394 -0.50801206 0.761889 -0.44539535 -0.2755744 0.907444 0.19003934 -0.16716377
0.9837245 0.18845943 -0.10521425 -0.52757955 -0.697837 -0.8661531 0.38899323 0.7918118
-0.7561804 -0.5519918 -0.016416343 -0.51537514 -0.111670904 -0.15733632 -0.18065903 -0.27742472
0.42391086 0.46747774 -0.03282911 -0.55838966 -0.5028819 0.21660921 -0.08635524 0.15428208
0.72136724 -0.16159175 -0.86408406 -0.22687803 -0.11889318 -0.30757904 -0.23419157 -0.44030023
-0.68142873 0.26399437 0.035930865 0.5560064 -0.90780056 -0.25725093 0.14306603 0.85493964
0.16476706 0.053454395 0.7149986 -0.32517815 -0.65262973 0.40521058 -0.626247 0.023400517
0.4609919 -0.6021418 -0.060641203 -0.56747293 0.04218635 0.5042967 0.46408373 0.3579514
00000000: 4207 64be 140d 02bf 280b 433f dc0a e4be
00000010: 1618 8dbe 404e 683f ac99 423e fb2c 2bbe
00000020: 5ed5 7b3f 82fb 403e 927a d7bd 740f 07bf
00000030: 72a5 32bf 36bc 5dbf 1f2a c73e 2eb4 4a3f
00000040: 0a95 41bf 564f 0dbf 917b 86bc a0ef 03bf
00000050: b7b3 e4bd c61c 21be aefe 38be 9d0a 8ebe
00000060: d80a d93e 3e59 ef3e d177 06bd a0f2 0ebf
00000070: debc 00bf cece 5d3e 04db b0bd 1ffc 1d3e
00000080: 86ab 383f 4f78 25be 9d34 5dbf b752 68be
00000090: 447e f3bd 007b 9dbe eacf 6fbe 086f e1be
000000a0: 1d72 2ebf 452a 873e 3e2c 133d 6f56 0e3f
000000b0: 9e65 68bf 65b6 83be e77f 123e 53dd 5a3f
000000c0: b2b8 283e fff2 5a3d 260a 373f c07d a6be
000000d0: be12 27bf c377 cf3e b951 20bf 71b2 bf3c
000000e0: 2107 ec3e f725 1abf e962 78bd e845 11bf
000000f0: 98cb 2c3d 9719 013f 629c ed3e 6845 b73e

gate.2.weight f4 [36, 64]
0.30545232 0.14238048 0.0846993 0.106261194 -0.074480094 -0.1153283 -0.026146173 -0.20200986
-0.13557078 0.20586678 -0.10036986 -0.021961886 0.09895786 0.12207576 -0.30828744 -0.21120471
0.12878667 -0.21355757 -0.0098130945 0.60450655 -0.42841357 -0.13412929 0.04072313 -0.01935968
-0.5392604 -0.03677899 0.074889205 0.17547244 0.121583365 -0.086600795 -0.29819158 -0.038905732
-0.23921722 0.09803994 -0.15356466 -0.041190553 -0.11938873 -0.1017238 -0.11885069 0.4067211
0.23317197 -0.053141262 -0.103349626 -0.020839136 0.05299446 0.20585546 -0.0109452875 -0.14729895
-0.101764865 -0.19448496 -0.1763212 0.061426885 0.51569194 -0.13490316 -0.044156536 -0.016953446
-0.038263794 0.093262 0.11501082 -0.10152243 -0.13510416 -0.47685307 0.1088016 -0.02429719
0.38897198 0.28830615 0.116147526 0.18681006 -0.010791325 -0.1901399 0.0068458165 -0.20969956
-0.36363694 -0.011272208 -0.049734637 -0.21315365 0.12596083 -0.0961086 -0.31749913 -0.47290722
0.51120234 0.27838135 -0.14039943 0.28986096 0.14777996 0.4935646 0.5030962 -0.0450506
-0.12943782 -0.039883737 -0.20829564 -0.05564271 0.16332635 -0.014440653 0.37788552 -0.2656586
-0.107139744 0.16821261 -0.070473276 -0.12796538 0.08049119 -0.083307795 0.0034833357 0.59787124
0.22873333 -0.18624964 -0.14513543 -0.36581847 0.34789616 0.114633724 -0.16587873 -0.058081705
0.081579626 -0.07896283 -0.102839865 -0.021113701 0.17355578 0.07799683 0.28961474 -0.09393333
0.22639404 -0.065671735 0.42949387 -0.061266735 -0.03535652 -0.16917336 -0.20746186 0.10004664
-0.0056645013 0.13372745 -0.07661545 0.2728276 0.03245412 -0.08100772 -0.06630303 0.0016121188
-0.11761346 -0.44202125 0.10220409 -0.021556668 0.18601912 0.9739022 -0.24250075 0.018673109
-0.2791964 -0.46702513 -0.37662596 0.38946584 -0.0767824 -0.57147956 -0.43255448 -0.10253246
0.23710975 0.015274217 -0.05444137 0.1459657 -0.22558537 -0.34988257 -0.053314846 -0.36009628
-0.09200131 0.03572464 0.11266138 0.08168083 -0.0129910745 0.1318586 -0.07157325 -0.06661092
-0.1483168 -0.22563514 -0.07179067 -0.30495828 -0.20630428 -0.21367122 -0.017622722 0.09913757
-0.13527459 0.32032812 -0.1447249 0.019844964 0.77006185 -0.15395814 -0.06322401 -0.05137804
-0.09837357 0.3730484 -0.34535003 0.1635484 0.2575751 0.34335667 -0.19494686 0.09342554
0.20646453 -0.23193188 -0.06844254 0.109275155 0.09563545 -0.11461427 -0.12908645 0.01645005
-0.16274306 0.057852026 -0.045554038 0.08640667 0.14186297 0.082926825 -0.07899528 -0.18457696
0.1452089 -0.022202836 0.11169718 0.37810528 -0.009676338 0.06500385 0.46740827 -0.19046365
-0.61197704 0.040759567 -0.07590209 0.05979488 0.1916988 0.09767642 0.112136304 -0.17536348
-0.24584027 0.25633052 0.19727446 0.08968859 0.076274626 -0.14547373 0.05872903 0.36057833
0.54168993 -0.066926576 0.04933809 -0.07034756 0.15117057 0.16162978 -0.43607157 -0.36930642
0.22719327 -0.6611874 -0.21621518 -0.03249054 0.14794976 -0.22897561 0.2624872 0.11115209
0.00792773 0.39040294 -0.078161016 -0.16455458 -0.03471748 -0.6116694 0.009658757 -0.13314497
00000000: 3f64 9c3e 30cc 113e d476 ad3d 789f d93d
00000010: 0589 98bd 3e31 ecbd 8030 d6bc acdb 4ebe
00000020: 11d3 0abe bece 523e b78e cdbd 6ae9 b3bc
00000030: 6baa ca3d db02 fa3d dad7 9dbe 0c46 58be
00000040: a7e0 033e d6ae 5abe 1ac7 20bc f1c0 1a3f
00000050: 0659 dbbe 3059 09be 4ccd 263d 3198 9ebc
00000060: f80c 0abf 91a5 16bd 835f 993d 0caf 333e
00000070: b300 f93d c25b b1bd 91ac 98be 9e5b 1fbd
00000080: 5cf5 74be 2ac9 c83d 0e40 1dbe 6db7 28bd
00000090: 1482 f4bd 9154 d0bd fe67 f3bd bf3d d03e
000000a0: a2c4 6e3e a7aa 59bd f8a8 d3bd d6b6 aabc
000000b0: b810 593d c6cb 523e dd53 33bc 89d5 16be
000000c0: 196a d0bd 1127 47be 8b8d 34be c29a 7b3d
000000d0: 6304 043f 0e24 0abe 7cdd 34bd f4e1 8abc
000000e0: 7fba 1cbd 2600 bf3d cb8a eb3d feea cfbd
000000f0: bf58 0abe 1626 f4be 60d3 de3d e70a c7bc
00000100: 5627 c73e dd9c 933e c1de ed3d 234b 3f3e
00000110: 19ce 30bc 09b4 42be df52 e03b 7bbb 56be
00000120: 9f2e babe 11af 38bc 8cb6 4bbd f344 5abe
00000130: e0fb 003e 96d4 c4bd 3f8f a2be e520 f2be
00000140: 28de 023f 0088 8e3e dec4 0fbe a868 943e
00000150: a153 173e 80b4 fc3e eaca 003f fa86 38bd
00000160: 598b 04be 215d 23bd 744b 55be 9ce9 63bd
00000170: 063f 273e 7d98 6cbc 367a c13e 6704 88be
00000180: 156c dbbd ed3f 2c3e 4b54 90bd 5b09 03be
00000190: 91d8 a43d 479d aabd ad48 643b 170e 193f
000001a0: 1239 6a3e 3ab8 3ebe 629e 14be 8f4c bbbe
000001b0: 721f b23e 16c5 ea3d 1ddc 29be 15e7 6dbd
000001c0: 3813 a73d 44b7 a1bd b59d d2bd a4f6 acbc
000001d0: 9bb8 313e cdbc 9f3d 6248 943e 1e60 c0bd
000001e0: d7d3 673e e77e 86bd 9fe6 db3e d4f2 7abd
000001f0: 00d2 10bd c83b 2dbe e270 54be 41e5 cc3d
00000200: 489d b9bb d9ef 083e 90e8 9cbd 0fb0 8b3e
00000210: 9dee 043d 60e7 a5bd e2c9 87bd bb4d d33a
00000220: 53df f0bd 9c50 e2be 6150 d13d 9c97 b0bc
00000230: cc7b 3e3e a851 793f 1e52 78be 59f8 983c
00000240: d5f2 8ebe eb1d efbe 1ed5 c0be 1168 c73e
00000250: 1740 9dbd 7c4c 12bf c877 ddbe 8afc d1bd
00000260: e6cc 723e b640 7a3c eafd 5ebd 0878 153e
00000270: daff 66be cf23 b3be ab60 5abd 8a5e b8be
00000280: 2f6b bcbd 0054 123d 02bb e63d 4748 a73d
00000290: 84d8 54bc f105 073e ff94 92bd 4e6b 88bd
000002a0: 5ce0 17be e60c 67be fd06 93bd 7e23 9cbe
000002b0: 6e41 53be a1cc 5abe 875d 90bc a308 cb3d
000002c0: 6c85 0abe 0c02 a43e c432 14be e891 a23c
000002d0: c622 453f 34a7 1dbe 977b 81bd c871 52bd
000002e0: 1578 c9bd 3300 bf3e b8d1 b0be 3b79 273e
000002f0: e2e0 833e 72cc af3e 26a0 47be e455 bf3d
00000300: 706b 533e 8d7f 6dbe 9a2b 8cbd a7cb df3d
00000310: 85dc c33d e3ba eabd 3d2f 04be 41c2 863c
00000320: 1ea6 26be 3ff6 6c3d df96 3abd fbf5 b03d
00000330: 8744 113e 8ad5 a93d 47c8 a1bd be01 3dbe
00000340: a4b1 143e b9e2 b5bc 7ec1 e43d 0497 c13e
00000350: 8189 1ebc bd20 853d 2350 ef3e e708 43be
00000360: 87aa 1cbf 81f3 263d 8e72 9bbd 7aeb 743d
00000370: b14c 443e 930a c83d b8a7 e53d 7c92 33be
00000380: 8dbd 7bbe c13d 833e 5102 4a3e a7ae b73d
00000390: df35 9c3d 11f7 14be da8d 703d b99d b83e
000003a0: 31ac 0a3f cd10 89bd bd16 4a3d 6212 90bd
000003b0: 75cc 1a3e 4782 253e c644 dfbe bb15 bdbe
000003c0: 5aa5 683e 9443 29bf 8367 5dbe cd14 05bd
000003d0: 2480 173e 9578 6abe b964 863e b5a3 e33d
000003e0: 4fe3 013c e5e2 c73e e212 a0bd ff80 28be
000003f0: eb33 0ebd 5e96 1cbf c33f 1e3c 2857 08be

gate.2.bias f4 [36]
-0.23150225 -0.20464458 -0.0869402 -0.38999695 -0.27370736 0.01622682 -0.44985512 0.06093559
-0.05700377 -0.347605 -0.33957523 -0.34559157 -0.3079203 -0.46297804 -0.34124875 -0.2162867
-0.5580563 -0.55224067 -0.1628462 -0.41167602 -0.22319505 -0.3213366 -0.24067217 -0.43711847
-0.41810378 -0.07307339 -0.23397993 -0.040392477 0.07677031 -0.18010974 -0.22263749 -0.35826752
-0.13281278 -0.053394593 -0.4819403 -0.17489024
00000000: ed0e 6dbe 598e 51be b40d b2bd aead c7be
00000010: 5f23 8cbe 1cee 843c 6953 e6be 9997 793d
00000020: c97c 69bd 48f9 b1be cedc adbe 61f1 b0be
00000030: bba7 9dbe 750b edbe 28b8 aebe 437a 5dbe
00000040: c7dc 0ebf a55f 0dbf 27c1 26be 33c7 d2be
00000050: 3e8d 64be 3b86 a4be c472 76be fecd dfbe
00000060: b311 d6be 80a7 95bd 6f98 6fbe 9572 25bd
00000070: c139 9d3d b06e 38be 15fb 63be d76e b7be
00000080: 1300 08be 4ab4 5abd e1c0 f6be 6d16 33be

Wc.weight f4 [3, 6]
0.0005135854 -0.0029798509 0.013038484 -0.012068543 0.009283525 0.00024125322 -0.0008296425 -0.0070218532
0.0047272155 -0.014238932 0.012059359 -0.011925824 -0.0006157183 -0.0024692898 -0.005393048 -0.00029238907
0.0022374908 -0.007992483
00000000: 22a2 063a 9a49 43bb 5e9f 553c 23bb 45bc
00000010: ed19 183c ebf8 7c39 5e7c 59ba 9317 e6bb
00000020: c2e6 9a3b 694a 69bc 9e94 453c 8864 43bc
00000030: 2868 21ba cfd3 21bb 2ab8 b0bb cc4b 99b9
00000040: dea2 123b e7f2 02bc
