checkpoints/NeuralGVAR/RET_h4_h4_tr2022-01-01_te2025-01-01_seed1_lam1.0e-03.pt (torch, 16307 bytes, 7 tensors)

S f4 [4, 3, 3]
000000 15 fd 96 bd c3 9f 2a 3e 62 8f d6 bd c7 a3 22 be
       -0.0737249 0.16662507 -0.10476567 -0.15882789
000010 09 b1 2b 3e 27 e4 08 be 0c 05 c1 3d 86 6f 5e 3e
       0.16766752 -0.13368283 0.09424791 0.2172223
000020 19 08 af 3d 29 0d 93 bd 88 c0 2e bd 60 88 91 3d
       0.085464664 -0.071802445 -0.04266408 0.071060896
000030 ea a4 f7 bd 1e 8c db bd 57 e7 a2 3d 1b 76 29 3e
       -0.12092002 -0.107200846 0.07954281 0.1654896
000040 91 44 a8 bd 14 22 cd bd 07 69 07 bc 15 32 13 3e
       -0.08216203 -0.100162655 -0.008264787 0.14374574
000050 9a d6 aa 3c 09 8f d9 3d 18 8e a5 3d e7 76 1c be
       0.020854283 0.10622985 0.08083743 -0.15279733
000060 0d bc 63 be 9b 78 2c 3e 6e 5e 0c 3e 8a ac 95 3d
       -0.22239704 0.16842882 0.13707897 0.073083
000070 65 af 87 be bd 98 33 3d 90 4a 46 be 10 f8 6e be
       -0.26501003 0.043846834 -0.19364381 -0.23336816
000080 f7 a3 eb 3d 01 dd 07 3e 19 10 b9 be a5 73 d9 3d
       0.11505883 0.132679 -0.36145094 0.106177606

bias f4 [3]
000000 a7 10 2e 3c 98 db 71 3b 14 b0 1d 3c
       0.010624087 0.003690457 0.0096245

gate.0.weight f4 [64, 6]
000000 e7 da 04 3e 3e ad 01 3e e3 33 2d 3f 70 07 44 3f
       0.1297413 0.12663743 0.676573 0.7657385
000010 6f 47 6c be 30 77 0b bf 9a fe 09 3f af 22 0b 3e
       -0.23074125 -0.5447874 0.53904116 0.1358745
000020 55 1d 1f bd 0b 1e 9e 3e 2d 83 f5 3e 6b 25 11 3f
       -0.038846333 0.30882296 0.47951642 0.5669772
000030 70 18 b8 bd 76 fc 48 ba 78 6e 90 3d a2 67 b6 3d
       -0.08989036 -0.0007667014 0.0705232 0.08906485
000040 2c 53 95 be f4 ab 83 be bb 0d c4 3e 11 56 fd be
       -0.29165018 -0.25717127 0.38291726 -0.49479726
000050 a4 b0 8a 3e ec 40 55 be f0 ee 9b 3e 56 ae 2d bd
       0.2708789 -0.20825547 0.30455732 -0.042402588
000060 59 9e be 3e e4 0d 47 3e b9 f0 2e bf db 11 11 3f
       0.37230185 0.19438893 -0.68336064 0.5666787
000070 3b 7f f0 be 1d 2e 87 be b3 45 47 3e 7e f7 7a be
       -0.4697207 -0.2640237 0.19460182 -0.24508473
000080 ad 77 9c 3e 33 d8 14 bf 33 91 01 bf 0b db 66 3e
       0.30560055 -0.58142394 -0.5061218 0.22544496
000090 55 91 0f 3e 63 2e a2 3e d5 ae 75 3e 99 0c 66 bf
       0.14020284 0.31676015 0.23992474 -0.8986297
0000a0 bc dd 86 bd d8 e1 0d bd be 80 da bd 24 77 1b bf
       -0.06585261 -0.03463921 -0.10669087 -0.6072867
0000b0 4c 6a 41 3e 76 a2 3f 3e 23 63 f9 be 98 e6 99 bc
       0.18888205 0.18714318 -0.48708448 -0.018786713
0000c0 c1 ff 6c 3e c8 ec 69 be 7f 7c a5 3e e4 ca 8f 3e
       0.23144437 -0.22844231 0.32321545 0.2808448
0000d0 54 e3 0a bf 02 8c 8b be 47 89 05 3f f0 4a b4 3e
       -0.54253125 -0.27255255 0.52162594 0.35213423
0000e0 4e f3 ee 3e 47 e2 bb 3d 7b 94 5b bd 9d 9f 3b 3f
       0.46670002 0.09174018 -0.0536084 0.73290426
0000f0 44 27 03 3f e7 c3 28 bf b2 0b 3e bd ff 57 08 3f
       0.5123179 -0.65923923 -0.046397872 0.5325927
000100 de 8a 2a 3f 1c 29 59 3f 08 bb e1 3d 96 fb a7 be
       0.66618145 0.8482835 0.110220015 -0.32809132
000110 04 66 97 be ce 4c f8 bc 78 fa 82 3f df a4 7c be
       -0.2957002 -0.03031006 1.0232687 -0.24672268
000120 ae cf 58 be 7a 2d fb bc 3e ea a6 bf f9 2c 4e be
       -0.21172974 -0.030661333 -1.3040235 -0.20134343
000130 c1 cb f1 3e be d5 2e 3f 68 4e 3f bf 9e a0 1e 3e
       0.47225764 0.68294895 -0.74729013 0.15490958
000140 bd a3 d9 3e 77 88 ab bc 6e 24 51 be 7b 57 22 39
       0.42507735 -0.020939095 -0.20424053 0.00015482113
000150 20 08 a0 3e 2d 21 dc 3d 77 ab c2 be 41 25 3d bf
       0.312562 0.10748515 -0.38021442 -0.7388497
000160 ae eb be 3d 6c 69 f2 3c 03 92 52 be e3 dd 9c 3d
       0.09322296 0.029591285 -0.20563512 0.07659509
000170 18 b9 27 3d ae 2b ca be 7a f8 30 3f 4d e0 24 bd
       0.040948004 -0.3948645 0.69129145 -0.040252972
000180 dc a0 24 3e 1c f2 f4 3e 20 d5 2c bf 80 7e 10 3f
       0.16076988 0.47840965 -0.675127 0.56443024
000190 72 e3 96 bd c4 38 39 be 8a 58 88 be 49 a3 27 3d
       -0.073676005 -0.1808806 -0.2663005 0.040927205
0001a0 dc 38 96 bd ab 3d 66 3d 8c 35 98 3e 2c 57 09 be
       -0.07335064 0.056211155 0.29728353 -0.1341216
0001b0 60 77 8f be 33 b6 25 3e cf fb 25 bd c6 c8 9b 3e
       -0.28020763 0.16182785 -0.040523347 0.30426615
0001c0 e9 f5 d7 be 6f 67 bf 3c 6f b0 cd 3d 3b 9d a9 be
       -0.42179802 0.02336475 0.10043418 -0.3312777
0001d0 f6 4f ae bd b4 2c 44 bf d4 f9 b2 bd 93 83 50 3e
       -0.08511345 -0.7663071 -0.08739057 0.20362692
0001e0 5c 05 d9 3d 01 f9 76 3e a3 fe 36 3f 08 92 cd 3e
       0.10596725 0.24118425 0.71482295 0.40150476
0001f0 22 a6 00 be 15 2d f3 bd 4a 88 c7 be ab ea e8 3e
       -0.12563375 -0.11873833 -0.38971168 0.45491537
000200 93 fe 03 3e 18 be 8e 3e fe 8b 22 bf 75 7d bf bd
       0.12890081 0.27879405 -0.6349486 -0.09350101
000210 53 d0 d8 be 10 1b be 3e 89 b5 d1 bd 88 31 3a be
       -0.4234644 0.37130022 -0.10239703 -0.18182957
000220 75 83 6f 3e 55 1f 19 be 4f fc 1e 3e 0f fb 85 bd
       0.2338999 -0.14953358 0.15525936 -0.06542026
000230 f7 1f 08 be 90 33 d9 bd a5 0e 18 3f 05 5e 4f be
       -0.13293444 -0.10605538 0.59397346 -0.2025071
000240 fb 5c c3 3d 4e 2a 49 bd bc af cc 3d 6e 00 c8 be
       0.09539219 -0.04911261 0.09994456 -0.39062828
000250 44 1a 36 3e 31 c5 ff bd ab 03 a0 3e 24 08 a2 be
       0.17783457 -0.12488783 0.31252798 -0.31646836
000260 8c 51 42 3f b2 ae c5 be e7 f1 9b be 45 79 36 bc
       0.7590568 -0.38609844 -0.30457994 -0.011137311
000270 ad 72 9e bc ab 03 c6 3e 8d a2 d7 be fd d2 62 3e
       -0.019341791 0.38674673 -0.42116204 0.22150798
000280 02 10 f4 be 27 a7 c1 3f 44 c1 c2 3e 9b 20 ba 3e
       -0.47668463 1.5129136 0.38038075 0.36353
000290 ad 84 1e 3d 17 53 60 bf 63 27 6b be 2b 99 21 3e
       0.03870075 -0.87626785 -0.22964244 0.15781085
0002a0 9d c8 81 be 97 e0 f5 3e b3 8e a6 be 24 80 1f 3a
       -0.25348368 0.4802291 -0.32530746 0.0006084463
0002b0 39 da 8f 3e 56 a4 c0 be ae 08 1d be 81 25 22 3f
       0.28096178 -0.37625378 -0.15335342 0.63338476
0002c0 b2 9e bb 3e e3 0f 49 3f 4c d4 a3 be 16 6f f5 be
       0.36644512 0.78539866 -0.31997907 -0.47936314
0002d0 8b ba 2d 3f 95 3b 44 bf a7 2f d6 3c 4b f5 fd 3e
       0.67862767 -0.76653415 0.02614577 0.49601206
0002e0 32 af 88 be 74 10 21 3f 03 ea e3 3d dd 56 92 be
       -0.26696163 0.6291573 0.111286186 -0.28581896
0002f0 7f 8f 53 bf 97 92 a2 3c c7 4f 29 3e d1 ce fc bc
       -0.8264083 0.01984529 0.16534339 -0.030860336
000300 6f da d0 be 2e 09 8c 3c 67 f7 0f bf 06 54 9b 3e
       -0.40791652 0.017094221 -0.5623688 0.30337542
000310 23 c3 dd be 71 09 52 3d e7 27 0c 3f d0 e7 0b bf
       -0.4331294 0.051278535 0.54748386 -0.5465059
000320 ab 35 a7 3d 38 20 64 3e 51 ce 0e 3d 86 41 9c bd
       0.08164533 0.22277915 0.034864727 -0.07629685
000330 b7 c1 25 3f 1b 69 87 3e c2 7f aa 3c 71 9a 8b bd
       0.6474871 0.26447377 0.020812873 -0.06816567
000340 8f 69 05 3f bb 44 10 3f 2e 8c 09 bf 1b 0c 03 3f
       0.52114195 0.56354874 -0.5372952 0.51190346
000350 35 e1 79 3e 73 cf 1a be 48 6c 2d 3f 62 23 84 be
       0.24402316 -0.15118198 0.6774335 -0.25808245
000360 f6 44 3f 3e 5e 97 f6 be c2 96 95 3e 8d af 08 3e
       0.1867865 -0.4816236 0.29216582 0.13348217
000370 96 6c ae be cc 71 26 3f e5 fb f8 3d b3 ed bc bd
       -0.3406722 0.6501739 0.1215742 -0.09225025
000380 7a c3 6c be 9e 29 63 3e d4 3d 0c be 39 a9 e5 bc
       -0.23121443 0.22183844 -0.1369546 -0.028034793
000390 09 d2 14 3e d2 54 1f bd fb f1 8c 3e ac 4f 8f 3e
       0.14533247 -0.03889925 0.27528366 0.27990472
0003a0 17 5b 02 be d5 22 99 bd e2 9a 00 3d 18 79 ce 3e
       -0.1273006 -0.07477347 0.031397708 0.40326762
0003b0 ea c6 ec be 81 9c 8a 3e b9 f2 5c 3e f8 52 0c be
       -0.4624551 0.27072528 0.21576966 -0.13703525
0003c0 8c bf c0 3e ad 20 2a 3e 65 6d be 3d 31 3e 27 bf
       0.3764614 0.16614027 0.09298209 -0.6532927
0003d0 33 3d 74 be 5f 05 0b bd 27 dc 0b be 7b c8 b9 be
       -0.2385147 -0.03394067 -0.136582 -0.36285767
0003e0 3f 40 dc 3c f0 04 ca be fa 9b 31 3f d8 7a fd bd
       0.026886104 -0.39456892 0.69378626 -0.12376946
0003f0 6c 77 68 3d 89 a4 32 be 1e 44 76 bf c1 17 3a 3f
       0.056754515 -0.17445578 -0.9619769 0.72692496

gate.0.bias f4 [64]
000000 4b 45 af 3d 71 b1 b1 be ad 7c 49 3e 36 d9 9b 3e
       0.085581385 -0.3470569 0.19676466 0.30439156
000010 67 c1 39 bf bb a6 97 3f cb 80 43 bf e0 4b cc bb
       -0.72560734 1.1847757 -0.763684 -0.006234631
000020 55 1c b3 bd dc ab 1d 3e 16 aa 18 bf 93 eb 1f 3f
       -0.08745638 0.1539759 -0.5963453 0.6246883
000030 b4 10 ce be ef a0 12 bf 8c 86 11 3e 3e 6e 26 3f
       -0.40247118 -0.57276815 0.14211482 0.65011966
000040 58 fe 63 3f 2b 3f 99 be 12 7c 41 3f e0 16 24 3f
       0.8905997 -0.29931006 0.7557994 0.64097404
000050 77 19 0e bf f5 f0 64 bf b6 b5 14 be e7 07 14 bf
       -0.55507606 -0.8943017 -0.14522442 -0.5782456
000060 63 50 04 3f 8e ab de be 8e 6f 65 3f 3e 02 c3 bd
       0.5168516 -0.4349026 0.89623344 -0.09521912
000070 39 b4 21 bf b8 c8 6b ba ea 9d ce be 0a 14 0d bf
       -0.6316562 -0.0008994448 -0.40354854 -0.551087
000080 8c 82 db be c6 f6 25 bf 90 1c d0 be 26 7c fc bd
       -0.42873037 -0.6482967 -0.4064679 -0.12328367
000090 d3 2e 9c 3f 30 3f 63 3f 0b 59 01 3f da 86 39 3e
       1.220179 0.8876829 0.50526494 0.18117848
0000a0 0b f7 17 bf bd 1a 36 3f 1d 43 1f 3f 7c fc 1d bf
       -0.5936133 0.7113455 0.6221178 -0.61713386
0000b0 d7 fd db bd f6 b6 04 bf 6e 30 96 bd d2 14 0f bf
       -0.107417755 -0.51841676 -0.07333456 -0.55891144
0000c0 01 ea fe 3e 45 9e 1f be 5a 0b 72 bf cf 65 77 3f
       0.49787906 -0.15587719 -0.9454857 0.9663972
0000d0 30 4f 53 3f b5 c5 01 3f 35 51 eb bd ee ea 51 bf
       0.82542706 0.506923 -0.114900984 -0.819991
0000e0 ec a4 1e 3f 94 d7 15 bf 7a d7 bd be 8a a8 09 bf
       0.619704 -0.5853207 -0.37078458 -0.53772795
0000f0 fa 39 24 3f c6 27 52 bd 1d 72 29 bf b9 2a 53 bd
       0.64150965 -0.051307462 -0.6618975 -0.051554415

gate.2.weight f4 [36, 64]
000000 c6 34 bd be 6a 64 26 3e 28 b0 01 bf 6e 04 b4 bd
       -0.36954325 0.16249242 -0.5065942 -0.087899074
000010 4f ab 9f 3e 66 80 45 be c5 92 7e be e7 f2 96 be
       0.31185386 -0.19287261 -0.24860676 -0.29482195
000020 55 04 dd bc 4d e3 aa 3e af 7d 90 3e 65 68 39 3e
       -0.026979605 0.33376542 0.2822089 0.1810623
000030 49 4f c3 3d 1b 65 8d be 18 64 1c bd 69 c1 98 be
       0.09536607 -0.276162 -0.038181394 -0.2983506
000040 94 55 c4 bd 30 2f 7c be 91 ad 1d be 99 99 d0 bd
       -0.09586635 -0.24627376 -0.15398242 -0.101855464
000050 b9 7a e3 3d ef c5 4f be 3e 46 10 be 93 3a f9 3c
       0.11107392 -0.2029035 -0.14089295 0.030423438
000060 ed ec 90 be f1 2d a9 be 19 29 9f 3e 5b d9 ee bd
       -0.2830576 -0.33042863 0.31086043 -0.11662551
000070 9c 1f 60 bc 78 a8 8c be 0a 05 14 3f ef 4e ae 3e
       -0.013679411 -0.2747228 0.5782019 0.34044597
000080 c7 69 c0 3c 2d e8 9d 3e a1 fa 2b 3e 6c 3d d5 be
       0.023487939 0.308412 0.16794826 -0.41648424
000090 e1 fc 12 3e 58 9a eb bd b7 6f 8a be 41 0b 08 3d
       0.14354278 -0.11504048 -0.27038357 0.033213858
0000a0 43 29 52 3d 96 4a 8c be de b6 a7 3d c4 97 6d bc
       0.05130888 -0.27400655 0.08189176 -0.014501516
0000b0 b6 9a e8 3d ba 4c 37 be f3 5a 50 be 8f fa b8 bd
       0.11357634 -0.17900363 -0.20347194 -0.09032165
0000c0 0b f6 19 bd bd b9 36 3d 33 62 58 3e ab 3d 23 be
       -0.03758816 0.044610728 0.2113121 -0.15941493
0000d0 da d7 01 bc 92 8e ac be 82 1b cd bd cc a9 f6 3e
       -0.007924998 -0.33702523 -0.10015012 0.4817642
0000e0 14 48 45 3d d1 96 1e 3e 17 3e 4d be 43 3e ae bd
       0.048164442 0.1548722 -0.20043217 -0.08507969
0000f0 3d f6 27 3e 82 e4 0a 3e 70 36 30 be 1f c3 a4 be
       0.16402526 0.13563731 -0.17208266 -0.32180116
000100 61 8c 16 3f 23 e2 00 be 9f b3 16 be 41 38 d2 bd
       0.5880795 -0.12586264 -0.14716958 -0.10264636
000110 13 d5 9e 3e dc 85 9b be db eb 47 be 9c fd 93 3b
       0.31021938 -0.30375564 -0.19523565 0.0045163166
000120 49 13 07 be db 1b 9b bd 28 ec de be cb d6 a7 be
       -0.1319095 -0.075736724 -0.43539548 -0.32781062
000130 dd 5d f3 3d e0 d2 85 bd 70 2d 72 be f2 9b 77 be
       0.118831374 -0.06534362 -0.23650146 -0.24180582
000140 4d b4 7f 3e c3 b2 bd bd 5d 8e c0 bd 92 e7 3f be
       0.24971123 -0.09262612 -0.09402154 -0.18740681
000150 fa f6 0d 3e de 36 63 be 69 83 41 be 5d e0 a1 bc
       0.13863745 -0.22188899 -0.18897785 -0.019760305
000160 0d b7 ca bd df 6d b3 3c a5 10 33 be 48 9f d0 be
       -0.098981954 0.021902977 -0.17486818 -0.40746522
000170 94 37 6e 3d 0d 3b d0 3e f8 c7 7a bf 7c 68 52 3e
       0.058158472 0.40670052 -0.9796138 0.2054767
000180 8a 45 20 bc 38 7d a7 be b1 58 21 be fb df 19 bc
       -0.009782204 -0.32712722 -0.1575649 -0.00939178
000190 99 18 10 bd 68 b6 27 bd 45 9c 7d 3e bd 25 f5 3d
       -0.03517971 -0.04094544 0.24766643 0.11970089
0001a0 42 57 cb be f7 c4 9c be f7 70 48 3e de 61 c1 3e
       -0.3971501 -0.30619022 0.19574343 0.3776998
0001b0 58 b7 e6 bd e8 a2 95 be c2 35 8e 3b 85 41 a3 bd
       -0.11265439 -0.2922585 0.0043399045 -0.07971481
0001c0 f9 54 fe 3d d2 16 c4 3d 42 7c 3d bd d5 1d 51 be
       0.12418551 0.09574665 -0.04626108 -0.20421536
0001d0 15 43 85 be 1c fb 6e be d6 9a 12 3e 08 07 2c bf
       -0.26027742 -0.23337978 0.14316878 -0.6719823
0001e0 ae a1 4a 3e 73 46 6f bd 98 c8 67 bd a8 bc b0 bc
       0.19788238 -0.058416795 -0.056587785 -0.021574333
0001f0 05 01 db bc c3 d6 c7 3c 1a a3 a5 be e5 de d1 3d
       -0.026733885 0.024394399 -0.32351 0.10247592
000200 dc d1 b1 be 67 3e 31 3e 4f fb a8 3d 08 6f 6d bd
       -0.34730422 0.17308961 0.08251058 -0.057967216
000210 d6 bb 9b bc b0 0c 05 3d 8f 28 0b 3f 70 c9 bb bd
       -0.019010466 0.032482803 0.5435876 -0.091692805
000220 1d 0d 28 3d f7 84 9b bb ab e7 90 be 97 db 2a be
       0.04102813 -0.0047460753 -0.2830175 -0.1668533
000230 92 d8 d4 be ca 0e ec bd 24 fb 85 3e ea a2 50 3c
       -0.4157148 -0.11526258 0.26168168 0.012734154
000240 a4 5a 8d be ba df 89 3d be c6 b8 be 4e 06 3f 3e
       -0.27608216 0.067321256 -0.36089128 0.18654749
000250 da dd 90 be 24 a0 8a 3d 4e aa 39 3d 4c d8 a5 3d
       -0.2829426 0.06768826 0.04532843 0.08097896
000260 15 01 a6 bd a2 cb ce 3e 2a cd ca bd 98 24 c3 3e
       -0.08105675 0.40389735 -0.09902413 0.38113856
000270 ab 50 12 bd 57 77 77 be 97 c0 1f 3f 10 b4 f6 bc
       -0.035721462 -0.24166618 0.62403244 -0.030115157
000280 66 12 ec 3e a5 c7 09 3e eb c0 ec 3e b1 08 e8 bd
       0.46107787 0.13455065 0.46240935 -0.11329783
000290 a3 3c a5 bd 95 ac 1a be 10 55 83 bd 62 29 1a be
       -0.08068206 -0.15104897 -0.06412709 -0.15054849
0002a0 de 3f cc 3e 58 59 0c be a7 6b 80 bc b5 e9 8f bd
       0.39892477 -0.13705957 -0.015676333 -0.07026998
0002b0 5d 6a bf be 09 c7 fe 3e 30 ce 83 be a4 03 b2 3e
       -0.37385836 0.49761227 -0.25743246 0.34768403
0002c0 cd 88 8b be 89 b9 7b bf e8 69 ef be 57 0d 2c 3d
       -0.27252808 -0.9832998 -0.46760488 0.04200491
0002d0 29 de 0c 3e 05 bd f9 3d f6 fb 07 be a8 e7 23 3e
       0.13756622 0.12194256 -0.13279709 0.16006339
0002e0 37 92 b8 be 5b 58 57 bd 12 21 0e 3e 6f a8 80 3e
       -0.36049053 -0.052574497 0.13879803 0.25128505
0002f0 12 98 dc bd ed 0b 9a be f0 15 0d 3f 28 e1 16 be
       -0.107711926 -0.30087224 0.551116 -0.14734328
000300 e6 1a b6 be 42 26 1d 3e f7 1c b7 be e4 85 6d be
       -0.35567397 0.15346625 -0.35764286 -0.23195606
000310 69 8a cd 3e dc 64 8e be 31 28 fd 3c 81 98 80 be
       0.4014466 -0.27811325 0.030902954 -0.2511635
000320 70 ac 7b be 4e e3 fd 3d c6 66 4a 3e 9c 90 c1 bc
       -0.24577498 0.123968706 0.19765767 -0.023628525
000330 45 f9 c5 3e c5 fe 60 bb ab 3d db 3d f3 b6 47 be
       0.3866674 -0.0034331542 0.107051216 -0.19503383
000340 cb 07 04 3c 5e bc 74 bc 9b bb 5e be ae 11 4a be
       0.008058499 -0.014937488 -0.21751253 -0.19733307
000350 fb 78 8c 3e ea f5 3f be ae 33 b0 b8 c4 23 49 3d
       0.2743605 -0.18746153 -8.40196e-05 0.049106374
000360 33 55 5f be ad a8 db be 15 c6 fb bb 88 08 4f be
       -0.21809845 -0.42902127 -0.0076835253 -0.20218098
000370 4c 7e 81 3e 7e 4f 34 be b9 f7 21 3f 9b 61 a2 3e
       0.2529167 -0.17608449 0.6326862 0.31715092
000380 11 34 17 3e f4 3f 34 3e 31 5e 2c 3e 96 e1 fd bd
       0.14765956 0.17602521 0.16832806 -0.12396543
000390 ca 24 2a bd 00 c4 a3 be 34 e0 09 be c9 b3 51 bd
       -0.04153899 -0.31985474 -0.13464433 -0.051196847
0003a0 94 1d 56 bb 13 a1 b7 be b2 fa 31 3c 54 bb 92 3e
       -0.0032671439 -0.35865077 0.010862993 0.28658545
0003b0 6f 1c 23 bd 85 bb f4 be ce 82 8d bc b4 7f 80 bd
       -0.03982204 -0.47799316 -0.017274287 -0.062743574
0003c0 3e 9d 98 be ad 2f b7 bd 3e e0 52 3e 30 70 05 bd
       -0.29807466 -0.0894464 0.20593354 -0.032577693
0003d0 c2 0a 05 bc 35 6b fd bd 05 f2 11 3c ce e4 21 3f
       -0.008120241 -0.12373964 0.0089078 0.63239753
0003e0 45 2b ed bd bd 3e 39 3e 94 61 e9 3d c7 0a df bc
       -0.11580519 0.18090339 0.11395565 -0.027226819
0003f0 38 ec 28 3e a5 40 03 3d c4 e5 5f bd 4b ac a6 bb
       0.1649636 0.03204407 -0.05466248 -0.005086457

gate.2.bias f4 [36]
000000 1a a5 60 bd 2f 94 88 bd b8 d7 16 be f7 cc 42 be
       -0.054844953 -0.06668889 -0.14730728 -0.190235
000010 b9 4b 3c bd 4e e7 ab be 14 2f d5 be cc 1c 0a bf
       -0.045970652 -0.3357491 -0.4163748 -0.5395019
000020 e7 db c0 be f7 e5 9e be 0b c7 a6 bc d1 5a 41 be
       -0.37667772 -0.31034824 -0.020358583 -0.188823
000030 52 e0 60 3c 5f 52 40 be 49 d3 a1 bd 5b 7a 94 be
       0.013725357 -0.18781422 -0.079016276 -0.289996
000040 42 e5 bb 3b ba 5a 96 be 45 24 0c be 10 37 4e bd
       0.005734117 -0.29366094 -0.1368571 -0.05034548
000050 b2 c4 f3 be 0b 16 18 be f8 94 f2 bd 5d 22 43 be
       -0.47611004 -0.14852159 -0.1184482 -0.19056077
000060 77 4b a6 be a8 c2 66 be 9a 52 e8 be 50 da 24 bd
       -0.3247945 -0.22535193 -0.4537552 -0.04024726
000070 79 39 8a be 65 ba 80 be 70 d6 ed be 78 bb cb be
       -0.26996973 -0.25142208 -0.46452665 -0.39791465
000080 5e 9f bc bd d3 8c 11 bf a2 10 6e be ce 00 a6 be
       -0.092100844 -0.56855506 -0.23248532 -0.3242249

Wc.weight f4 [3, 6]
000000 51 6d ab 3c 35 32 df bb 83 56 54 bc 34 d9 a5 bc
       0.02092615 -0.006811405 -0.012960079 -0.020245172
000010 b7 17 8b 3c 7d f4 5e 3b 1b 2d 03 3d 2e 2c e1 3a
       0.016979082 0.0034020238 0.032025438 0.0017179304
000020 80 85 57 ba 69 1c b3 bc f6 e0 2f 3c 73 a1 f9 3b
       -0.0008221492 -0.021864133 0.010734787 0.007618123
000030 de 06 ad 3b 19 76 ed bb e7 b2 9d bc 8a 9c 81 bc
       0.0052803596 -0.0072467444 -0.019250346 -0.015821714
000040 eb 1a 90 3c 90 0d 83 3b
       0.01759096 0.0039994195
