checkpoints/NeuralGVAR/RET_h4_h4_tr2022-01-01_te2025-01-01_seed4_lam1.0e-03.pt (torch, 16307 bytes, 7 tensors)

S f4 [4, 3, 3]
000000 63 1b 96 bd f3 5e 20 3e c9 fc 06 be 1a 3d 2d be
       -0.07329442 0.1566122 -0.13182367 -0.1691784
000010 74 13 0d 3e 51 17 13 3e 3f d8 df bd 48 8d be 3e
       0.13776952 0.14364363 -0.109299175 0.37217164
000020 38 28 99 bd e6 91 03 be ad 9c a5 bd a8 37 20 3e
       -0.07478374 -0.12848625 -0.08086524 0.15646231
000030 8c 0a 24 be 62 b9 c8 bd af cb de 3d d4 2d a5 bd
       -0.16019648 -0.09800984 0.10878693 -0.08065382
000040 00 52 10 3e be 03 24 be 44 d4 c3 ba b2 d0 fa 3d
       0.1409378 -0.16017053 -0.001494058 0.12246837
000050 73 d4 74 3d 65 b7 68 3d 8c 0e a2 3d 25 a3 d7 bd
       0.05977292 0.056815524 0.07912931 -0.10529164
000060 fe de d9 3d 96 bb 51 3e 8b ee 3d be 46 73 6a be
       0.106382355 0.20481715 -0.18548028 -0.22895536
000070 b6 d3 08 be 69 4b 5f 3d 8c a4 91 be 5a ed f4 3d
       -0.13362011 0.054515276 -0.28445852 0.11959334
000080 17 d4 da 3d 2b 40 9f be 6a fc 80 be 78 9e 11 3e
       0.10684984 -0.31103644 -0.25192577 0.14220607

bias f4 [3]
000000 d2 19 41 3c e2 20 c7 3b 8d 5f 71 3c
       0.011785941 0.006076918 0.014732254

gate.0.weight f4 [64, 6]
000000 75 a3 82 3d 41 3d 5c bf d0 83 2f bf a1 8b 5f bd
       0.06378833 -0.86030966 -0.68560505 -0.05457652
000010 4c 6b ed 3e e3 b7 29 3f f6 e4 4d 3e f0 f7 3f 3e
       0.46370924 0.66296214 0.20106873 0.18746924
000020 ab 97 20 bf e3 cc 94 3e 58 dd 76 bf da 86 9c bd
       -0.62731427 0.29062566 -0.96431494 -0.076429084
000030 3a b1 0a 3e 77 1f 14 3e 5b 5b 8c be c6 1d b7 be
       0.13544169 0.14465128 -0.2741345 -0.35764903
000040 22 d4 98 3e bc d6 bd 3d 62 1a 3d 3e 1c ee 37 bf
       0.29849344 0.09269473 0.18467095 -0.718477
000050 d4 1e aa be e0 0f 15 bf 8f 77 99 be f6 b3 7f 3e
       -0.33226645 -0.5822735 -0.29974028 0.24970993
000060 d6 10 2e 3e 0a 4e b4 3e b4 63 9e be 89 20 8e bf
       0.1699861 0.3521579 -0.30935442 -1.1103679
000070 73 52 b6 bd 7b f6 80 3f ed 25 c8 3e 0f de 44 be
       -0.08902445 1.007522 0.39091435 -0.19225334
000080 45 cf 84 be 86 77 29 be 3d 29 e1 3e f9 dd 2b 3f
       -0.25939384 -0.16549501 0.43976775 0.6713558
000090 d1 62 ab be d3 1a a3 bd c2 29 6e 3e 31 63 88 3e
       -0.33473828 -0.07964101 0.23258117 0.26638177
0000a0 d2 1c e6 3e ce 83 37 3f c9 05 b7 3e e4 55 93 3c
       0.44943863 0.71685493 0.357466 0.017985292
0000b0 eb 48 08 3d f2 2b 52 3e 35 0b 5f 3f d3 ec c5 be
       0.033272665 0.20524576 0.87126476 -0.38657245
0000c0 af 21 6b 3e 05 39 2e 3d 99 d3 d2 3e a9 1b c5 3c
       0.22962068 0.042534847 0.4117706 0.024061041
0000d0 67 9a fe be b0 1e d5 3d cd b0 f0 be 41 0a 3d bd
       -0.49727175 0.10406244 -0.47009888 -0.046152357
0000e0 82 90 a8 be 04 dc 9c be 4f 4d 1c 3f cc 7e f1 3d
       -0.3292275 -0.3063661 0.61055464 0.11791763
0000f0 e4 45 8e be a8 c7 bf 3d 18 65 9a be cc d6 0f 3f
       -0.27787697 0.09364253 -0.30155253 0.5618713
000100 a2 98 9f be 5b a0 48 be 2e 8f a3 3e ab 14 75 be
       -0.31171137 -0.19592421 0.31945175 -0.23933665
000110 9c fa e7 3d 9a 67 9f be 61 d5 8a 3d f7 2a 0c 3e
       0.11327097 -0.3113373 0.0677898 0.13688265
000120 85 a6 14 3f cd 8c e8 be c6 ee 90 be 3e 5d d4 3e
       0.5806659 -0.45419922 -0.2830717 0.41477388
000130 3d 5a 5e 3e 51 64 bc 3f 00 64 4a be 44 29 07 3f
       0.2171411 1.4718114 -0.1976471 0.5279734
000140 3f 11 8c 3b fc 2a 77 be 6f 5b 0a 3f cf 27 d1 bd
       0.004274517 -0.24137491 0.54045767 -0.10212671
000150 c9 da 75 3f 3c 75 b9 bd 58 74 2c 3f 1c 8f 4c be
       0.96036965 -0.09055564 0.67365026 -0.19976467
000160 92 62 8a 3e 6a 8d 12 3f 18 74 8d be de 08 92 3e
       0.27028328 0.5724703 -0.27627635 0.2852239
000170 31 b7 c8 3e b4 ec 9b 3e d7 93 ef bd 09 31 2f be
       0.39202264 0.30454028 -0.1169812 -0.17108549
000180 c5 6c 3c 3e d2 39 5e 3c c3 b1 1b bf 24 e9 c7 3e
       0.18400867 0.01356359 -0.6081812 0.3904506
000190 ac 1f 68 bf b8 e5 cc bd ff 5d c0 3c 2f c4 25 3e
       -0.9067333 -0.10004753 0.02348232 0.1618812
0001a0 d4 be ae bf 82 db 5b 3f b0 e8 83 3e 25 4e 43 bc
       -1.3651986 0.8588182 0.25763464 -0.011920487
0001b0 55 27 ad 3d d8 87 03 bd 8e 77 89 be b1 56 bd 3e
       0.084547676 -0.032111973 -0.26849025 0.36980203
0001c0 0f 64 1a be e2 13 a4 bd fd 93 a3 3e a1 02 3a 3f
       -0.15077232 -0.08011605 0.31948844 0.7266026
0001d0 91 1b ad be 31 18 23 bf 36 22 55 3f 7a cf e4 3e
       -0.33810094 -0.6370879 0.83255327 0.44689542
0001e0 4a b5 26 3f 69 25 29 bc 8a 44 62 3c 80 58 5f 3e
       0.65120375 -0.010323861 0.013810286 0.21811104
0001f0 a7 4b da 3e a9 9f 4b be f0 60 76 3b 09 b3 97 3e
       0.42635843 -0.19885124 0.00375944 0.2962878
000200 39 2b 97 3e a0 ba a1 3d 09 e6 ef be 02 c1 01 be
       0.29525164 0.07896924 -0.4685519 -0.12671283
000210 04 1a ce 3c 43 34 54 3d 97 cb 03 3e 25 cd 0d 3e
       0.02515889 0.051807653 0.12870632 0.13847788
000220 0e f2 b2 3e 03 a3 cb bd cc 2f f8 3d 84 4f b5 bd
       0.34950298 -0.099432014 0.121184915 -0.08853057
000230 81 1e f3 3e 7f 7c 0d bf fc 7c 95 bd 50 d2 a0 3e
       0.4748421 -0.5526809 -0.072992295 0.31410456
000240 cc df 65 bd b1 c8 01 3e a2 b0 f8 3d 36 c2 ca be
       -0.056121632 0.12674214 0.12143065 -0.39601296
000250 56 cf f7 3e c8 5a 90 be bf 5b ac 3d 78 04 5c 3e
       0.48400372 -0.2819426 0.08415937 0.2148608
000260 f1 0c 85 be 52 de f8 3d b0 ab df be 4b e9 8e 3d
       -0.25986436 0.12151779 -0.43685675 0.06978091
000270 77 27 ea 3d 41 76 e3 3d 25 b5 5a 3d 5d 06 1d 3d
       0.114333086 0.111065395 0.05339541 0.038336147
000280 04 17 27 bf ea e6 a9 3f 18 b3 83 3e 0e 1f 95 3e
       -0.65269494 1.3273594 0.25722575 0.29125255
000290 d6 5d 29 3f 4e a4 ef be b9 e5 d5 bc 8a 16 5f 3f
       0.6615881 -0.46805042 -0.026110517 0.87143767
0002a0 c8 2c 66 3f ce 3c c4 be b8 0e 2d bf b8 43 9c be
       0.8991208 -0.3832764 -0.67600584 -0.30520415
0002b0 03 b4 b6 3e 60 31 2d be f5 86 cf 3d 51 e0 02 be
       0.35684213 -0.16913366 0.10133163 -0.12780882
0002c0 cc a2 48 bf c6 72 22 3f a5 f7 3d 3d c4 71 44 be
       -0.7837341 0.6345638 0.04637875 -0.19184023
0002d0 1e f0 0c 3e 89 d5 cb 3e 98 15 8a 3e ba 8e 37 3e
       0.13763472 0.39811352 0.269696 0.1792554
0002e0 fd 67 1d 3e ee 5d c1 be 97 2d 5a be 5d 2a f0 3e
       0.153717 -0.37766975 -0.21306454 0.4690732
0002f0 4a 11 f8 be bc b3 46 3f 70 2b 1f bf 10 16 0e 3f
       -0.4845069 0.77618 -0.62175655 0.55502415
000300 56 29 b6 3d 4a 16 08 3f a6 dc a4 be 39 4e 0d 3f
       0.08894603 0.5315901 -0.3219959 0.55197483
000310 82 5c 0f bf fb b8 16 3e 10 93 fa bd 93 fd 28 3e
       -0.5600053 0.14719002 -0.12235081 0.16502981
000320 83 8f 07 bf 86 50 bc 3e 44 c3 0d bf ef c1 92 be
       -0.52953357 0.36780185 -0.55376077 -0.28663585
000330 3a da ec 3d d4 03 17 bc 6e e5 89 be b7 f3 47 be
       0.11565061 -0.009217221 -0.26932853 -0.19526564
000340 ab dd 83 3f e7 5e 35 be 8b 1c 07 3e 04 97 16 3f
       1.0302023 -0.17711984 0.13194482 0.5882418
000350 2d 62 2e 3f 54 58 36 be 3c 42 de 3e fe 79 2a be
       0.68118554 -0.17807132 0.43409908 -0.16648099
000360 37 e2 03 bf 98 61 f8 3e e6 c0 8b 3d 75 00 19 be
       -0.5151705 0.48511958 0.06823902 -0.1494158
000370 2a ff 94 3e df f8 0a 3f 9f 83 8c 3e fe 03 12 bc
       0.29100925 0.54286 0.2744417 -0.008912085
000380 90 f8 8f 3e 64 4c f9 3c bb f4 d7 3e d5 b5 45 3f
       0.28119326 0.030431934 0.42178902 0.7723058
000390 b0 c5 78 be 5c ef be 3e 21 cf e2 be dd 36 b5 3e
       -0.24294162 0.37291992 -0.44298652 0.3539342
0003a0 5b b3 13 bd 66 7c a9 be 3f ee 3b bf 0d 96 e0 bd
       -0.03605972 -0.3310272 -0.7341041 -0.1096612
0003b0 0a 40 01 3e 2b fb ef 3e 80 48 0b bf 67 07 8b 3e
       0.12622085 0.46871313 -0.544075 0.27154085
0003c0 b9 85 4d 3e e3 42 40 be ed 81 c6 3e 1d c0 97 3e
       0.20070542 -0.18775515 0.38771 0.29638758
0003d0 a9 ae e4 be fe 12 5d 3f 53 b2 47 bd 87 31 31 bf
       -0.44664505 0.86357105 -0.048754048 -0.692162
0003e0 f6 75 d7 3d 0c c2 24 3f 39 b2 9d 3d d4 a0 9b 3f
       0.10520546 0.6435859 0.07700009 1.2158456
0003f0 92 ce c1 bd 23 23 57 3e 3c dd 98 be cd 35 14 3f
       -0.09463228 0.21009497 -0.29856288 0.57894593

gate.0.bias f4 [64]
000000 30 0c 1e bf 3e e9 c7 bd f6 e8 3a 3f 59 9b 5b 3f
       -0.61737347 -0.09761284 0.7301172 0.85783917
000010 3a 78 06 3f 5e 1a 42 3f fa 3c 49 be f2 41 2f bf
       0.525272 0.75821483 -0.19652167 -0.6846
000020 62 79 3c 3f 01 38 11 3f 6f e6 94 3c 24 66 28 3f
       0.73622715 0.5672608 0.018176286 0.65780854
000030 0f 12 e1 bd e8 cc 2e be 30 cc ab 3d 4f e7 e9 3e
       -0.109897725 -0.17070353 0.08388555 0.45684287
000040 e5 4c 05 bd 95 32 5e 3f e0 0a 5e 3e a9 55 45 bd
       -0.032544035 0.8679593 0.21683836 -0.048177395
000050 91 d4 11 bf eb 03 26 be 91 b4 fa 3e 5c b5 0a 3f
       -0.56964976 -0.16212432 0.48965886 0.5418298
000060 46 29 90 3e af f4 01 3f 1e cc 16 3f 5f 31 9e 3d
       0.2815649 0.5076398 0.5890521 0.077242605
000070 d0 ce 0a bf ad 03 07 3f 7d e3 24 3c fc 68 a8 3e
       -0.5422182 0.52739984 0.010064003 0.32892597
000080 29 46 bc be b9 87 3f 3d 4a 01 30 3f 07 36 1f bf
       -0.36772278 0.046760295 0.68751967 -0.62191814
000090 d3 34 0f 3f c0 97 34 bf 3f a5 7d bd ee 9d b0 be
       0.5593998 -0.7054405 -0.06192517 -0.3449549
0000a0 ff e7 c5 3f 1c 89 32 be aa 31 25 3c 3d dd 36 3f
       1.5461425 -0.17435116 0.010082642 0.7143133
0000b0 a7 3f dd be 3c 7f 20 be 7a ad 0b bf d0 6f 16 bf
       -0.43212625 -0.15673536 -0.5456158 -0.5876436
0000c0 46 2c d7 3e 0c 85 fb bc e8 14 49 bf 4b b3 87 be
       0.42025965 -0.03070309 -0.78547525 -0.26503977
0000d0 f5 61 04 bf 0d 75 a0 3e 83 a7 ab be 61 f9 47 3f
       -0.5171197 0.31339303 -0.3352624 0.78114897
0000e0 ec 59 42 be 5a ee cb bd 20 cf 8e be fb f4 0b bf
       -0.18979615 -0.09957571 -0.278924 -0.54670686
0000f0 e9 83 dc be 0e b4 a4 be bd 78 1e bf a2 07 0c bf
       -0.4306939 -0.3216862 -0.6190298 -0.54699147

gate.2.weight f4 [36, 64]
000000 22 3c 46 3e 5f ca cb 3d 03 ce 75 be 26 f9 95 3d
       0.19358876 0.099507086 -0.24004368 0.07322912
000010 c8 a3 0e 3d 06 21 45 3d 4a d4 95 3d 30 7d 17 3e
       0.034824163 0.048127197 0.073158816 0.14793849
000020 d6 3d 18 be 6f c1 de 3c df 1b 22 be 07 a1 7f be
       -0.14867339 0.027191846 -0.15830944 -0.24963771
000030 f0 f6 d4 3e 97 cc 0c bf 90 e2 84 3e 30 61 20 be
       0.41594648 -0.5499968 0.25954103 -0.15662074
000040 08 08 17 3e 6f 08 15 bd d3 1b 5e be 38 ae aa be
       0.14749157 -0.036384996 -0.21690302 -0.33336043
000050 80 d2 37 3e 6c 10 79 be d8 14 c6 be e8 88 12 be
       0.17951393 -0.2432267 -0.38687778 -0.14310038
000060 d4 a5 da be 9e 40 91 bd 71 9b f4 3d 52 a9 3b bd
       -0.42704642 -0.07092403 0.119437106 -0.045815773
000070 2d fd 06 3e 24 6d bb bd 0d 56 21 bf 8c 0c 25 3e
       0.13182516 -0.09151676 -0.6302193 0.16118068
000080 d3 53 ec 3c 54 79 26 bc 88 ed 6f 3e 19 3d 82 be
       0.028848564 -0.010160763 0.23430455 -0.2543724
000090 29 75 72 3e 0a f1 13 3d 7d f9 40 3e 85 e9 a5 3e
       0.23677506 0.036118545 0.18845172 0.32404724
0000a0 3a 70 ac bc fe 32 f7 3e d9 95 11 be 4e bb 09 bd
       -0.021049608 0.4828109 -0.14217319 -0.033625893
0000b0 f3 7a 91 3d 02 ab 9e 3d 1f e9 c3 3d 52 64 35 bc
       0.07103529 0.07747461 0.09565949 -0.0110712815
0000c0 01 eb 0f be c9 e6 20 bd 5d 3f 53 3e d6 55 32 be
       -0.1405449 -0.039282594 0.2062964 -0.17415556
0000d0 5d 49 1d 3e ed f0 1c be 3a 02 81 3e 5b 59 6f bd
       0.15360017 -0.15326281 0.2519701 -0.058434825
0000e0 13 f9 0b bf 34 dd f1 3e a9 48 52 be a3 b1 20 3e
       -0.5467693 0.47239077 -0.2053553 0.15692763
0000f0 5c c8 3b be ee 3f 40 bc 35 39 6e be 58 a7 de be
       -0.1833815 -0.011733992 -0.2326401 -0.43487048
000100 75 8f 86 be 19 72 56 3e c3 09 06 be 13 66 90 be
       -0.26281324 0.20941962 -0.13089661 -0.28202876
000110 76 0f d0 be 18 20 14 be 2e c2 a9 3c d6 31 e0 bd
       -0.40636796 -0.14465368 0.020722475 -0.109470055
000120 3f d4 38 3d 41 bf bc 3d e3 48 03 3f 5f c0 97 be
       0.04512429 0.09216166 0.5128309 -0.29638955
000130 8a 47 0e bf 32 59 07 3e 12 4a 17 be a3 46 ac 3e
       -0.5557791 0.13217619 -0.1477435 0.33647642
000140 8c 67 18 3e 53 8f 37 3e eb fd 28 3e 76 89 36 3e
       0.1488325 0.17925768 0.16503112 0.17825875
000150 40 77 e2 be 39 2a a2 bb 63 fd 02 3e ce 25 b4 be
       -0.44231606 -0.004948881 0.12791972 -0.35185093
000160 0d bb ec 3d 15 dc 98 3d 9f 65 70 be 27 2d 1d 3e
       0.115591146 0.07463852 -0.23476265 0.15349256
000170 09 c5 3e 3e 71 51 42 3e 08 d2 b5 3e 08 5d 46 3e
       0.1862985 0.1897638 0.35511804 0.19371426
000180 6e 7f 25 bd b8 38 b5 3e b7 1b 24 be 00 bc a5 3e
       -0.04040473 0.35394835 -0.16026197 0.32369995
000190 c4 4c 37 bc 9c 48 ca bd b0 23 f5 3e 7d d4 eb bd
       -0.011187736 -0.098771304 0.4787879 -0.11515138
0001a0 34 00 1f be 26 d3 01 be bb 61 08 3f 81 23 00 3d
       -0.15527421 -0.12678203 0.53274125 0.03128386
0001b0 2e 3d 56 3e ea 89 80 3e a2 b0 85 bd 5e 08 90 be
       0.20921776 0.2510522 -0.06527831 -0.28131384
0001c0 cc f1 82 be 37 db b4 3e 86 33 5a 3d d3 5a b3 bd
       -0.255751 0.35323498 0.053271793 -0.08757558
0001d0 0e ad fb 3d 79 58 6f bd 3e ff 91 3d bd a9 5f be
       0.12288867 -0.058433983 0.07128762 -0.21842094
0001e0 46 1b 96 3e 44 f5 bb be ac e9 87 3e dd 39 f7 3c
       0.29317683 -0.3671056 0.26545465 0.030178959
0001f0 74 ba b0 be a2 c7 8c 3e 03 8b 8f 3e 8b f9 9c 3d
       -0.34517252 0.27496058 0.28035745 0.07664784
000200 e6 4f af 3e b5 78 64 bd 98 eb 0a bd b4 d6 9b 3d
       0.34240645 -0.055779178 -0.033916086 0.07609311
000210 e4 0a 7d 3d bd 70 81 bd 8c 2b 95 3d b1 97 6a 3e
       0.061777964 -0.06320331 0.072836965 0.22909428
000220 a7 95 8a be 4b 19 8a be 21 84 1e bf 66 80 bf 3d
       -0.270673 -0.26972422 -0.6192036 0.09350662
000230 ad 05 58 3e f9 e8 af 3a 7c d8 33 bd 7a ac cc be
       0.21095915 0.0013420872 -0.043907627 -0.3997534
000240 70 8e b0 be 3f 4a 86 be 08 cf 86 be c2 34 c2 be
       -0.3448367 -0.2622852 -0.26329827 -0.37930876
000250 ea 2b c4 3e 00 14 4a bd c0 dc 69 be 35 f3 f8 3c
       0.38314754 -0.04933548 -0.22838116 0.030389408
000260 eb 26 ca bd 6e 7a 93 be a9 48 3c bb 71 74 a8 be
       -0.09870704 -0.28804344 -0.0028729832 -0.32901338
000270 e4 89 86 3e c1 d3 a9 be 7f b9 bf bd 64 97 d8 be
       0.26277077 -0.33169368 -0.093615524 -0.42303002
000280 21 1e 84 3e 62 fa 17 be 0e 11 94 bd 15 42 9d 3e
       0.25804237 -0.14841607 -0.072298154 0.3071448
000290 b4 b5 5f be 17 67 42 3e 49 da 6a be 71 63 86 bb
       -0.21846658 0.18984638 -0.22934832 -0.00410121
0002a0 3d 22 45 be bc 89 43 3e a0 da e6 be d3 fb d4 bd
       -0.19251342 0.1909551 -0.45088673 -0.10399594
0002b0 02 df 3d bd 89 48 ac 3c 2f ad 49 3e 87 0c 1c 3f
       -0.046355255 0.021030681 0.1969497 0.60956615
0002c0 12 da a0 3e 28 75 a5 3d d3 d6 53 3e 42 74 a1 bc
       0.31416374 0.080789864 0.20687418 -0.019708756
0002d0 11 81 19 be 05 50 4f be c5 1a f5 3d d8 94 0d 3e
       -0.14990641 -0.20245369 0.119679965 0.1382631
0002e0 02 96 4b bc b9 bc 01 3e 1c f6 c8 3c bd a6 58 3e
       -0.012425901 0.12669648 0.024531417 0.21157356
0002f0 e1 12 19 3e 17 c6 12 3e 1c a6 41 3e f4 dc f2 3d
       0.14948608 0.14333378 0.18911022 0.1185855
000300 bf 87 47 3e 41 c9 4b bb 90 e9 1c be 13 0b bd bd
       0.19485377 -0.0031095298 -0.15323472 -0.09230628
000310 e5 1b 63 3e 91 7f 52 bd 28 a0 94 3d 5a 0f 0a 3e
       0.2217861 -0.051391188 0.0725711 0.13482419
000320 ec e8 8f be 3c a0 58 be d9 29 6d be 86 8d 2c be
       -0.28107393 -0.21154875 -0.23160495 -0.16850862
000330 8d db ae 3e cb 46 3e 3e 01 be 19 3d 2b 1b 28 be
       0.3415188 0.18581693 0.037534717 -0.16416614
000340 b0 e3 73 3b 7a 28 ab be 7c 92 47 be 40 89 f5 bd
       0.003721457 -0.3342932 -0.19489473 -0.11989069
000350 08 b9 72 3e 43 84 1b be 58 6e 5e be 7a 2e f8 bd
       0.23703396 -0.15187173 -0.2172178 -0.1211824
000360 6a 7a f5 bd 42 b9 b7 bd ea a7 d1 3d 35 a0 3f be
       -0.11986239 -0.08970882 0.10237105 -0.18713458
000370 71 31 82 3f 23 e9 8f be 5e 71 0a be da 6a a0 3e
       1.0171338 -0.28107557 -0.13519809 0.3133152
000380 51 65 63 3e 89 b3 2e 3e 94 c7 11 bd 1a a2 2e be
       0.22206618 0.17060675 -0.035590723 -0.17054024
000390 46 d5 72 3d 9c 3c 82 bd 09 69 cb 3e 2f 09 28 3f
       0.059285425 -0.063592166 0.39728573 0.65639013
0003a0 89 6b 4b be b3 f5 35 3e 80 d3 8f be 90 63 42 be
       -0.1986524 0.17769508 -0.2809105 -0.18983293
0003b0 10 a1 8a 3e 25 d3 59 bd 5c 5b 2d 3d fd f3 19 3d
       0.27076006 -0.05317988 0.042323455 0.0375862
0003c0 37 a2 89 3c ab 7b 42 3e d6 24 32 3f d3 f6 4c bd
       0.016800983 0.18992488 0.6958746 -0.050040077
0003d0 8e 38 2a 3e 1d 98 7a be c3 48 5c 3e 83 e6 f5 bd
       0.16623136 -0.24472089 0.21512131 -0.12006857
0003e0 b7 c4 94 bd 88 5e 14 3e 0a 44 cb 3d 72 33 09 3e
       -0.07264083 0.14489186 0.09925087 0.13398531
0003f0 72 18 d3 bd a2 ce a1 3d 86 5c 92 3e 37 48 bb bd
       -0.10307397 0.0790074 0.28586215 -0.09144633

gate.2.bias f4 [36]
000000 fa cb 96 be 79 c1 00 3e a1 68 66 be 4c 55 ae be
       -0.29452497 0.12573804 -0.2250085 -0.3404945
000010 4d f3 49 be c2 58 8a be 7b df f3 be aa 1a 14 bb
       -0.19721718 -0.27020842 -0.4763144 -0.00225989
000020 f7 da ce be fc a1 6e be 12 cb aa 3c d1 66 3b be
       -0.40401432 -0.2330398 0.020848785 -0.1830094
000030 05 12 44 bd 58 8a 2f be cd 44 9c bc 43 e9 85 be
       -0.047868747 -0.17142618 -0.019075776 -0.26154527
000040 55 1b 80 be 0f 01 3c be 95 24 90 be 34 f4 1e be
       -0.25020853 -0.18359779 -0.2815291 -0.15522844
000050 96 ef 23 bf 03 5c 25 be 5e 93 ea bd 4d cf 24 be
       -0.64037454 -0.16148381 -0.11453889 -0.16094704
000060 a5 38 54 be ca 53 54 bd 0e 31 4a be 2d 42 12 bf
       -0.20724733 -0.05183772 -0.19745275 -0.57132226
000070 f8 55 08 be 2b a9 24 be b1 a1 be be 86 e9 bb 3d
       -0.13314044 -0.16080157 -0.37232736 0.091754004
000080 ba 0f eb be 5a 83 a8 be 9f d4 5d be 1d 05 73 be
       -0.45910436 -0.32912713 -0.2166314 -0.2373242

Wc.weight f4 [3, 6]
000000 2c ec a8 3c ec dd 13 bc 6a 2f 41 bc be 7e 92 bc
       0.020620428 -0.009025078 -0.01179109 -0.017882701
000010 08 49 97 3c 31 10 f0 3a 69 3f 04 3d aa 73 22 3b
       0.018467441 0.0018315372 0.032287035 0.002478818
000020 d2 37 ca bb 3c b3 98 bc 90 21 7c 3c e7 c0 43 bb
       -0.006171205 -0.018640153 0.015388861 -0.0029869617
000030 aa 46 50 3b de ad 85 3b 91 ac 70 bc 59 c2 13 bc
       0.00317804 0.0040795645 -0.014689581 -0.009018504
000040 bd 56 a6 3c d1 76 c4 bc
       0.020305032 -0.023982437
