checkpoints/NeuralGVAR/RET_h12_h12_tr2021-01-01_te2023-01-01_seed1_lam1.0e-04.pt (torch, 16393 bytes, 7 tensors)

S f4 [4, 3, 3]
0	0xbe69e2da	-0.22840443
1	0x3de0fcb1	0.10985697
2	0x3de2b6dd	0.11070035
3	0xbe62db4c	-0.22153968
4	0x3de7cafb	0.11318012
5	0x3dad0bf7	0.08449548
6	0x3dbed6a8	0.09318286
7	0x3d30f7e2	0.04320515
8	0x3dd1493e	0.10219048
9	0xbe14a43a	-0.14515772
10	0xbdc170f7	-0.094453745
11	0x3de39ad0	0.111135125
12	0xbdf33a16	-0.118763134
13	0xbe1b56a8	-0.15169775
14	0x3e100575	0.14064582
15	0xbe44e7e1	-0.1922908
16	0xbe4ef08e	-0.20208952
17	0x3de302e9	0.110845394
18	0x3e582b05	0.2111016
19	0x3e35dfd8	0.17761171
20	0xbdfe1586	-0.12406449
21	0x3e87366f	0.26408717
22	0xbe2d9f17	-0.16955219
23	0xbdfeefb9	-0.12448067
24	0x3dc4980b	0.095993124
25	0xbe182aaa	-0.14860025
26	0xbddd7c9e	-0.108147845
27	0xbe33ad26	-0.1754652
28	0x3da6bf98	0.08142012
29	0xbe2a02f4	-0.16602689
30	0xbde0bae6	-0.10973148
31	0xbe1b36d1	-0.1515763
32	0x3e46d772	0.19418123
33	0xbe1785de	-0.1479716
34	0xbe125ae2	-0.14292482
35	0x3e315e46	0.17321119

bias f4 [3]
0	0xbbdcab64	-0.0067342985
1	0xbc420724	-0.011842523
2	0xbc35d014	-0.011096973

gate.0.weight f4 [64, 6]
0	0x3d8f7f69	0.070067234
1	0xbe657f04	-0.22411734
2	0x3f50a226	0.8149742
3	0x3e8660f6	0.2624585
4	0xbe3181bc	-0.17334646
5	0xbeee06cd	-0.46489564
6	0xbd48388c	-0.048882052
7	0x3e3efcd0	0.18651128
8	0xbe9cdc81	-0.3063698
9	0x3ec7002a	0.38867313
10	0x3ef82a20	0.4846964
11	0x3ec6afc8	0.38805985
12	0xbee5001e	-0.44726652
13	0xbef110f7	-0.47083256
14	0xbd8efff6	-0.069824144
15	0xbe14feea	-0.14550367
16	0xbea475ae	-0.32121032
17	0xbee202c8	-0.44142747
18	0x3d76a054	0.060211495
19	0xbe8db174	-0.27674448
20	0x3f02aeb3	0.5104782
21	0xbe8e1d5c	-0.27756774
22	0x3ee1378e	0.43987697
23	0x3df5e30c	0.120061964
24	0x3ee464bb	0.446081
25	0x3e40499b	0.18778078
26	0x3dbcb368	0.092139065
27	0x3df32b22	0.11873461
28	0xbe677d87	-0.22606479
29	0xbf0ffd09	-0.56245476
30	0x3e585499	0.21126021
31	0x3e0c50c1	0.1370268
32	0x3e9f23c9	0.3108199
33	0xbed1cc8d	-0.40976372
34	0xbf717e2c	-0.9433315
35	0x3e303d21	0.17210819
36	0x3e9e0917	0.3086631
37	0x3f02aa4a	0.5104109
38	0x3e8c32ea	0.27382594
39	0xbf6bc270	-0.92093563
40	0xbe9be267	-0.3044617
41	0xbc89bc02	-0.016813282
42	0xbeae221f	-0.34010407
43	0xbe575302	-0.21027759
44	0x3e03f9ee	0.1288831
45	0x3e5e74d4	0.21724254
46	0xbe64e6e0	-0.22353697
47	0x3ec842dc	0.3911351
48	0x3ea49fa1	0.32153037
49	0xbe8e8ad4	-0.27840292
50	0x3e5f2935	0.21793063
51	0x3ec01640	0.37516975
52	0xbe6cc2eb	-0.2312123
53	0xbf314b75	-0.69255763
54	0x3f0c9411	0.5491343
55	0x3eabe98b	0.33576617
56	0x3f0b7ca9	0.5448709
57	0xbbfe9412	-0.007769116
58	0xbe2f9efd	-0.17150493
59	0x3f3503f5	0.7070916
60	0x3ed225ce	0.41044468
61	0xbf217959	-0.63075787
62	0x3d86133e	0.06546639
63	0x3e02834c	0.12745398
64	0x3eda5caa	0.42648822
65	0x3d9fcb49	0.078024454
66	0xbe4d8bf2	-0.20072916
67	0x3d2dcba2	0.042430528
68	0xbed3012a	-0.41211826
69	0xbe553f98	-0.2082504
70	0x3f2b9ee1	0.67039305
71	0xbd8f38ec	-0.06993279
72	0xbce56627	-0.028002812
73	0x3ddf9cf0	0.10918605
74	0xbf95bcfa	-1.1698296
75	0xbef88930	-0.48542166
76	0x3eb405ce	0.3516068
77	0x3f190e9e	0.5978793
78	0x3d2f8724	0.04285349
79	0x3eabc25f	0.3354673
80	0x3e95439c	0.29153144
81	0x3e8e1a3a	0.27754384
82	0x3ea8cb1b	0.32967457
83	0x3c01daa5	0.007925664
84	0x3f430de0	0.76193047
85	0x3d552b6c	0.052043363
86	0xbf4ac1c7	-0.7920193
87	0xbf3d7c5e	-0.74017894
88	0xbee84347	-0.4536383
89	0x3da5d17c	0.080965966
90	0xbea26c4e	-0.31723255
91	0x3e4c987c	0.19980043
92	0x3cb6397b	0.022244206
93	0xbe30e986	-0.17276582
94	0x3cc1e1a1	0.023667159
95	0x3f3696d1	0.7132388
96	0x3e3ab50b	0.18233125
97	0x3eec4641	0.4614735
98	0xbe45ba63	-0.19309382
99	0x3ee5f23b	0.4491137
100	0xbdedc352	-0.1160952
101	0x3d5392ce	0.051653676
102	0xbf7815ca	-0.9690825
103	0xbf325a14	-0.696687
104	0x3e0a5240	0.13507938
105	0xbe8403f9	-0.2578428
106	0x3e343aab	0.17600505
107	0x3e5e8664	0.21730953
108	0xbe9aad23	-0.30210218
109	0x3ee11dd8	0.4396808
110	0x3cdbddee	0.026839223
111	0x3ee26ca8	0.44223523
112	0xbe7cdcb1	-0.24693562
113	0x3daa66fe	0.083204255
114	0x3d59a922	0.053139813
115	0xbc34d253	-0.011036473
116	0xbf3c6dcf	-0.73605055
117	0xbdf91ff9	-0.121643014
118	0xbc869f7d	-0.016433472
119	0x3ec6930e	0.3878407
120	0x3a6c5659	0.00090155524
121	0xbb2a42e4	-0.0025979811
122	0x3f3409a2	0.703272
123	0x3eb156de	0.34636587
124	0x3e7ea12c	0.2486617
125	0xbd5bcde9	-0.053663168
126	0xbf050c76	-0.5197214
127	0x3f43d137	0.7649111
128	0x3e02ab9b	0.12760775
129	0xbe87f468	-0.26553655
130	0xbe5569c4	-0.20841128
131	0xbe31ff54	-0.17382556
132	0xbd874a7e	-0.06606005
133	0x3f23bfd8	0.63964605
134	0xbd51bec0	-0.051207304
135	0xbf015537	-0.5052065
136	0x3df5d338	0.120031774
137	0xbe981544	-0.29703724
138	0xbe711d52	-0.23546341
139	0xbf26a25c	-0.6509149
140	0xbc06969b	-0.008214618
141	0x3ce6d9d4	0.02818004
142	0x3f2b4f81	0.6691819
143	0xbe930bff	-0.2872009
144	0x3cd617e2	0.026134435
145	0x3d885b06	0.06657986
146	0x3ea912b7	0.3302209
147	0xbe98cb96	-0.29842824
148	0x3ec70df3	0.3887783
149	0xbf0583c0	-0.5215416
150	0x3f39eb4a	0.7262465
151	0x3db020bf	0.08599996
152	0x3cbbb9e3	0.022915786
153	0x3e47132d	0.19440909
154	0x3e42ad1b	0.19011347
155	0xbd378284	-0.044802204
156	0xbeb7f50c	-0.35929143
157	0x3e53fa1d	0.2070088
158	0xbd582bec	-0.052776262
159	0x3f0373cc	0.51348567
160	0xbec6cbd9	-0.38827398
161	0x3f033074	0.5124581
162	0x3edd908b	0.4327434
163	0x3f678213	0.9043285
164	0x3f08fcfb	0.5351102
165	0xbebbecf9	-0.36704233
166	0xbea548b1	-0.32282022
167	0x3ea8b8c7	0.32953474
168	0xbeb66725	-0.35625568
169	0x3f391711	0.7230082
170	0xbe4dd440	-0.20100498
171	0xbf0a3177	-0.5398173
172	0x3e512399	0.20423736
173	0xbe8e4fd1	-0.2779527
174	0xbdd60f96	-0.104521915
175	0x3df407e9	0.11915571
176	0x3f24dd5b	0.6440026
177	0x3e902d34	0.28159487
178	0x3d28cdaf	0.04121178
179	0xbeedfda6	-0.4648258
180	0x3f7e6bfb	0.99383515
181	0xbd358258	-0.04431376
182	0xbd14c3e4	-0.03631963
183	0x3e9843b6	0.2973916
184	0xbeb9e036	-0.36303872
185	0x3f2bf0ba	0.67164195
186	0x3e3dda89	0.18540396
187	0xbf627e3b	-0.8847386
188	0xbed15f59	-0.40893057
189	0xbd46f337	-0.04857179
190	0x3ea8382c	0.32855356
191	0xbd816b78	-0.06319326
192	0xbec8c9fe	-0.39216608
193	0xbe054b92	-0.13017109
194	0xbeb90692	-0.36137825
195	0xbf39222d	-0.72317773
196	0xbf22845b	-0.6348321
197	0x3f33f4e8	0.7029557
198	0x3ec84d41	0.3912144
199	0xbf012391	-0.50444895
200	0xbdc5b59e	-0.09653781
201	0x3ec3f7bd	0.38274947
202	0x3e9a9d5a	0.30198175
203	0xbee39ff1	-0.44457963
204	0x3e537c0b	0.20652787
205	0x3f0e89dd	0.5567911
206	0x3c9a0863	0.018802827
207	0xbd489812	-0.04897315
208	0x3ecd0f8a	0.40050918
209	0x3f08545c	0.5325372
210	0x3cba7690	0.022761613
211	0x3f2a9cfa	0.6664578
212	0x3ad3e3bf	0.0016165896
213	0xbf50bd3b	-0.8153874
214	0xbda64da6	-0.08120279
215	0xbed315f1	-0.41227677
216	0x3e627afe	0.2211723
217	0xbeab98b2	-0.33514935
218	0x3ec87da5	0.3915836
219	0x3e334e09	0.17510237
220	0xbd9de6f1	-0.07710064
221	0x3f859c04	1.0438237
222	0xbe9b60c6	-0.3034727
223	0xbe3af9cc	-0.18259352
224	0xbe052fee	-0.13006565
225	0x3d2e810b	0.042603534
226	0xbe1cde20	-0.15319109
227	0x3c395463	0.011311623
228	0xbd33c125	-0.04388537
229	0x3de3d1bc	0.11123988
230	0x3ed48490	0.41507387
231	0x3d435881	0.047691826
232	0xbedf2015	-0.43579164
233	0xbe6ec3a4	-0.23316818
234	0xbf6ada57	-0.9173941
235	0x3f075b7b	0.52873963
236	0xbdc8a5be	-0.09797238
237	0x3e0c05ef	0.13674138
238	0x3cd3a067	0.025833322
239	0xbd0953f2	-0.033527322
240	0x3f260ef2	0.64866555
241	0x3ef9bd3b	0.48777184
242	0x3e841e14	0.25804198
243	0xbf1e8428	-0.61920404
244	0x3e5685d3	0.20949487
245	0xbda0a4cb	-0.07843932
246	0xbd290e9c	-0.0412737
247	0xbf0e0335	-0.55473644
248	0xbdea0b17	-0.114278965
249	0xbeae26f8	-0.34014106
250	0x3e3146e9	0.17312206
251	0xbd7335da	-0.05937753
252	0x3d0f668c	0.035009906
253	0xbeb5351e	-0.35392088
254	0xbf628fc5	-0.88500625
255	0x3ec1c9ed	0.3784937

gate.0.bias f4 [64]
0	0xbe19f655	-0.15035374
1	0xbc8608bf	-0.016361592
2	0x3d892617	0.06696718
3	0x3dc07e11	0.09399045
4	0xbf4860ae	-0.7827252
5	0x3f6dcdf3	0.9289238
6	0xbf04e7bb	-0.5191609
7	0x3ebe9c43	0.37228593
8	0xbeb72992	-0.35773903
9	0x3e6e5eec	0.23278397
10	0xbdf7e73d	-0.12104652
11	0x3f315f98	0.6928649
12	0xbe7bad72	-0.24577883
13	0xbf4bd5a8	-0.7962289
14	0x3d9b71b2	0.07590045
15	0x3f65c060	0.89746666
16	0x3f5a6eff	0.85325617
17	0xbe5746f6	-0.21023163
18	0x3f79d823	0.97595423
19	0x3f65b275	0.8972543
20	0xbf4407bb	-0.76574296
21	0xbe1416f2	-0.14461878
22	0x3dfc68a5	0.12324647
23	0xbef8d16e	-0.48597282
24	0x3d860890	0.06544602
25	0xbeecf139	-0.46277788
26	0x3f7c016a	0.9843966
27	0xbe5ca634	-0.21547776
28	0xbd3f0cb8	-0.04664299
29	0xbefe6c83	-0.49692163
30	0xbe80a826	-0.25128287
31	0xbe0da885	-0.13833816
32	0xbcec8f6b	-0.02887698
33	0xbf539ffc	-0.8266599
34	0x3d8615b9	0.06547112
35	0xbe074002	-0.13208011
36	0x3f1e0405	0.61724883
37	0x3f15999d	0.5843752
38	0x3f010410	0.50396824
39	0x3eeec3be	0.46633714
40	0xbf26fe13	-0.65231436
41	0x3f04d834	0.518924
42	0x3d6cb512	0.05778987
43	0xbf604d77	-0.876182
44	0xbec8b333	-0.39199218
45	0xbee7e8b1	-0.45294717
46	0x3d1c861c	0.038213834
47	0x3e57248c	0.21010035
48	0x3eebe661	0.46074203
49	0xbc443f80	-0.01197803
50	0xbdec9292	-0.115513936
51	0x3f462d3f	0.7741279
52	0x3f0a6ace	0.5406922
53	0x3f20e2d6	0.62846124
54	0xbe2f3256	-0.17109045
55	0xbf03c07f	-0.514656
56	0x3e9ec8cc	0.3101257
57	0xbf381ea5	-0.7192176
58	0xbe0136c1	-0.12618543
59	0x3e88b20c	0.2669834
60	0x3eb9e173	0.36304817
61	0xbee4e13c	-0.4470309
62	0xbf0c541f	-0.5481586
63	0xbe764bc2	-0.24052337

gate.2.weight f4 [36, 64]
0	0x3da27f1f	0.07934403
1	0xbe4da46f	-0.20082258
2	0x3dcc203f	0.09967088
3	0xbf30f33d	-0.6912115
4	0x3ec2adea	0.3802331
5	0xbed1a565	-0.409465
6	0xbec0e77f	-0.37676618
7	0x3def4710	0.11683476
8	0x3f09de90	0.5385523
9	0x3e95068f	0.29106566
10	0xbd2b27cd	-0.041786004
11	0xbe69add4	-0.22820216
12	0xbefd3394	-0.49453413
13	0xbe8e8a10	-0.27839708
14	0xbd4595fb	-0.048238736
15	0xbe27a7e3	-0.16372637
16	0xbe8c8763	-0.27447042
17	0x3ea8e2ec	0.32985628
18	0xbd5c9798	-0.05385551
19	0xbe759ed1	-0.23986365
20	0xbf161e90	-0.58640385
21	0x3ecb13c1	0.3966351
22	0xbe456076	-0.19275078
23	0xbf298e86	-0.662331
24	0xbe70e51c	-0.23524898
25	0x3f07b75f	0.5301418
26	0x3e138f66	0.14410171
27	0x3c8a9c86	0.01692034
28	0x3c7d0700	0.015443563
29	0xbdec2c2f	-0.11531865
30	0x3f80a11f	1.004917
31	0xbea9771b	-0.33098683
32	0x3df27e84	0.11840537
33	0x3ef85654	0.48503363
34	0xbe246e73	-0.16057758
35	0xbf0a28ca	-0.5396849
36	0x3d033794	0.032035425
37	0xbd2f0585	-0.042729873
38	0xbe9eed12	-0.31040245
39	0x3eac6027	0.33667108
40	0x3ee374f5	0.4442517
41	0xbed9105f	-0.42395303
42	0xbd80f8b2	-0.06297435
43	0xbd7379fb	-0.0594425
44	0xbec7d6a7	-0.39030954
45	0xbf2b9bf8	-0.67034864
46	0xbe959202	-0.29212958
47	0xbed507c4	-0.41607487
48	0xba3f5c5c	-0.00072998344
49	0xbed78bd6	-0.42098874
50	0xbe06f451	-0.13179137
51	0xbefe0a57	-0.49617264
52	0xbec98f27	-0.3936703
53	0x3d4c7b83	0.049922477
54	0xbe1f7d11	-0.15575053
55	0x3e6c0019	0.23046912
56	0x3d8a50c6	0.067536876
57	0xbd5f1b8e	-0.054469638
58	0xbf27ec5f	-0.6559505
59	0xbd1b1502	-0.03786183
60	0x3e9952a5	0.29945865
61	0x3e91a774	0.2844807
62	0x3e303227	0.17206632
63	0xbda79cde	-0.08184217
64	0x3e3c7a7d	0.184061
65	0xbc3ca307	-0.011513478
66	0xbcfeeaa1	-0.03111774
67	0x3de23a76	0.11046307
68	0xbe21e388	-0.15809453
69	0x3df41443	0.11917927
70	0xbe50d6e5	-0.20394476
71	0xbdf80fce	-0.121123895
72	0x3d9b9314	0.07596412
73	0xbe443130	-0.19159389
74	0x3c1d8e4b	0.009616445
75	0x3ced3699	0.028956698
76	0x3d3ecc14	0.046581343
77	0x3e852814	0.2600714
78	0xbea4b307	-0.32167837
79	0xbe35dc51	-0.17759825
80	0xbd631a34	-0.05544491
81	0xbe99bff6	-0.30029267
82	0xbe472d3c	-0.1945085
83	0xbdb956a7	-0.09049731
84	0x3edd3bd2	0.43209702
85	0xbe7ebc0e	-0.24876425
86	0xbe9d3a91	-0.30708745
87	0x3e8b49ad	0.27204648
88	0x3e479449	0.1949016
89	0x3e24110c	0.16022128
90	0xbe84c572	-0.2593189
91	0xbe9b238f	-0.30300567
92	0xbe8af4e1	-0.27139953
93	0x3db1719f	0.0866425
94	0xbdcb3fbc	-0.09924266
95	0xbda3062b	-0.07960161
96	0xbf0e388c	-0.55555034
97	0xbd773692	-0.060354777
98	0xbda31c17	-0.07964342
99	0xbe31ab4a	-0.17350498
100	0x3d42a4a3	0.04752029
101	0xbe0b08eb	-0.1357762
102	0x3ecc4a7d	0.3990058
103	0x3c33af84	0.010967139
104	0xbf6b603c	-0.91943717
105	0xbe404e9b	-0.18779986
106	0xbda5dbb4	-0.08098546
107	0x3e13c32a	0.14429918
108	0xbe8fb84d	-0.28070298
109	0x3dbae300	0.09125328
110	0x3e0cc1fb	0.13745873
111	0xbe514c54	-0.20439273
112	0xbe49332b	-0.19648425
113	0x3c88ebbb	0.016713968
114	0x3e04e820	0.12979174
115	0x3dab5780	0.08366299
116	0xbc86998d	-0.01643064
117	0xbd88de99	-0.06683082
118	0x3d8511a6	0.06497507
119	0x3d5851bc	0.052812323
120	0x3e0c8314	0.13721877
121	0x3e46ac09	0.19401564
122	0xbdb12463	-0.08649518
123	0xbe5fdf16	-0.21862444
124	0xbd703e24	-0.058653012
125	0x3d4c5847	0.049888875
126	0xbf17de3e	-0.5932349
127	0x3e91ec30	0.2850051
128	0x3e3f057a	0.18654433
129	0x3df469c4	0.11934236
130	0x3d0cbc41	0.03435922
131	0xbcb4b23c	-0.022057645
132	0x3e2f6457	0.1712812
133	0xbecbc3db	-0.39797863
134	0xbd0cd9eb	-0.03438751
135	0xbec6ac17	-0.3880317
136	0x3e541231	0.20710064
137	0xbc3a4248	-0.011368342
138	0xbd92b521	-0.07163454
139	0xbeb5244d	-0.35379258
140	0x3d32d89a	0.0436636
141	0x3d0f627d	0.035006035
142	0xbd8a6fc0	-0.06759596
143	0xbef1429b	-0.47121128
144	0xbeae238b	-0.34011492
145	0xbdfa1809	-0.122116156
146	0xbf0cbca6	-0.54975355
147	0xbe81858d	-0.25297204
148	0x3d58c416	0.052921377
149	0x3ddd8934	0.10817185
150	0xbe720bf0	-0.23637366
151	0x3e7b98ee	0.24570057
152	0x3d86202f	0.06549107
153	0x3d17e2d2	0.037081547
154	0xbf261d51	-0.64888483
155	0xbdd24bd7	-0.102683716
156	0xbdac7fb1	-0.08422793
157	0x3eb054f1	0.34439805
158	0x3d897e97	0.06713598
159	0x3e160e62	0.14653924
160	0xbe73958b	-0.23787515
161	0x3e87385b	0.26410183
162	0xbe07a72b	-0.13247363
163	0xbe1e2eec	-0.15447587
164	0xbe963a36	-0.29341286
165	0xbecc01a9	-0.39845017
166	0x3dde974e	0.10868703
167	0xbe99d570	-0.30045652
168	0xbecc4365	-0.39895168
169	0xbf13c4f6	-0.57722414
170	0xbe86adb2	-0.26304394
171	0x3e3b0a66	0.18265685
172	0x3d34548c	0.044025943
173	0x3ea563de	0.32302755
174	0x3dfa08a3	0.122086786
175	0xbe82b7a4	-0.25530732
176	0xbee2e66f	-0.44316432
177	0xbe5cb8ab	-0.2155482
178	0x3dd1735a	0.1022708
179	0xbee094de	-0.43863577
180	0xbdfd2c80	-0.12362003
181	0xbf00b8f1	-0.502822
182	0x3de208e6	0.110368535
183	0xbc9e2e50	-0.019309193
184	0xbdeac4a6	-0.11463289
185	0x3d9ff134	0.07809678
186	0x3dc96bb1	0.09834994
187	0xbe767c1d	-0.24070783
188	0xbe8debae	-0.27718872
189	0xbeaeb59e	-0.34122938
190	0xbd88a7e4	-0.066726476
191	0x3d873070	0.066010356
192	0xbe24b20b	-0.16083543
193	0xbe0baaea	-0.13639417
194	0xbd6fb77d	-0.058524597
195	0xbed5664c	-0.4167961
196	0x3d0c56c3	0.03426243
197	0xbe17c10a	-0.14819732
198	0x3ec64b44	0.38729298
199	0x3e374a9d	0.17899556
200	0xbddb5773	-0.10710039
201	0x3daf6aef	0.08565318
202	0xbe21bed2	-0.15795448
203	0xbe9c6db7	-0.30552456
204	0xbebe2f14	-0.37145293
205	0xbe22c3ec	-0.15895051
206	0x3c5349bb	0.012895997
207	0xbcc859f3	-0.024456954
208	0x3c8a0a4e	0.016850617
209	0x3e8dd0aa	0.2769826
210	0x3e08b8cf	0.13351749
211	0xbeaa2fbb	-0.3323954
212	0x3d0d3f07	0.034483936
213	0x3ea20d05	0.31650558
214	0xbdb63bc4	-0.08898118
215	0xbeb28faa	-0.34875232
216	0xbe3c6b22	-0.18400243
217	0x3e645a46	0.22300062
218	0x3e49604d	0.19665642
219	0x3e934992	0.28767067
220	0x3ced9051	0.02899948
221	0x3d4c3a90	0.049860537
222	0x3f013756	0.5047506
223	0xbf083910	-0.5321207
224	0x3e6f51d7	0.23371063
225	0x3d88d7fa	0.06681819
226	0xbdfc8c66	-0.123314664
227	0xbe12d06a	-0.14337316
228	0xbe80de81	-0.25169757
229	0xbdc2f5be	-0.09519528
230	0xbd02c806	-0.03192904
231	0x3e98ab4a	0.29818183
232	0x3efcab1d	0.493493
233	0xbf05d903	-0.5228426
234	0xbbd16c5d	-0.0063910917
235	0xbed56b19	-0.41683272
236	0x3dcedf6b	0.10101207
237	0xbe8e81b3	-0.27833328
238	0xbdffe246	-0.1249433
239	0xbf20f325	-0.6287101
240	0xbe0206c9	-0.12697901
241	0xbee842b1	-0.45363382
242	0x3d121fd8	0.0356749
243	0xbf1bd077	-0.6086497
244	0xbf570669	-0.83994156
245	0x3df2e797	0.118605785
246	0x3d603d38	0.054745883
247	0x3d49e3a9	0.04928938
248	0xbc24ec2c	-0.010066073
249	0xbd73dc38	-0.05953619
250	0x3d8289ae	0.063739166
251	0x3e1b5112	0.15167645
252	0x3e8bcfae	0.27306885
253	0x3e36d2ce	0.17853853
254	0x3e621bb0	0.22080874
255	0xbda66f9d	-0.08126757

gate.2.bias f4 [36]
0	0xbe301855	-0.17196782
1	0x3cdf6126	0.027268004
2	0xbed23ac8	-0.41060472
3	0xbe7527e6	-0.23941001
4	0x3d96ca2d	0.07362781
5	0xbed0892c	-0.40729654
6	0xbea5abb5	-0.32357565
7	0xbec34a5e	-0.38142675
8	0xbeba9aec	-0.3644632
9	0xbe212536	-0.15736851
10	0xbe56ef3e	-0.20989701
11	0xbe8986cb	-0.2686065
12	0xbe0d82ff	-0.13819502
13	0xbeadfefb	-0.33983597
14	0xbe774d35	-0.24150546
15	0xbe5f4b34	-0.21806031
16	0xbe8ca0ea	-0.27466518
17	0xbc7bcea3	-0.01536909
18	0xbe26f97a	-0.16306105
19	0xbe1b613e	-0.15173814
20	0x3e09c0d5	0.13452466
21	0xbe8d8ff4	-0.2764889
22	0xbd446b30	-0.047953784
23	0xbc9cd766	-0.019145679
24	0xbd518f2f	-0.05116194
25	0xbe59fae7	-0.21287118
26	0xbe55f95f	-0.20895909
27	0xbe1fdde2	-0.15611985
28	0xbed057da	-0.40692025
29	0xbe01533c	-0.12629408
30	0xbdc9be45	-0.09850744
31	0xbdad47de	-0.08460973
32	0xbe9d67bc	-0.30743206
33	0xbe180f57	-0.14849602
34	0x3d32625c	0.043550834
35	0xbf17e4fe	-0.5933379

Wc.weight f4 [3, 6]
0	0x3c57766c	0.013150793
1	0x3b908738	0.0044106506
2	0xba7e8f4e	-0.0009710685
3	0xbcd3e4dd	-0.025865966
4	0x3cc26dc5	0.023733983
5	0xbb6d7728	-0.0036234353
6	0x3c45d5e0	0.012074918
7	0x3c558a98	0.013033532
8	0xbba5c11b	-0.0050584204
9	0x3c6fbe55	0.014632781
10	0xbbbd70e5	-0.0057812803
11	0xbb909b78	-0.0044130646
12	0x3a983b46	0.0011614345
13	0x3b2cdf18	0.0026378091
14	0xbc1472a4	-0.009060536
15	0xbbe3df0e	-0.0069540804
16	0x3d105393	0.035235953
17	0xbc77574b	-0.015096496
