checkpoints/NeuralGVAR/VOL_h1_h1_tr2021-01-01_te2024-01-01_seed1_lam1.0e-04.pt (torch, 16307 bytes, 7 tensors)

S f4 [4, 3, 3]
00000000: 5c88 403f 61d6 d13d 0bff a83d efb5 4f3e
00000010: 93ef 223f 88f8 df3d ef44 cb3d 3f48 a33d
00000020: a639 353f 2468 4f3e d788 51bc 8b9f 013d
00000030: 4117 b6bd 0ad9 7b3e 1377 babc 5973 423d
00000040: 94d7 543d d53a 7c3e 8f5c f43d 9c97 85bd
00000050: 307e d53c 20d7 d1bd 873e c03d ae22 3ebd
00000060: 8768 f4bd 8049 143d 4d8f a23d 71cf 543d
00000070: 0804 1b3d 762d 99bd ed79 c0bc 190f 5e3d
00000080: 1455 1bbd 286c 0abc 2d5e 693d 2d75 c13d
0.7520807 0.10245968 0.082517706 0.20284246 0.6364681 0.109360754 0.099252574 0.07972764
0.7079109 0.2025457 -0.012788973 0.031646293 -0.08891154 0.24594513 -0.022761857 0.047473285
0.051963404 0.24631818 0.11931717 -0.06523058 0.026061147 -0.1024611 0.09386926 -0.046419792
-0.119339995 0.036202908 0.07937489 0.051955644 0.03784564 -0.07479374 -0.023495639 0.054213617
-0.037922934 -0.008448638 0.05697458 0.09446178

bias f4 [3]
00000000: aac1 f0bb 8cab 2abc 1a3e 57b8
-0.0073473053 -0.0104168765 -5.131783e-05

gate.0.weight f4 [64, 6]
00000000: 4e63 5b3e 83ff 11be 280b 943e 3ef9 a43e
00000010: 6dd1 1fbe 0d36 91be a409 353e e7e0 f5bc
00000020: c77e 62be ce04 853e 2234 a23e 9d77 d93e
00000030: b957 24bf a0d7 b2bd b8b6 92bd 346c bd3d
00000040: 35ed d4be bc04 9cbe d193 923e 54eb 02be
00000050: fd26 da3d 3897 643d 005d 1c3e bada 2f3d
00000060: bf4b 4b3e 7b1e ee3d 95e2 28be cd66 893e
00000070: 46f1 c2be 1c3f cdbe 00f9 48be 9c74 60be
00000080: acd3 053e 9a50 65be 1390 4fbe ae9d cf3e
00000090: fcf6 ea3e 8a8e 443e 97bc 4b3e 967d 9abf
000000a0: 9bff 31be f299 acbc df64 0cbf 0d4f f8be
000000b0: 2083 d1bd e7fb c53c 8942 09be 3ff7 a2bd
000000c0: 9d82 de3e e87e 88bd 7094 953e a689 a93e
000000d0: 7bee aebe e921 b8be f241 953e 16f7 5cbe
000000e0: 65ec 1a3b b41a 0f3e 8ce4 3a3e 7379 f03e
000000f0: 42fa 8a3e 2221 78be 61af 7f3d 8c4b 6c3e
00000100: b0c4 5e3e 3cf4 7e3e d6bd b9be 366d aebe
00000110: 54f2 15bf 83a2 ab3b 44f3 043f 8d74 85be
00000120: dbf1 3b3d ac87 0a3d 1054 0fbf 120b 17be
00000130: 16e0 c73e d4c5 323e 81d1 52be 8f93 df3d
00000140: 00a7 573e 69d3 b23e cdc7 2e3e 2072 d13e
00000150: 2692 6f3e 5bd7 2ebe 7040 00bf bea3 cabe
00000160: 41c7 80be a59b acbd 0edc 2abe 5de5 04be
00000170: 1e34 8abe f4a9 56be b922 5e3e f9d4 ee3d
00000180: 03de 4c3e 7e95 663e 12a8 57bd 611d ca3e
00000190: 95bd 1bbd 2a48 7dbd 483f 55bf 705f b3be
000001a0: 7886 e3bd 3aa9 93be fded 203e 2ac9 a9bd
000001b0: 810d 66be 9f6b 26bd ced2 fbbd 453e 523e
000001c0: b9c5 5cbe 7602 393e efef b4be 28d8 13be
000001d0: b04c 19bf 1e7e 15be c0e2 7fbd 2319 773e
000001e0: 3a7d 1dbd 47dc c13d 3f9e a83e 6be2 883e
000001f0: 4b41 1b3e 3a3a 16be 1092 0dbd 5109 3e3e
00000200: b2f3 a13e bc39 22be 54f6 0bbf 8b3f 21be
00000210: c6a4 d6be 801b 72bd 8b77 01bf 3159 c3be
00000220: d175 d1bd 0690 89be b7d5 8fbc 4018 a2be
00000230: 5e47 c3be 7492 dbbc 113b 8d3e 9383 6bbe
00000240: 0f8b 363e db14 9cbd 2f1b 203e e8ef debe
00000250: b1ba 0dbc 40ca aabe 32cc aa3e fc22 88be
00000260: 67d4 503e 81e8 b4bc 3436 c3bd cfa9 bcb9
00000270: 5570 1d3e a5e8 85bc b707 02be 72a6 c33d
00000280: 429b a4be da9d b43e 94e0 d83e a858 1f3e
00000290: 53a1 8d3e 2b7f c2be 31a0 09be 5d53 d23e
000002a0: ddab e9bc dfd3 5b3e 8c82 99bd 5521 8ebe
000002b0: c62f 263e 15ee 86be bbca 4bbe 6ec1 0e3e
000002c0: 6824 5c3e ffd5 b53e 52dc 2cbe f2e5 b4be
000002d0: 6782 0c3f 117c 97be f149 b4be 3cb1 0d3e
000002e0: f685 7fbe aeb8 7a3f 0dab 363d a733 babe
000002f0: 40b6 d9be d017 8b3c e488 7b3e 295b c8bd
00000300: 6c52 1cbe d81d 02be 31c7 14bf 6e1c fcbe
00000310: 17c6 b2be 9199 cc3e c7f3 033f 039a ea3c
00000320: 10ae da3d 8377 b03e 9f0d 01be 7ed5 61be
00000330: f9e6 023e 9cb2 0b3e 2f80 f9bd ac91 37be
00000340: 22c4 ca3e 3250 503e 0f0a 03be 0a9c 993e
00000350: f66b 643e 2115 b9be 8213 143e 80bf d1be
00000360: 457a 933e 7bb3 9bbe ca63 933c f6b8 1a3e
00000370: 564f d53d dfc0 a13e 0468 96be 5ea2 98be
00000380: 9fa7 11bf 93b0 16bd 498f e0bd 37f9 523d
00000390: f057 43bd c4bb fc3d 01ad 223e 1954 193e
000003a0: c917 3fbe faea 2fbe 11ad f5be 93b2 b63d
000003b0: 9f2d 33be 8650 a13d 1f81 f53c 04c3 94be
000003c0: f5a4 9b3e 005e 2c3e 2651 833e 1d48 ecbe
000003d0: 097a 96be 2bc5 14bd 2aee 863d 422c cbbe
000003e0: 933f 21bf e68a 03be 617e 853e 3916 57be
000003f0: ed23 583d d153 89be c372 10bf 2c98 d93e
0.214246 -0.14257626 0.28914762 0.32221407 -0.15607233 -0.2836155 0.17679459 -0.030014468
-0.22118674 0.25980228 0.316804 0.4247407 -0.64196354 -0.087325335 -0.07163757 0.09249154
-0.41587225 -0.30472362 0.286284 -0.12785083 0.10651968 0.055808276 0.15269852 0.042933203
0.19853114 0.116269074 -0.16492684 0.26836243 -0.38074702 -0.4008721 -0.19626236 -0.21919483
0.13069028 -0.22394028 -0.20269804 0.40549988 0.4589156 0.19195 0.1989616 -1.2069576
-0.17382662 -0.0210695 -0.5484142 -0.4849781 -0.10230088 0.024167968 -0.13404287 -0.07957315
0.43459025 -0.066648304 0.2921481 0.3311283 -0.3416632 -0.3596337 0.29151875 -0.21578631
0.0023639437 0.1397503 0.18251246 0.46967658 0.27144057 -0.24231389 0.062423114 0.23075694
0.21754718 0.24897856 -0.36277646 -0.34067696 -0.5857289 0.0052378788 0.51933694 -0.26065484
0.04588495 0.033820793 -0.55987644 -0.14750317 0.39038152 0.17458278 -0.20587732 0.109168164
0.21059799 0.34926918 0.17068405 0.40907383 0.23395595 -0.17074339 -0.50098324 -0.3957805
-0.2515202 -0.08428124 -0.16685507 -0.1297812 -0.26992887 -0.2096327 0.21692933 0.11661715
0.20006566 0.22517964 -0.05265052 0.3947554 -0.038022596 -0.0618364 -0.83299685 -0.3503375
-0.11109632 -0.28840047 0.15715785 -0.08290322 -0.22466089 -0.04062998 -0.12296067 0.20531566
-0.215598 0.18067345 -0.35339305 -0.14437926 -0.5988264 -0.14598891 -0.062472105 0.24130683
-0.038449503 0.09465843 0.32933232 0.26735243 0.15161626 -0.14670649 -0.034563124 0.18558241
0.31631237 -0.15842336 -0.5467274 -0.15746896 -0.41922587 -0.059108257 -0.50573033 -0.38153985
-0.1022755 -0.26867694 -0.017557962 -0.31659126 -0.38140386 -0.026803233 0.27584127 -0.2299941
0.17826484 -0.07621165 0.1563537 -0.4354241 -0.008650468 -0.3335743 0.33358914 -0.2658919
0.20393525 -0.022083523 -0.09531823 -0.00035984672 0.15374883 -0.016346285 -0.12698255 0.09553231
-0.32149702 0.3527668 0.4235884 0.15561163 0.27662143 -0.37987646 -0.13440014 0.41079226
-0.028524334 0.21467541 -0.07495603 -0.27759805 0.16229162 -0.26353517 -0.19901554 0.13940975
0.21498263 0.3551483 -0.1688092 -0.35331684 0.5488648 -0.29586843 -0.35212663 0.13837141
-0.24953446 0.9793805 0.04459672 -0.36367533 -0.42521858 0.016979128 0.24563938 -0.097830124
-0.15265816 -0.12706697 -0.5811644 -0.4924044 -0.34916756 0.39960912 0.5154385 0.028637892
0.10677731 0.3446618 -0.12602852 -0.22054097 0.12783422 0.13642353 -0.12182652 -0.17926663
0.39602762 0.20343092 -0.12796806 0.3000186 0.22306809 -0.36148933 0.14460567 -0.40966415
0.28804222 -0.3041037 0.01799192 0.1510962 0.10415523 0.3159246 -0.29376233 -0.29811376
-0.56896394 -0.036789488 -0.109648295 0.0515072 -0.047691286 0.12340501 0.15886308 0.14973487
-0.18661417 -0.1717948 -0.47983602 0.08920779 -0.17497872 0.07876687 0.029968796 -0.29055035
0.3039929 0.16832733 0.2564785 -0.46148768 -0.2938998 -0.036320847 0.06588395 -0.39682204
-0.6298763 -0.12845954 0.26072982 -0.21004571 0.052768636 -0.2682176 -0.5642511 0.4249891

gate.0.bias f4 [64]
00000000: fa11 ad3e 2264 ce3c d5c3 c63e f1b9 f73e
00000010: 9308 f2bd 6157 5b3f f4ac 043f 2347 1a3f
00000020: c81e e73c 0626 7d3f dab6 d1be a9a3 ac3e
00000030: a69a b3be 7fe6 f4be c462 bb3e 5337 4e3f
00000040: bc3c fb3e 9390 8bbd 4c3c 453f e1f8 2d3f
00000050: 39cc a3be 87b4 cabe f5f2 ec3e 1f90 95be
00000060: 1221 ef3e ca58 cebe 7535 613f 6f4d 003f
00000070: 3303 84be f009 b13e 4abc 6b3f 5fca 9abd
00000080: 474e bb3e 3a15 3fbe 2d2b 5fbe dc92 2fbe
00000090: 51b4 2c3f d780 423f 8ef6 073f 64f6 1d3f
000000a0: b522 93be f0f3 043f b2d4 c13e 6bb9 c4be
000000b0: dbc0 c33e 13bd 033f 318e e4bd 39ca 0e3f
000000c0: fa08 0b3f 3464 51be b65e 1cbf 91b0 453f
000000d0: 815f ea3e e11b 203f 8e27 963e 643f 16be
000000e0: ef8e 8e3e bdf5 edbe 2b0f 9e3e b771 863f
000000f0: 0090 0e3f 554f 5bbe 2cc4 aebe 1710 a23e
0.33802778 0.025194231 0.38821283 0.4838405 -0.11818042 0.85680205 0.51826406 0.60264796
0.02821292 0.98886144 -0.40959817 0.33718613 -0.35078925 -0.47832105 0.3659879 0.8055317
0.49069774 -0.06814685 0.7704513 0.67957884 -0.31991747 -0.39590856 0.46279112 -0.29211518
0.46704918 -0.40302116 0.87972194 0.50118154 -0.2578369 0.34577894 0.9208418 -0.075581305
0.36583158 -0.18660441 -0.21793814 -0.17145866 0.6746264 0.75977844 0.5311059 0.6170409
-0.28737417 0.5193472 0.37857586 -0.38422713 0.38233075 0.5146038 -0.11159933 0.5577732
0.5431057 -0.2044838 -0.6108202 0.77222544 0.4577599 0.6254254 0.29327053 -0.14672619
0.27843425 -0.46476546 0.30870947 1.0503453 0.55688477 -0.21416982 -0.34134042 0.316529

gate.2.weight f4 [36, 64]
00000000: d182 963c 345d 19bc 02de d33d a6de 393e
00000010: 4285 dabc f572 a33e 03e3 793c 66e9 503e
00000020: 0739 093e 0ac1 173e f239 85bc 2fa3 0e3e
00000030: c623 283c a6db 153e 9c17 ac3e 224d a53e
00000040: 15ac ec3d ec4f 89bd 5e59 b83e 9bf2 e53e
00000050: aade 99bd 94fe d1bd affa 923e 6c9f 00bc
00000060: 7690 ee3d 2475 f2bd 774f 0c3f e862 bc3e
00000070: f4e7 87bd 8fbb 4d3d b736 123f fa30 0f3e
00000080: a9c4 f43e cf27 993d c566 5e3d dc1b f4bd
00000090: 5ad6 9b3e d335 e63e b39f 323e d691 ad3e
000000a0: 97ac d1bc a9b2 f93d e7eb 2c3d 08bb 82bd
000000b0: 4117 513e 8a28 013f 930a 24bd 0aaa 143f
000000c0: 980e 3d3e 2704 843e 96f1 8a3d e722 983e
000000d0: ce64 b23e a43a ba3e ad8c 903d 993a d03d
000000e0: ad51 753e e2ca aabb 9c04 823d 7083 e33e
000000f0: a049 a13e 0ed5 343d ce22 8fbd 07b2 813d
00000100: c629 263e 37aa 563d c419 d63d 5938 463d
00000110: 36cf 7f3e 92fe a03d 4ac9 833e d51f fa3d
00000120: 3e5e f83d 1143 f4bc 6b5b 883c e07f 573d
00000130: 57b2 9b3d 1120 e43c 0f59 683e 5bba 143d
00000140: 2526 5a3e 8445 9e3d 9b5c b03d f8d1 503e
00000150: eca9 973d b46b 873d c7e1 f03d ed10 ec3d
00000160: 0b5e 703e b5f8 e63d c6a1 b33d 1bf4 013e
00000170: 80ee fb3d 7d1e 393e 12a8 e3bd a8a0 343e
00000180: c592 df3d 63a6 9d3b 6a9b 443d 2daa 7f3e
00000190: d3de 383e cd53 f03d d184 8f3e a4d1 5b3e
000001a0: 3b96 be3c cfc6 bb3b f1f1 c63d 75e7 153e
000001b0: 9b11 b53d 6a18 0b3e 1604 7b3d 10ab 9d3d
000001c0: 9dd8 d83d 4081 ce3d da27 9e3d e514 453e
000001d0: e819 2b3e 878c 103e a693 b43e 97c7 c03d
000001e0: 27ea 0a3e b673 183a cc8f ad3e 5c23 bb3d
000001f0: 7554 293e 9bf7 3e3e 77a2 173e 9c0c 573e
00000200: da40 33bd 2f0f 343e 872f d53d 4a1b 923d
00000210: 8975 80bd e408 a23c ab20 923e c10d 51bc
00000220: aece 66bd 206c 333d 84e6 68bd 98c0 dfbd
00000230: 1a94 a63d 3c08 233d 9a52 e63d 0a03 823e
00000240: b0b2 5d3e f620 ba3c e790 fe3d 6761 853e
00000250: 68c9 83bd fa76 28bd 6d9f 8dbd 8dde 72bc
00000260: cc54 eebd 1a56 efbd 12db 763d b540 fcbc
00000270: bc7d ddbd 501e d53d e71a 823e f693 943d
00000280: 609b 2fbc 3a37 283d dfe0 293d f0c0 3cbe
00000290: 199e 413e a865 683d dee6 ed3d 56ff b8bd
000002a0: 6545 4fbe 58fa fabd 2a76 b53d 4cd9 c1bd
000002b0: d454 f9bc 78aa d13d d8c8 33bd 20a6 033e
000002c0: 58d6 32bd bd6c 843d c48e 1f3e c6d4 94bd
000002d0: 695f 9d3d 1c43 873e 4a32 e4bd 67ef b03b
000002e0: 91d2 703c 4339 84bd 1408 333d 68a7 e03d
000002f0: c841 ff3c 5c6f 01bc 4ecf 113e a6ea e8bd
00000300: a698 bcbd 0895 03bd 0693 313e cb55 a33c
00000310: 28ca b23d 8f29 503e 5f5a 8ebe 998e 963e
00000320: a64e 70bc da9e 9bbc e43a 8abd ab29 433e
00000330: d3f1 ab3d 3c0e c9bd 3aa8 953e 4791 e83e
00000340: 8d60 e53d 8abd 35bd eabc 133d c05d 973e
00000350: 9cee ad3d 4670 63be c69f 413e e702 933d
00000360: 2803 3c3e 0c68 99bd beac b33d 1590 733c
00000370: c922 063d 0ad2 803d f668 27be a29c 9ebd
00000380: 9c80 af3e 1987 033d 4061 d03d c79d 82bd
00000390: 897a 843d a313 653e a6d8 7a3e bf08 a63e
000003a0: 6953 e1be e8b7 a43e 488e b63c 9ed9 273e
000003b0: 1fd7 f93d 1fc1 3e3d 57b4 a33d 2d0f cd3e
000003c0: ee6e 60bd 6dfb 093e e0dd ad3c 4568 f23e
000003d0: 8802 8e3e c80c eb3e fc67 c23e b376 943d
000003e0: 8436 e73d 2d4e e6ba e2ae 9c3e baa4 dc3e
000003f0: f9ba 933b 91b2 1cbe 0be5 8bbe 7d89 5c3e
0.018372925 -0.0093606 0.10345079 0.1815134 -0.02667487 0.31923643 0.015251878 0.20401534
0.1340066 0.14819732 -0.016262982 0.13929437 0.010262435 0.1463457 0.33611763 0.3228541
0.115562595 -0.06704697 0.36005682 0.44911656 -0.07513173 -0.10253635 0.2870688 -0.007850509
0.116486475 -0.11838749 0.54808754 0.3679421 -0.066360384 0.050227698 0.5711474 0.13983527
0.4780629 0.07478296 0.054297227 -0.11919376 0.30436975 0.4496294 0.17443733 0.33900326
-0.025594993 0.1219228 0.04221716 -0.0638333 0.20419027 0.5045248 -0.040049147 0.5807196
0.18462598 0.25784418 0.0678436 0.29714128 0.34842533 0.36372864 0.07058082 0.101674266
0.23956938 -0.005212174 0.063485354 0.44436216 0.31501484 0.044148497 -0.0698906 0.06332784
0.16226873 0.052408423 0.10454133 0.04839358 0.24981388 0.078610554 0.2573951 0.12213103
0.1212735 -0.029817136 0.016645154 0.052612185 0.07602375 0.027847322 0.22690223 0.036310535
0.21303613 0.07728103 0.08611413 0.20392597 0.07405457 0.066123396 0.117618136 0.11526666
0.23473375 0.11277906 0.0877109 0.12690775 0.1230135 0.18078037 -0.11116041 0.1763941
0.10916666 0.0048110946 0.047999777 0.2496726 0.1805375 0.11734734 0.28031018 0.2146669
0.023264995 0.005730487 0.097141154 0.14639075 0.088412486 0.13583532 0.061283194 0.07698643
0.10588191 0.10083246 0.07722445 0.19246252 0.16709101 0.14116107 0.35268897 0.09413069
0.13565885 0.0005815582 0.3389877 0.09137604 0.16536124 0.18649141 0.14808069 0.21000904
-0.04376302 0.17583917 0.10409456 0.07134111 -0.06272418 0.01977963 0.2854055 -0.012759627
-0.05634945 0.043804288 -0.05686046 -0.10925406 0.08133717 0.039802775 0.11246224 0.25392944
0.21650195 0.022720795 0.12429982 0.26050875 -0.064348996 -0.04112909 -0.06915174 -0.014823568
-0.116372675 -0.116863444 0.060267515 -0.030792573 -0.108149976 0.10406172 0.2541115 0.07254784
-0.010718197 0.041068293 0.04147422 -0.18432975 0.18907966 0.056737572 0.116163 -0.090330765
-0.20241316 -0.122547805 0.08860429 -0.09465274 -0.030435957 0.102375925 -0.04389271 0.1285634
-0.043661445 0.06466053 0.15581805 -0.07267146 0.07684214 0.26418388 -0.111424044 0.0053996327
0.01469864 -0.06456234 0.043708876 0.1096943 0.031159297 -0.007900085 0.14239237 -0.11372881
-0.09208803 -0.03212455 0.17341241 0.01993837 0.087299645 0.20328353 -0.27803323 0.29405668
-0.014667189 -0.018996645 -0.06749514 0.19058864 0.08395734 -0.09817168 0.2922991 0.45423338
0.11200056 -0.04437021 0.036068834 0.29563713 0.08492777 -0.22210798 0.18908605 0.07178288
0.18360579 -0.074905485 0.08773182 0.014865895 0.032748017 0.06290062 -0.16348633 -0.07744719
0.3427781 0.03211126 0.10174799 -0.0637775 0.06468684 0.22370772 0.24496707 0.32428548
-0.4400895 0.3217156 0.022284642 0.16391608 0.12199234 0.046570893 0.079933815 0.4005064
-0.05479329 0.13474818 0.021223962 0.47345176 0.27736306 0.4590819 0.3796996 0.072492026
0.11289695 -0.0017570906 0.30602175 0.43094426 0.004508373 -0.15302493 -0.27323183 0.21536823

gate.2.bias f4 [36]
00000000: 746a d13e b903 1b3e 76ca 163e 5311 8d3e
00000010: a2ae aa3e b521 c43d e712 b23d dfce 39bd
00000020: 07fe 423e 4935 b83d 4e10 2c3d f2ba 0dbe
00000030: 9ec2 593e 7906 5f3e 5903 4c3d 2f71 e33b
00000040: aa38 d33b 5bf3 2b3e 32d4 1e3d 5870 083e
00000050: 3435 573d 14d1 423d b2c9 793e e9e7 293d
00000060: d706 ee3d 6fca f6bd f36f 2dbd 9fe1 f2bd
00000070: a9bf 38be 77aa 8a3d 6efd ca3d d723 f0bd
00000080: 2d56 d83d 19f7 47be 4278 acbd 6083 52be
0.4090153 0.15138139 0.1472567 0.2755228 0.3333636 0.095767416 0.086950116 -0.045363303
0.19042216 0.08994538 0.042007737 -0.13840845 0.21265647 0.21779813 0.04980788 0.006940983
0.006445964 0.16792051 0.038776584 0.13324106 0.052540973 0.047562674 0.24393347 0.041480932
0.11622398 -0.1205033 -0.04234309 -0.1185944 -0.18041863 0.06770795 0.09911619 -0.11725586
0.10563312 -0.19527854 -0.08421375 -0.20557928

Wc.weight f4 [3, 6]
00000000: 8b8c e3bb 9c77 a6bb 0c84 e43a 748c b7bc
00000010: 0190 ee3c 82c3 d0ba 81d3 23bc f09d febb
00000020: 38ff ffba 00f9 013d 3a46 4fbc 4b79 253b
00000030: 4e96 e1bb f79e 99bb 1090 df39 c3d1 53bc
00000040: 155f d93b 2378 bfbb
-0.0069442443 -0.0050801765 0.0017434373 -0.02240584 0.0291214 -0.0015927406 -0.009999157 -0.0077702925
-0.0019531017 0.031731606 -0.012651021 0.0025249298 -0.006884373 -0.0046881395 0.0004264121 -0.012928429
0.006633649 -0.005843179
