checkpoints/NeuralGVAR/VOL_h1_h1_tr2022-01-01_te2025-01-01_seed5_lam5.0e-04.pt (torch, 16307 bytes, 7 tensors)

S f4 [4, 3, 3]
0.7871181 0.16302978 0.04718117 0.21371497 0.6805696 0.072396256 0.013291422 0.11173743
0.62551844 0.1787824 -0.12915415 0.019934222 -0.13467409 0.2137333 -0.012101493 -0.005347815
0.061340004 0.28630653 0.033673543 -0.008253658 0.027476145 -0.1093365 0.050299376 -0.06324812
-0.037055258 0.01696157 0.06500508 -0.063066095 -0.047871504 0.010428149 -0.019628005 0.057017844
-0.027644314 0.037124533 -0.059949033 -0.043837205
00000000: 9280 493f 47f1 263e 0b41 413d 19d8 5a3e
00000010: cf39 2e3f 7d44 943d 44c4 593c 98d6 e43d
00000020: fa21 203f bc12 373e fc40 04be 184d a33c
00000030: 01e8 09be e7dc 5a3e 5745 46bc b93c afbb
00000040: a83f 7b3d c596 923e 45ed 093d 5a3a 07bc
00000050: a715 e13c d1eb dfbd b806 4e3d 3b88 81bd
00000060: 41c7 17bd fef2 8a3c 6221 853d cc28 81bd
00000070: e914 44bd d4da 2a3c e9ca a0bc 8b8b 693d
00000080: 5476 e2bc e50f 183d 1e8d 75bd a48e 33bd

bias f4 [3]
-0.00711839 -0.0036167908 -0.014289424
00000000: 6241 e9bb ae07 6dbb 301e 6abc

gate.0.weight f4 [64, 6]
7.018549e-05 -0.14479515 0.37979233 0.17877571 0.42473757 -0.21093234 -0.12881917 0.05968407
-0.44011164 -0.32472795 -0.08426041 -0.14785253 -0.3982284 0.008409001 -0.098902576 0.36295578
0.33399 -0.2734919 0.79590976 0.37193465 0.2798995 0.5438268 0.5921366 1.036512
0.24606927 0.11864275 -0.29360458 -0.09526322 -0.16333203 -0.060870193 0.091224566 0.05716999
0.1688872 -0.2745473 -0.3200365 -0.107796505 -0.054593828 -0.27991247 -0.40366167 -0.28778437
-0.28128618 0.0064463033 -0.4357024 -0.18101066 -0.14273094 -0.121312715 0.20422424 0.14846948
-0.008882763 -0.41242653 -0.3569586 -0.3540706 -0.04460545 -0.21441102 -0.21432072 -0.07486556
-0.026204769 -0.087769456 -0.1639759 0.29008803 -0.3279374 -0.07893861 0.0076135537 0.37355858
-0.36998072 -0.07975048 0.37759754 -0.2292103 0.12479694 -0.17533691 0.16932869 -0.2143881
0.061345737 0.16540068 -0.103244916 -0.031475615 -0.30725196 -0.109360546 -0.22742282 -0.5467532
-0.3436532 0.13001932 -0.40630504 0.56881934 0.26329422 -0.52159804 0.16729255 -0.375069
-0.37162983 0.2690307 -0.17012686 -0.04664396 0.07822115 0.36868548 -0.08392557 -0.16778217
0.1651365 -0.41554505 -0.25225943 0.049473543 0.033994433 0.12977327 -0.0009559726 -0.54278606
-0.18217999 -0.71363145 -0.12490842 0.14518005 0.23799622 0.19837923 0.16708188 0.33355695
0.53058445 0.3499611 0.14667338 -0.37229425 0.17908491 0.38222232 -0.3871341 1.0048444
0.18741173 -0.10486696 -0.35220468 -0.5032994 -0.20484015 -0.33553252 -0.029911054 0.012674707
-0.31648478 -0.49090585 -0.07350312 -0.4095985 -0.02644055 -0.13139749 0.100881904 0.33035773
0.21112187 -0.27770653 0.009326524 -0.02582895 0.28004023 0.19132227 -0.26954085 0.03927725
0.24392137 0.0893536 -0.16853374 -0.47654518 -0.26903734 -0.064151235 0.075037226 0.039502792
0.27187923 0.112931006 0.4100182 0.50164235 0.33719042 -0.44569975 0.50039893 -0.02376059
-0.54085195 0.2438334 -0.15261726 0.3398135 0.20654686 -0.3045572 -0.3427161 -0.0013022074
0.04733463 0.2289565 -0.5659792 0.54466176 0.12750633 0.6905617 -0.24496117 -0.04128184
0.03856671 0.5860186 -0.23685427 -0.19400115 0.2994199 0.26757398 -0.5777486 0.069533005
-0.32682642 0.6751694 -0.008383573 0.44414055 0.26525438 -0.11477457 0.0561117 0.17682868
-0.014481978 0.034016833 0.023424327 -0.03804871 0.17269741 -0.3175548 -0.06923971 -0.27897036
-0.08226498 -0.08412888 0.14089927 -0.35734656 -0.40963033 0.24405064 0.004851421 -0.24911487
-0.0848345 -0.01631759 -0.44619304 -0.34413022 -0.18256448 0.60110426 -0.0016989377 -0.3836174
-0.060671356 -0.06408344 0.28163293 0.14016265 0.1979718 -0.15795581 0.27429497 -0.3376948
0.04196285 -0.38405117 -0.39054844 0.28774384 0.22638279 0.015392229 -0.0034344816 -0.24957328
0.34229863 -0.37987933 -0.12208196 0.43859193 -0.123165555 0.13098341 -0.45160037 0.20463467
-0.5126178 0.13929631 0.02807634 -0.31065604 0.030619048 -0.057144146 0.44733387 -0.57976085
0.21329787 -0.80008125 -0.16788515 0.24588059 0.017877009 0.04060205 -0.3531892 0.52103907
00000000: 8c30 9338 2e45 14be 2474 c23e fb10 373e
00000010: 3477 d93e a6fe 57be 2ce9 03be 4977 743d
00000020: 5056 e1be be42 a6be b990 acbd a766 17be
00000030: 98e4 cbbe e8c5 093c 6f8d cabd 57d5 b93e
00000040: bd00 ab3e 2107 8cbe bec0 4b3f 386e be3e
00000050: fd4e 8f3e 3c38 0b3f 4496 173f 6dac 843f
00000060: 95f9 7b3e f8fa f23d 5753 96be 5d19 c3bd
00000070: 8340 27be 0653 79bd f2d3 ba3d 142b 6a3d
00000080: c4f0 2c3e 7791 8cbe d3db a3be 6ac4 dcbd
00000090: c79d 5fbd b050 8fbe beac cebe 7958 93be
000000a0: be04 90be 833b d33b 6314 dfbe dc5a 39be
000000b0: 0f28 12be cd72 f8bd 2920 513e 6208 183e
000000c0: 0289 11bc 9229 d3be 47c3 b6be be48 b5be
000000d0: 34b4 36bd 908e 5bbe e476 5bbe 1d53 99bd
000000e0: 62ab d6bc 79c0 b3bd 4ce9 27be 6b86 943e
000000f0: 69e7 a7be 91aa a1bd 1e7b f93b 1243 bf3e
00000100: 1d6e bdbe 3854 a3bd 7754 c13e 1bb6 6abe
00000110: 8a95 ff3d 858b 33be 8064 2d3e 8e88 5bbe
00000120: ab45 7b3d cc5e 293e 1272 d3bd 93ec 00bd
00000130: 2150 9dbe 6cf8 dfbd 87e1 68be 05f8 0bbf
00000140: 50f3 afbe c923 053e 3707 d0be 259e 113f
00000150: 80ce 863e 7387 05bf bd4e 2b3e 0b09 c0be
00000160: 4446 bebe 64be 893e bc35 2ebe bd0d 3fbd
00000170: 6932 a03d 58c4 bc3e 2be1 abbd 17cf 2bbe
00000180: 8b19 293e 52c2 d4be 2628 81be c5a4 4a3d
00000190: bf3d 0b3d 49e3 043e 3c9a 7aba 07f4 0abf
000001a0: 648d 3abe 8db0 36bf fccf ffbd 14aa 143e
000001b0: 48b5 733e ed23 4b3e 8317 2b3e fac7 aa3e
000001c0: 62d4 073f 1a2e b33e 8c31 163e 5a9d bebe
000001d0: 0962 373e a5b2 c33e 7136 c6be be9e 803f
000001e0: dce8 3f3e 7dc4 d6bd 2c54 b4be 3bd8 00bf
000001f0: 9ec1 51be ebca abbe 0708 f5bc 93a9 4f3c
00000200: 4b0a a2be 0358 fbbe ce88 96bd e5b6 d1be
00000210: da99 d8bc 108d 06be 2c9b ce3d a624 a93e
00000220: 5530 583e 8d2f 8ebe 47ce 183c 3c97 d3bc
00000230: 6f61 8f3e fce9 433e 4201 8abe 2fe1 203d
00000240: 86c6 793e 05ff b63d 1c94 2cbe bbfd f3be
00000250: 43bf 89be b961 83bd 1ead 993d aecd 213d
00000260: c133 8b3e 5f48 e73d e8ed d13e a26b 003f
00000270: 39a4 ac3e c232 e4be 251a 003f 92a5 c2bc
00000280: 4675 0abf 76af 793e b347 1cbe 09fc ad3e
00000290: 0581 533e ecee 9bbe 7c78 afbe d4ae aaba
000002a0: f5e1 413d 9373 6a3e 03e4 10bf f46e 0b3f
000002b0: 0591 023e a7c8 303f 1ad7 7abe 2617 29bd
000002c0: 20f8 1d3d 5105 163f ed89 72be 3da8 46be
000002d0: 914d 993e 75ff 883e 55e7 13bf 5267 8e3d
000002e0: cb55 a7be e7d7 2c3f 415b 09bc 6466 e33e
000002f0: 6ccf 873e ee0e ebbd 62d5 653d 9412 353e
00000300: d145 6dbc 3c55 0b3d 60e4 bf3c f7d8 1bbd
00000310: 97d7 303e 8b96 a2be 8dcd 8dbd 34d5 8ebe
00000320: 8b7a a8bd c34b acbd e647 103e 21f6 b6be
00000330: 11bb d1be 69e8 793e abf8 9e3b f817 7fbe
00000340: b6bd adbd 77ac 85bc 6a73 e4be d631 b0be
00000350: 2ff2 3abe f8e1 193f e4ae deba 8069 c4be
00000360: 8782 78bd 2e3e 83bd 3132 903e cc86 0f3e
00000370: 1fb9 4a3e 2bbf 21be 6470 8c3e 55e6 acbe
00000380: 3de1 2b3d 5ba2 c4be f7f5 c7be 2953 933e
00000390: e4d0 673e b02f 7c3c 0a15 61bb 2390 7fbe
000003a0: c441 af3e 8b7f c2be 1b06 fabd 1f8f e03e
000003b0: 393e fcbd 8420 063e 2a38 e7be c08b 513e
000003c0: ec3a 03bf b1a3 0e3e 5a00 e63c 4f0e 9fbe
000003d0: ccd4 fa3c fb0f 6abd f208 e53e 356b 14bf
000003e0: c26a 5a3e 20d2 4cbf 16ea 2bbe 1fc8 7b3e
000003f0: ce72 923c 564e 263d 37d5 b4be d162 053f

gate.0.bias f4 [64]
-0.20925087 0.71981364 0.31324363 -0.060243446 0.40974706 0.83325005 -0.11907897 0.7560832
0.6432071 0.8333011 0.6202592 0.5073041 0.5726009 0.19740707 0.65449965 -0.22996452
0.8134696 0.25272313 0.27971843 1.1019934 0.26254603 0.32996604 -0.039848227 -0.26881117
-0.30828443 0.24886094 0.28319138 0.5589766 0.28926957 0.23154122 -0.22701243 -0.27294803
-0.26383564 -0.28989673 -0.23536676 0.29757968 0.6313038 0.44738227 -0.25128242 -0.34432292
-0.3518432 1.1109836 0.19928834 0.7431959 0.5391193 0.119325496 -0.37544212 -0.1873747
0.8212406 -0.4377558 0.65704256 -0.40892205 -0.06745401 0.50314736 0.25066632 -0.3471688
1.0392945 0.46368763 -0.2229828 0.7089145 0.7721291 0.12831683 0.4953108 0.75550026
00000000: dc45 56be b545 383f 7861 a03e d5c1 76bd
00000010: 5eca d13e e04f 553f addf f3bd ab8e 413f
00000020: 38a9 243f 3953 553f 4fc9 1e3f aede 013f
00000030: f995 123f 1425 4a3e 4a8d 273f d27b 6bbe
00000040: 8b3f 503f ed64 813e 4137 8f3e 1f0e 8d3f
00000050: 6f6c 863e 4ff1 a83e e537 23bd 9ea1 89be
00000060: 75d7 9dbe 67d5 7e3e 76fe 903e 1719 0f3f
00000070: 241b 943e 2419 6d3e f275 68be d8bf 8bbe
00000080: 7715 87be 586d 94be fc03 71be 5d5c 983e
00000090: 209d 213f 4a0f e53e 17a8 80be 184b b0be
000000a0: cb24 b4be b634 8e3f 3e12 4c3e 1642 3e3f
000000b0: b903 0a3f ed60 f43d f339 c0be 27df 3fbe
000000c0: d33c 523f 8721 e0be f133 283f 3b5e d1be
000000d0: 5425 8abd 44ce 003f 5657 803e 1cc0 b1be
000000e0: 9a07 853f 7768 ed3e 9a55 64be 6c7b 353f
000000f0: 41aa 453f 7d65 033e 6199 fd3e 7768 413f

gate.2.weight f4 [36, 64]
0.058900785 0.22250178 0.45258448 0.07672436 0.2117117 0.28152716 0.017253703 0.336365
0.10423876 0.18514019 0.23213747 0.40134695 0.2299037 0.14764975 0.2480341 -0.032966956
0.5040528 0.052002907 0.41347113 0.53434783 0.010291469 0.1260345 0.089857906 0.13839102
0.14103031 0.29180005 0.0811179 0.13148084 0.15411174 0.26250634 -0.03847647 0.16070458
0.16935274 0.07670261 0.17085776 0.22617038 0.47716683 0.05825507 0.06899254 0.16475362
0.07036956 1.0315272 0.27243495 0.31510788 0.41419625 0.07955093 -0.0488589 -0.0008027256
0.36782032 -0.029581886 0.6826569 -0.016171709 0.30321348 0.20686708 0.077909 0.16335855
0.7377474 0.047269307 0.07226573 0.39702386 0.33852983 -0.010350214 0.060075358 0.23284198
0.18855213 0.12696382 0.28843582 0.12568341 0.26160398 0.18885168 0.15372132 0.32953268
0.19186461 0.25668356 0.088228725 0.36374688 0.15369841 0.14022069 0.02554733 0.114534505
0.32659367 0.21947339 0.24312912 0.23268305 0.038771868 0.17580844 0.05282505 -0.0024373522
0.16895965 0.29997802 0.14613323 0.21832755 0.0799859 0.2571132 0.075698204 0.023300827
0.15297797 -0.09442241 0.17450358 0.09132919 0.50690794 0.098751985 -0.02200291 -0.0046053296
0.10946126 0.48902985 0.36104202 0.25002676 0.1649833 0.04619875 0.027762348 -0.051784787
0.21387626 0.020278875 0.35780203 0.058636323 0.054183275 0.1378233 0.15045328 0.029082926
0.20350997 0.080995776 0.10030296 0.22041982 0.36439812 0.17557375 0.26871687 0.3617262
-0.107484 0.00865043 0.10036448 -0.3015343 0.017429957 -0.15345417 -0.065516114 0.10353091
0.05090819 0.13172722 0.11002434 -0.17369711 -0.053122506 -0.024381448 0.010526672 -0.07929982
0.11825951 -0.06640033 -0.2927611 0.08965618 -0.11166727 -0.13818157 -0.08743622 -0.029369248
-0.14279662 -0.24713331 -0.15671144 0.0025465486 -0.03777586 0.09490239 0.043419432 -0.095586665
-0.09512654 0.053466994 0.038133483 0.040199153 -0.09533512 0.075029805 -0.07202043 -0.093767956
0.070470236 -0.19058308 -0.19657041 0.110279605 -0.1260297 -0.087453395 0.08020604 0.045354143
0.14474396 -0.09897539 -0.05471934 -0.048997484 -0.24763282 -0.115013674 -0.0589921 0.05140681
-0.24207906 -0.013125479 -0.07526384 0.24855293 0.07818307 -0.19989881 -0.08649936 -0.07740208
0.15098073 0.14246625 0.1926797 -0.05809263 0.2801663 0.12898178 -0.047477536 0.2191777
0.088255934 0.2442771 0.22636904 0.2903811 0.15757562 0.20438707 0.13869463 0.016097853
0.46573716 0.18214174 0.2137694 0.34525713 0.1396963 0.013701844 0.14494492 0.000555904
-0.020086614 0.07353652 0.1049267 0.1875684 0.10155042 0.14490372 -0.10658091 -0.08250993
0.09105679 -0.0925184 0.07699656 0.12229781 0.4188271 0.29578418 0.08322734 -0.12892386
-0.11459544 0.5031019 0.20336547 0.262116 0.2928377 0.0033779552 -0.0388434 -0.096623994
0.25762016 -0.0540765 0.23551267 -0.05928207 0.10069146 0.36633 0.025908647 0.07565629
0.0518555 0.27323642 -0.084962994 0.2967339 0.38584146 0.23510906 0.09291058 0.20135294
00000000: f341 713d 82d7 633e 27b9 e73e a921 9d3d
00000010: f4ca 583e 5424 903e a357 8d3c 0938 ac3e
00000020: 227b d53d 6495 3d3e 72b5 6d3e 597d cd3e
00000030: e06b 6b3e 7f31 173e a7fc 7d3e 5c08 07bd
00000040: 9b09 013f 0001 553d 7db2 d33e 05cb 083f
00000050: 8d9d 283c 300f 013e 6c07 b83d 60b6 0d3e
00000060: 406a 103e d166 953e 2421 a63d eaa2 063e
00000070: 78cf 1d3e 3b67 863e 8199 1dbd be8f 243e
00000080: ce6a 2d3e 4216 9d3d 56f5 2e3e 3599 673e
00000090: 364f f43e de9c 6e3d f64b 8d3d 2cb5 283e
000000a0: ea1d 903d 1509 843f 987c 8b3e d255 a13e
000000b0: 8811 d43e 99eb a23d 4520 48bd 016e 52ba
000000c0: f252 bc3e b655 f2bc 9ac2 2e3f 887a 84bc
000000d0: cc3e 9b3e f7d4 533e c18e 9f3d 7747 273e
000000e0: 03dd 3c3f 769d 413d 0e00 943d b646 cb3e
000000f0: c853 ad3e f293 29bc 9411 763d 216e 6e3e
00000100: cf13 413e ce02 023e dcad 933e 27b3 003e
00000110: f5f0 853e 5662 413e 1f69 1d3e 82b8 a83e
00000120: 2878 443e 076c 833e 43b1 b43d 083d ba3e
00000130: 1e63 1d3e 0396 0f3e a248 d13c 1191 ea3d
00000140: 4937 a73e a2bd 603e d7f6 783e 7744 6e3e
00000150: 40cf 1e3d 2107 343e 145f 583d fcbb 1fbb
00000160: c203 2d3e b896 993e f3a3 153e 4291 5f3e
00000170: a6cf a33d 57a4 833e a907 9b3d 60e1 be3c
00000180: 42a6 1c3e 8960 c1bd 11b1 323e cc0a bb3d
00000190: b8c4 013f 7b3e ca3d 723f b4bc 4ee8 96bb
000001a0: 3a2d e03d 1f62 fa3e 80da b83e 8203 803e
000001b0: 62f1 283e e73a 3d3d dd6d e33c 491c 54bd
000001c0: 6102 5b3e e21f a63c d431 b73e a42c 703d
000001d0: 48ef 5d3d 8d21 0d3e 6d10 1a3e 513f ee3c
000001e0: eb64 503e 1de1 a53d a36b cd3d bcb5 613e
000001f0: 6492 ba3e 9bc9 333e 4295 893e 2d34 b93e
00000200: 9220 dcbd 88ba 0d3c e48b cd3d b462 9abe
00000210: 45c9 8e3c 1723 1dbe 502d 86bd 0408 d43d
00000220: 1b85 503d 80e3 063e 7154 e13d a8dd 31be
00000230: fc96 59bd 9abb c7bc 1078 2c3c f267 a2bd
00000240: 0b32 f23d e5fc 87bd c8e4 95be a99d b73d
00000250: cfb1 e4bd 787f 0dbe c311 b3bd c797 f0bc
00000260: 4739 12be 8410 7dbe f778 20be ffe3 263b
00000270: dcba 1abd 2f5c c23d 93d8 313d f1c2 c3bd
00000280: b4d1 c2bd 3500 5b3d db31 1c3d dea7 243d
00000290: 0f3f c3bd 3aa9 993d 727f 93bd 6a09 c0bd
000002a0: b352 903d 3628 43be c149 49be 46da e13d
000002b0: ee0d 01be c41a b3bd 1043 a43d 44c5 393d
000002c0: c337 143e 9cb3 cabd 6321 60bd 96b1 48bd
000002d0: 7593 7dbe 4a8c ebbd b3a1 71bd f28f 523d
000002e0: 93e3 77be 400c 57bc ee23 9abd a984 7e3e
000002f0: 721e a03d 46b2 4cbe 9426 b1bd fb84 9ebd
00000300: b19a 1a3e ace2 113e d44d 453e 8af2 6dbd
00000310: f571 8f3e cd13 043e ce77 42bd 1e70 603e
00000320: 87bf b43d c723 7a3e 49cd 673e d5ac 943e
00000330: 815b 213e d84a 513e f705 0e3e a5df 833c
00000340: 1a75 ee3e 5d83 3a3e 5ee6 5a3e 8bc5 b03e
00000350: 8c0c 0f3e b37d 603c 716c 143e 16ba 113a
00000360: af8c a4bc 519a 963d cfe3 d63d ee11 403e
00000370: abf9 cf3d a461 143e 1847 dabd f7fa a8bd
00000380: fb7b ba3d 497a bdbd 5fb0 9d3d 4677 fa3d
00000390: 8170 d63e 0671 973e 1873 aa3d 9e04 04be
000003a0: 04b1 eabd 49cb 003f 0a3f 503e 1134 863e
000003b0: d3ee 953e af60 5d3b 421a 1fbd cde2 c5bd
000003c0: cae6 833e 527f 5dbd 3c2a 713e c1d1 72bd
000003d0: 5337 ce3d 9b8f bb3e 5f3e d43c aff1 9a3d
000003e0: 6f66 543d a5e5 8b3e 1401 aebd 81ed 973e
000003f0: 038d c53e 6ec0 703e e747 be3d 772f 4e3e

gate.2.bias f4 [36]
0.23509632 0.16866633 0.009450829 0.32318032 0.3428111 0.15283342 0.103980474 0.34178793
0.38890955 0.108696006 0.2171002 -0.08189427 0.14059338 0.249945 -0.031752415 -0.12246099
0.00025158643 0.33526102 0.05416154 0.068521164 -0.06993098 -0.030406013 0.11411619 -0.045485303
0.07137993 -0.078478076 0.22729631 -0.025877347 0.011038617 -0.09368759 0.06224102 0.0377331
-0.086098894 -0.11996909 0.10390188 0.15985478
00000000: 17bd 703e deb6 2c3e a6d7 1a3c e477 a53e
00000010: f084 af3e 5d80 1c3e b7f3 d43d d4fe ae3e
00000020: 271f c73e 039c de3d 844f 5e3e 2fb8 a7bd
00000030: b6f7 0f3e 95f1 7f3e d20e 02bd d4cc fabd
00000040: 5ce7 8339 55a7 ab3e 7ed8 5d3d d354 8c3d
00000050: f937 8fbd 0816 f9bc c0b5 e93d cc4e 3abd
00000060: a42f 923d 1db9 a0bd 5dc0 683e bbfc d3bc
00000070: 51db 343c 47df bfbd 71f0 7e3d 068e 1a3d
00000080: 9e54 b0bd 5bb2 f5bd 82ca d43d f9b0 233e

Wc.weight f4 [3, 6]
-0.003033624 0.0017498204 0.002203242 0.0085644275 -0.0016909919 0.009353906 0.0012732313 0.004518808
5.202403e-05 0.021326812 -0.0070463927 0.0015829031 -0.0054979157 -0.00300644 0.0033301907 0.020401886
-0.010756028 -0.0018564777
00000000: c4cf 46bb 3b5a e53a 4464 103b d051 0c3c
00000010: 46a4 ddba 2041 193c 8ee2 a63a 8212 943b
00000020: 6034 5a38 91b5 ae3c 6de5 e6bb 6a79 cf3a
00000030: dc27 b4bb b107 45bb 543f 5a3b db21 a73c
00000040: 0d3a 30bc 0e55 f3ba
