checkpoints/NeuralGVAR/VOL_h4_h4_tr2021-01-01_te2023-01-01_seed2_lam1.0e-04.pt (torch, 16307 bytes, 7 tensors)

S f4 [4, 3, 3]
0.64518553 0.16258194 0.12222713 0.14219774 0.58283037 0.14330105 0.09532279 0.1798238
0.5876231 0.2281295 0.014292199 0.02681185 0.08678496 0.24229355 0.07989278 0.06983693
0.046659593 0.27304998 0.05139134 0.010880667 -0.0074388506 0.054438565 0.06753579 0.0783617
0.023507353 0.03636328 0.06604524 -0.07663282 -0.08160048 -0.08746773 0.01959644 0.06897351
0.07549257 0.09617416 -0.12265947 0.032666925
00000000: e12a 253f e17b 263e 3852 fa3d 499c 113e
00000010: 5f34 153f 83bd 123e 9838 c33d bb23 383e
00000020: 786e 163f c89a 693e d429 6a3c 86a4 db3c
00000030: 50bc b13d cd1b 783e d39e a33d aa06 8f3d
00000040: 211e 3f3d 35cd 8b3e ba7f 523d d344 323c
00000050: 9ac1 f3bb f9fa 5e3d 3450 8a3d 197c a03d
00000060: 7e92 c03c aaf1 143d ba42 873d abf1 9cbd
00000070: 271e a7bd 4822 b3bd b788 a03c fc41 8d3d
00000080: d99b 9a3d f5f6 c43d e334 fbbd c1cd 053d

bias f4 [3]
-0.016611641 -0.010869569 -0.0039482056
00000000: 2315 88bc 4716 32bc f35f 81bb

gate.0.weight f4 [64, 6]
0.25538546 -0.12550598 -0.43948504 -0.04342506 -0.07033556 0.29012832 0.12425587 0.29710436
-0.079192065 -0.28881434 0.40583083 0.7543585 0.69228387 0.020728981 0.26090276 -1.0844786
-0.61136365 0.17821635 -0.4671669 0.5860057 -0.3581353 0.23832098 0.0492073 0.103611685
0.20830442 -0.14137453 0.06032919 -0.3011057 0.49395996 -0.08194517 -0.3914438 -0.14061394
-0.037367158 -0.2514095 -0.013427939 0.13282277 0.075821824 -0.42580456 -0.28761896 -0.21390846
0.38882348 0.009962048 0.18991442 -0.079133466 -0.64216805 -0.3378287 -0.36421984 -0.09224932
-0.44960028 -0.07025414 -0.44933328 0.3079825 0.29464042 0.23751302 0.19774018 -0.032245617
-0.2033941 0.13745764 0.5471269 -0.3510903 -0.037850156 -0.14350766 -0.42112207 0.006850479
-0.0591532 0.37807795 0.07097809 -0.08938399 0.083582334 0.27354157 -0.34544298 0.27683404
0.039347526 -0.07310055 0.070306994 0.5063718 -0.45539522 -0.36479026 -0.5687217 -0.13734423
-0.09194307 -0.39019328 0.48753923 0.26945174 0.13445126 -0.40589532 0.15300632 -0.17050713
-0.5922348 -0.048501857 0.17800821 0.05523948 -0.2257839 0.3557906 -0.3715532 0.60344005
0.48148778 -0.39102533 -0.23261453 -0.39201364 -0.6334168 0.039815173 -0.07422695 -0.330284
-0.1624995 0.11828468 0.54844373 0.23832843 -0.22709055 0.087087266 -0.110706955 -0.62082916
-0.017003218 0.09498521 -0.1428316 -0.046620693 -0.28848717 -0.40096822 -0.2827942 0.01228652
0.28024572 -0.26742935 -0.56759053 -0.102654725 -0.48519075 0.01853465 0.22650197 -0.21933307
-0.3929924 0.052169688 0.3201211 0.10480779 -0.4227962 -0.26392984 0.12526074 0.14988177
0.4030505 0.2108135 0.101498105 -0.5253949 0.020012585 0.18567842 -0.06448752 -0.17833826
0.063167326 -0.19712609 -0.06471317 0.40278023 -0.3291082 -0.29084048 -0.44389966 -0.43261874
0.05166722 0.22874515 0.10378081 -0.18275608 0.16440661 0.07504891 -0.031430155 0.060206503
0.3007538 -0.31173596 -0.22755429 -0.17630261 0.12850773 0.1766481 0.2926638 0.767543
-0.0042666057 -0.15644315 0.1911726 0.38106582 -0.0080673685 -0.23669794 0.16393706 0.7020818
0.16887185 -0.8166813 -0.4074435 0.220839 0.14772668 -0.11116261 -0.3713525 -0.05516603
-0.14704637 -0.18926737 -0.47192737 -0.38646662 -0.052183773 0.25725043 -0.469999 -0.53276426
0.4097309 0.27781987 0.28947395 0.2996232 -0.25130644 -0.18572372 -0.1464646 -0.16697407
-0.10553646 -0.564263 -0.45748425 0.18555008 0.33796936 0.48035625 0.39488596 0.30960867
-0.13892464 -0.26747358 0.17046466 0.25236878 -0.46557036 0.2128485 -0.36928213 -0.39303842
0.16641723 -0.04607924 -0.10363819 0.23136911 -0.050325178 -0.024326403 -0.91978425 -0.40099195
-0.10958532 -0.04175848 -0.007031148 0.0415156 -0.008755851 -0.062991254 0.0011476707 -0.18580504
0.43102717 -0.28243294 0.19091077 -0.2704355 0.07094339 -0.42750618 -0.40175048 0.014661738
0.026842277 -0.040088054 0.6151924 -0.43491694 0.15825795 0.32021272 0.029040009 -0.020810345
-0.015805371 -0.24791081 0.50211513 -0.1555695 0.11469453 0.090358384 0.09789382 -0.29418227
00000000: e2c1 823e a484 00be 2f04 e1be 7ade 31bd
00000010: 170c 90bd b38b 943e dd79 fe3d 101e 983e
00000020: 732f a2bd 79df 93be 0fc9 cf3e a31d 413f
00000030: 8439 313f d3cf a93c 0c95 853e 32d0 8abf
00000040: 5482 1cbf 597e 363e 8030 efbe 7804 163f
00000050: 835d b7be 6a0a 743e 988d 493d 5d32 d43d
00000060: c14d 553e 7cc4 10be be1b 773d 872a 9abe
00000070: 52e8 fc3e dfd2 a7bd 526b c8be 1afd 0fbe
00000080: 4e0e 19bd bfb8 80be dc00 5cbc b102 083e
00000090: 7948 9b3d 0e03 dabe cb42 93be d20a 5bbe
000000a0: df13 c73e dc37 233c ed78 423e ba10 a2bd
000000b0: 2065 24bf e2f7 acbe 067b babe 36ed bcbd
000000c0: 0232 e6be 67e1 8fbd 030f e6be e2af 9d3e
000000d0: 1cdb 963e 9d36 733e 677c 4a3e fb13 04bd
000000e0: 8b46 50be b2c1 0c3e 8210 0c3f 1cc2 b3be
000000f0: c408 1bbd acf3 12be 509d d7be fc79 e03b
00000100: a04a 72bd 6f93 c13e f65c 913d f40e b7bd
00000110: 372d ab3d a40d 8c3e e7dd b0be 31bd 8d3e
00000120: df2a 213d beb5 95bd 1dfd 8f3d 95a1 013f
00000130: 9029 e9be cac5 babe bf97 11bf f7a3 0cbe
00000140: a64c bcbd 6ac7 c7be be9e f93e 94f5 893e
00000150: 97ad 093e 83d1 cfbe b0ad 1c3e 6c99 2ebe
00000160: b39c 17bf e2a9 46bd c947 363e cb42 623d
00000170: e533 67be 2f2a b63e 393c bebe 0c7b 1a3f
00000180: 9185 f63e 7934 c8be 8132 6ebe 03b6 c8be
00000190: 9a27 22bf 3c15 233d 4d04 98bd fc1a a9be
000001a0: 4566 26be 3d3f f23d cf66 0c3f 5e0c 743e
000001b0: 6d8a 68be cf5a b23d 54ba e2bd a9ee 1ebf
000001c0: 554a 8bbc 9b87 c23d 7242 12be 57f5 3ebd
000001d0: 97b4 93be b54b cdbe 67ca 90be 664d 493c
000001e0: 5e7c 8f3e 80ec 88be 9d4d 11bf a43c d2bd
000001f0: ec6a f8be fad5 973c 22f0 673e d998 60be
00000200: 4d36 c9be e2af 553d eae6 a33e 77a5 d63d
00000210: be78 d8be d021 87be 5a44 003e 9b7a 193e
00000220: a35c ce3e 7fdf 573e 3dde cf3d 4880 06bf
00000230: 6ff1 a33c 7c22 3e3e 0812 84bd 4e9e 36be
00000240: df5d 813d 6cdb 49be 5788 84bd 3639 ce3e
00000250: df80 a8be 0be9 94be d146 e3be 3480 ddbe
00000260: 02a1 533d 2b3c 6a3e 098b d43d 6924 3bbe
00000270: 355a 283e 3eb3 993d e8bc 00bd 189b 763d
00000280: 67fc 993e db9b 9fbe fe03 69be ac88 34be
00000290: 8897 033e 3de3 343e 08d8 953e b37d 443f
000002a0: e2ce 8bbb a232 20be c0c2 433e 0f1b c33e
000002b0: ff2c 04bc f260 72be 1edf 273e a2bb 333f
000002c0: beec 2c3e 0712 51bf 6f9c d0be 9e23 623e
000002d0: aa45 173e 39a9 e3bd ea21 bebe c6f5 61bd
000002e0: 5393 16be 4ecf 41be 77a0 f1be f4de c5be
000002f0: a7be 55bd 54b6 833e b5a3 f0be 3d63 08bf
00000300: 40c8 d13e 683e 8e3e ee35 943e 3668 993e
00000310: 3dab 80be 5c2e 3ebe d1fa 15be 40fb 2abe
00000320: 8023 d8bd 8a73 10bf 603b eabe d700 3e3e
00000330: 520a ad3e 41f1 f53e 7e2e ca3e 0785 9e3e
00000340: 4342 0ebe 4cf2 88be 4a8e 2e3e 7b36 813e
00000350: 3d5f eebe f5f4 593e 8c12 bdbe 553c c9be
00000360: 4769 2a3e 96bd 3cbd 4240 d4bd 06ec 6c3e
00000370: c621 4ebd 2a48 c7bc fb76 6bbf d14e cdbe
00000380: 456e e0bd f10a 2bbd 8b65 e6bb 430c 2a3d
00000390: b374 0fbc 8f01 81bd 706d 963a ad43 3ebe
000003a0: 98af dc3e 0d9b 90be 1d7e 433e 8676 8abe
000003b0: c54a 913d 17e2 dabe 3db2 cdbe c937 703c
000003c0: 56e4 db3c 5f33 24bd 407d 1d3f 6fad debe
000003d0: 5f0e 223e ecf2 a33e 50e5 ed3c 757a aabc
000003e0: 447a 81bc 55dc 7dbe 9e8a 003f 9c4d 1fbe
000003f0: f7e4 ea3d d10d b93d 8e7c c83d 0f9f 96be

gate.0.bias f4 [64]
0.5654537 -0.2066132 0.53575253 -0.27931014 -0.3865653 0.42161828 0.57500315 0.5952794
-0.23151606 0.19157946 0.52444327 0.6321139 -0.56119394 -0.08654042 0.21304333 0.5019573
0.37462917 -0.17694333 0.2915147 0.19287361 0.17330734 0.18975314 -0.19959943 0.6421149
0.1507427 0.24667893 -0.48158777 0.22394516 0.31243542 0.5818691 0.18722673 0.0109363925
-0.43562326 0.29699504 -0.47452742 0.36270356 0.5390418 -0.14104137 -0.01965416 0.20479988
-0.3177629 -0.30861214 0.75637335 0.6349139 0.05747224 0.5451861 0.5917625 0.47100958
-0.320872 0.731079 0.3612289 0.33520314 0.10980969 0.75829846 -0.3485013 0.20834763
0.16045757 -0.36601418 0.056522105 -0.2709523 0.5458365 -0.51220876 0.3906042 0.71701074
00000000: 93c1 103f 6992 53be 1427 093f bd01 8fbe
00000010: e3eb c5be 5ade d73e 6833 133f 3b64 183f
00000020: 8c12 6dbe 682d 443e ea41 063f 37d2 213f
00000030: 68aa 0fbf 1b3c b1bd 0828 5a3e 4680 003f
00000040: 65cf bf3e a230 35be 6a41 953e a980 453e
00000050: 7b77 313e a64e 423e cb63 4cbe a461 243f
00000060: 4b5c 1a3e 6799 7c3e ac92 f6be e151 653e
00000070: 89f7 9f3e 60f5 143f 5db8 3f3e 8e2e 333c
00000080: 030a dfbe bc0f 983e 42f5 f2be 48b4 b93e
00000090: a5fe 093f 266d 10be c301 a1bc 0fb7 513e
000000a0: d2b1 a2be 6902 9ebe afa1 413f b889 223f
000000b0: 0368 6b3d 5191 0b3f bf7d 173f 2b28 f13e
000000c0: 5649 a4be fe27 3b3f fff2 b83e bf9f ab3e
000000d0: e7e3 e03d d91f 423f c36e b2be 1559 553e
000000e0: fd4e 243e 3666 bbbe b983 673d 43ba 8abe
000000f0: f1bb 0b3f 1d20 03bf 46fd c73e 048e 373f

gate.2.weight f4 [36, 64]
0.47779623 0.2396576 0.5225005 -0.009811867 -0.014202017 0.5279546 0.35322693 0.17664343
0.05031578 0.35224107 0.49150285 0.30603522 0.17639296 0.14235377 0.29619667 0.2493377
0.5005117 0.21751444 0.43776786 0.29668272 0.24816011 0.40136078 0.054425046 0.25057974
0.29476175 0.33518174 -0.08168701 0.13744889 0.43583426 0.30692002 0.36292174 0.35151803
0.055352546 0.24943264 0.048002757 0.41937643 0.30512267 0.11738099 0.20738521 0.23711392
0.06917757 0.3559841 0.21313581 0.4533817 0.26974896 0.35171032 0.4382966 0.44601232
0.1486827 0.46854344 0.2510977 0.29262117 0.38830912 0.44455826 -0.021222165 0.3353317
0.6125207 0.10006933 0.22316252 0.14856555 0.45115024 0.05311355 0.3663937 0.17603345
0.076322466 -0.015393698 0.074191235 0.10905697 0.0019200388 0.17255703 0.14915904 0.22057274
0.18291242 0.17266448 0.15324065 0.28992394 0.024403816 0.047442887 0.14510962 0.21887894
0.23399073 0.16476364 0.01856671 0.15423414 0.2549637 0.15335093 0.12327483 0.20826575
0.2950411 0.18194191 0.08664599 0.17659871 0.1976321 0.05078194 0.3155056 0.4182281
0.11938399 0.13676088 0.03931612 0.32382894 0.24894935 0.13536045 0.25387278 0.30057
0.09195854 0.24174792 0.121767685 0.060741954 0.2528885 0.18445465 0.075041324 0.13792713
0.09338105 0.31877103 0.21803643 0.29940644 0.21485823 0.14061835 0.10418054 0.35607234
0.27603617 0.109116405 0.44752967 0.1808361 -0.08818842 0.060864847 -0.21366107 -0.08736867
0.24899803 0.29450917 -0.19300796 0.10472862 0.11160132 0.20693347 0.32595512 -0.03486985
-0.09630858 -0.2060021 0.20195867 0.18300414 -0.24867074 0.29221103 -0.069070116 -0.05954264
-0.029602215 -0.067808546 0.079306655 0.053704746 0.024701213 -0.004270802 -0.010287617 0.15660432
0.041235078 -0.01959456 -0.2295966 -0.055017877 0.04349831 -0.02222704 -0.038211443 -0.04369489
0.0025352628 0.07833878 -0.20517224 -0.017655866 0.017108116 0.115153514 -0.15989256 0.008091418
0.37714446 -0.19408014 0.22465865 0.1671112 -0.05548824 0.10437912 0.112296045 0.20336173
-0.20959517 0.23180422 -0.009680694 -0.065332785 0.0034910124 0.3644469 -0.28307593 -0.041742977
-0.5363188 0.052325353 0.2700053 -0.2245535 -0.2069771 0.014417701 0.011163441 0.040854894
0.18040493 -0.012132706 -0.30223086 -0.07771905 0.3424537 0.18755965 0.2216825 0.00025309238
0.07367207 0.036821816 0.09732897 0.11145668 -0.17514443 0.3801481 -0.1638186 -0.10916304
-0.13471098 -0.029391851 0.062836275 0.041789576 -0.012726661 -0.047482707 0.13438296 0.10032324
-0.1760238 0.101278014 -0.0012482324 -0.16750285 0.034506924 -0.24771132 -0.06315591 -0.04893117
0.063495226 0.07297691 -0.13102241 -0.10674978 0.074291274 0.036499236 0.045037158 -0.1658801
-0.17991747 0.20201819 0.011486481 -0.060336486 -0.0682709 -0.06656263 -0.07650294 0.09439394
0.043993246 0.070853435 -0.06833863 -0.024345111 -0.075811155 -0.02412369 -0.012608722 -0.007068371
-0.5382048 -0.097283445 -0.26251605 -0.05678904 -0.25682262 0.34331292 -0.57529396 -0.27450272
00000000: b5a1 f43e cd68 753e 98c2 053f f4c1 20bc
00000010: 94af 68bc 0828 073f 29da b43e 04e2 343e
00000020: eb17 4e3d f158 b43e 43a6 fb3e a6b0 9c3e
00000030: 5ba0 343e 30c5 113e 17a7 973e 6252 7f3e
00000040: 8921 003f 1bbc 5e3e 1c23 e03e cce6 973e
00000050: af1d 7e3e 297f cd3e ccec 5e3d fd4b 803e
00000060: 03eb 963e f19c ab3e 854b a7bd 67bf 0c3e
00000070: ab25 df3e 9f24 9d3e e1d0 b93e 2cfa b33e
00000080: 5ab9 623d 456b 7f3e 8a9e 443d 82b8 d63e
00000090: 0a39 9c3e 7265 f03d ca5c 543e fecd 723e
000000a0: f8ac 8d3d 8c43 b63e 4640 5a3e a521 e83e
000000b0: 891c 8a3e 6013 b43e 6968 e03e ba5b e43e
000000c0: 4740 183e ede4 ef3e e18f 803e 71d2 953e
000000d0: 74d0 c63e 249d e33e 1bda adbc 99b0 ab3e
000000e0: 28ce 1c3f 26f1 cc3d b784 643e 9121 183e
000000f0: 2afd e63e 988d 593d f497 bb3e 1d42 343e
00000100: f44e 9c3d d935 7cbc 93f1 973d 4359 df3d
00000110: d0a9 fb3a cab2 303e 26bd 183e d2dd 613e
00000120: 654d 3b3e f5ce 303e 1eeb 1c3e e970 943e
00000130: 83ea c73c 7953 423d 9e97 143e cd21 603e
00000140: 449b 6f3e cdb7 283e 3719 983c 8eef 1d3e
00000150: 9a8a 823e 0708 1d3e 8477 fc3d 9e43 553e
00000160: a10f 973e fb4e 3a3e 7473 b13d 4bd6 343e
00000170: 1260 4a3e b900 503d f389 a13e fe21 d63e
00000180: 987f f43d 0b0b 0c3e f109 213d e8cc a53e
00000190: 94ec 7e3e ee9b 0a3e 9dfb 813e 50e4 993e
000001a0: c254 bc3d c48c 773e 5661 f93d 8ecc 783d
000001b0: 9a7a 813e aee1 3c3e 44af 993d c53c 0d3e
000001c0: 903e bf3d f535 a33e f144 5f3e cd4b 993e
000001d0: cc03 5c3e 42fe 0f3e 9b5c d53d 1d4f b63e
000001e0: 9d54 8d3e 6c78 df3d 9c22 e53e 192d 393e
000001f0: 219c b4bd 6b4d 793d f8c9 5abe 58ee b2bd
00000200: 57f9 7e3e e8c9 963e e1a3 45be f57b d63d
00000210: 3c8f e43d 5ee6 533e 97e3 a63e b0d3 0ebd
00000220: 6f3d c5bd 37f2 52be 41ce 4e3e 7065 3b3e
00000230: 8ba3 7ebe af9c 953e a274 8dbd fce2 73bd
00000240: 5880 f2bc 35df 8abd 876b a23d 82f9 5b3d
00000250: 335a ca3c 15f2 8bbb 658d 28bc e25c 203e
00000260: 1de6 283d c584 a0bc 5f1b 6bbe 6d5a 61bd
00000270: 492b 323d 7b15 b6bc 9a83 1cbd 6af9 32bd
00000280: a726 263b 1570 a03d ac18 52be 09a3 90bc
00000290: 5226 8c3c 9bd5 eb3d e0ba 23be de91 043c
000002a0: 1419 c13e f2bc 46be eb0c 663e 331f 2b3e
000002b0: a347 63bd b8c4 d53d 78fb e53d 0f3e 503e
000002c0: 1ea0 56be 165e 6d3e c69b 1ebc 32cd 85bd
000002d0: 78c9 643b c998 ba3e 54ef 90be affa 2abd
000002e0: 304c 09bf 1c53 563d 223e 8a3e 5af1 65be
000002f0: cef1 53be 3938 6c3c dee6 363c 7657 273d
00000300: 12bc 383e 42c8 46bc 01be 9abe 2a2b 9fbd
00000310: 1756 af3e a30f 403e bd00 633e 7cb1 8439
00000320: 62e1 963d 79d2 163d 6954 c73d 6643 e43d
00000330: 1059 33be c6a2 c23e 10c0 27be df90 dfbd
00000340: adf1 09be 2ec7 f0bc 4eb0 803d 8c2b 2b3d
00000350: 7c83 50bc 3a7d 42bd b09b 093e 4576 cd3d
00000360: 953f 34be d96a cf3d bb9b a3ba de85 2bbe
00000370: 2257 0d3d 09a8 7dbe e357 81bd 0d6c 48bd
00000380: c909 823d eb74 953d bd2a 06be a19f dabd
00000390: 0626 983d 3980 153d e278 383d 79dc 29be
000003a0: 493c 38be dbdd 4e3e cb31 3c3c 6423 77bd
000003b0: 9dd1 8bbd fd51 88bd 93ad 9cbd 9c51 c13d
000003c0: 4332 343d 9b1b 913d 20f5 8bbd 666f c7bc
000003d0: e142 9bbd 0b9f c5bc d094 4ebc cb9d e7bb
000003e0: cac7 09bf 8b3c c7bd 8168 86be a09b 68bd
000003f0: 417e 83be b6c6 af3e 7746 13bf 9f8b 8cbe

gate.2.bias f4 [36]
0.42152566 0.299452 0.2529202 0.16981742 0.33676305 -0.028626043 0.018227285 0.16672829
0.29245284 0.20559524 0.13477579 -0.0062375134 0.0010849108 0.19210859 -0.069167204 -0.07062756
0.032135274 0.26735312 0.15390204 -0.004951913 0.06386319 -0.15680192 0.062161665 -0.14947207
-0.11586438 -0.0594087 0.113092855 0.043688614 -0.021731716 0.11364255 -0.09393323 -0.013496986
-0.31276682 -0.10903391 0.105803095 -0.0025004041
00000000: 36d2 d73e c651 993e c27e 813e 9ee4 2d3e
00000010: 356c ac3e 2a81 eabc 6351 953c d2ba 2a3e
00000020: 61bc 953e 8f87 523e aa02 0a3e 0e64 ccbb
00000030: 9133 8e3a 1db8 443e 89a7 8dbd 2fa5 90bd
00000040: 47a0 033d 82e2 883e 7f98 1d3e a843 a2bb
00000050: b4ca 823d af90 20be 3b9d 7e3d 350f 19be
00000060: 4e4a edbd 8956 73bd 3a9d e73d d5f2 323d
00000070: b606 b2bc 6dbd e83d 1160 c0bd 7622 5dbc
00000080: f922 a0be 2c4d dfbd 4baf d83d d2dd 23bb

Wc.weight f4 [3, 6]
-0.023149872 -0.006001306 -0.0013236667 -0.022944508 0.050888386 -0.009333601 -0.023845209 -0.0046275957
-0.00912598 0.07040615 -0.11235372 0.10472471 -0.015350307 -0.0046532126 0.0027419133 -0.02775901
0.046629496 0.015554144
00000000: cda4 bdbc 9ba6 c4bb e27e adba 1ff6 bbbc
00000010: 5770 503d f6eb 18bc 0757 c3bc 16a3 97bb
00000020: 2285 15bc 1931 903d b519 e6bd e979 d63d
00000030: db7f 7bbc fa79 98bb acb1 333b dd66 e3bc
00000040: 92fe 3e3d cfd6 7e3c
