checkpoints/NeuralGVAR/VOL_h24_h24_tr2021-01-01_te2024-01-01_seed1_lam1.0e-04.pt (torch, 16393 bytes, 7 tensors)

S f4 [4, 3, 3]
0.21022657 0.2256661 0.212956 0.18421093 0.36109915 0.16673937 0.18440987 0.23101151
0.3812081 0.09534546 0.07723226 0.085004926 -0.10495135 0.18126096 0.093363225 0.18620706
0.17765242 0.10321303 0.11015729 0.033396434 0.0002844562 -0.17023642 0.10657162 -0.09543746
-0.15948269 0.19369344 0.056217786 0.064269915 0.21404892 -0.13912831 0.07898482 0.2529182
-0.020009512 0.15196119 0.17476109 0.11510823
00000000: a245 573e 0415 673e 2311 5a3e caa1 3c3e
00000010: fde1 b83e babd 2a3e f1d5 3c3e 488e 6c3e
00000020: b52d c33e 7b44 c33d f22b 9e3d 1017 ae3d
00000030: bcf0 d6bd 799c 393e 3835 bf3d 10ad 3e3e
00000040: 84ea 353e 5a61 d33d 259a e13d b3ca 083d
00000050: 1123 9539 7552 2ebe 3942 da3d b774 c3bd
00000060: 6e4f 23be 9357 463e 9f44 663d f29f 833d
00000070: a42f 5b3e a777 0ebe cbc2 a13d 7f7e 813e
00000080: fdea a3bc b79b 1b3e 92f4 323e ddbd eb3d

bias f4 [3]
-0.051425334 -0.047030192 -0.005331076
00000000: 5fa3 52bd bba2 40bd 4fb0 aebb

gate.0.weight f4 [64, 6]
0.26304808 0.04499714 0.42692617 0.27828395 -0.19001678 -0.46330476 0.21185397 0.14039803
-0.13144617 0.55585605 0.35073477 0.4021731 -0.6262401 -0.019593032 -0.20211382 0.25385526
-0.51946443 -0.34529728 0.30672467 0.028921256 0.15512222 0.09110737 0.062609844 -0.088105425
0.22118688 0.23828815 -0.65889025 0.058270037 -0.6713535 -0.43944559 0.04681588 -0.22902797
0.021959517 -0.2748143 -0.04390083 0.6917157 -0.17375137 0.26268235 0.36771485 -0.8343266
-0.071537934 -0.11336437 -0.9716943 -0.34199533 0.0859686 0.050380036 -0.25963855 -0.11889375
0.2105551 -0.30263945 0.41109088 0.70375365 -0.91611195 -0.29156247 0.044379476 -0.25516194
0.076880544 0.16087033 0.101416565 1.3949447 0.5342783 0.17649302 -0.041000076 0.54303366
0.24184339 0.24457169 -0.31066358 -0.06768075 -0.03573103 0.005027814 0.28462264 -0.23354493
0.036733374 0.0929177 -0.39797014 0.3635295 0.5173905 0.49557 0.050910074 0.31720456
0.23069306 0.4024799 0.30843017 0.58268464 -0.05156096 -0.048076436 -0.5732581 -0.56831664
-0.1509989 -0.32629886 -0.07839649 -0.007305475 -0.10273678 -0.2544266 0.19394208 0.015584853
0.255646 0.29402465 -0.0799013 0.3994538 -0.039749812 -0.19042371 -0.8772267 -0.51487577
-0.4866294 -0.07233535 -0.06604549 -0.18904431 -0.0054487875 -0.05251348 -0.082803376 0.23682426
-0.26666954 0.06804216 -0.099494435 -0.103856094 -0.6658239 -0.11092423 -0.0015306758 0.18147984
0.07994452 -0.008258482 0.0445389 0.32226723 0.1668053 -0.14014256 -0.10151435 0.29136565
-0.14305788 -0.31411096 -0.61658144 -0.23952322 -0.4272452 -0.098613866 -0.7237552 -0.33873412
-0.038590066 -0.19595672 0.2291141 -0.02497567 -0.54669595 0.29351702 0.25173098 -0.0823731
0.018812913 -0.26525941 0.21365201 -0.25068253 0.45502815 -0.3476978 0.37268627 -0.2333515
0.37082204 -0.13403344 -0.24741818 0.08919707 0.18789157 0.05119963 -0.01044906 0.042849567
-0.18914607 0.21946374 0.7895327 0.31084263 0.124039955 -0.4807683 -0.17918794 1.4647487
-0.5489158 0.36847284 -0.46497747 -0.2593729 0.49879503 -0.44361138 -0.31146833 0.35979205
0.3444957 0.43314868 -0.1451956 -0.47784787 0.75363547 0.21066646 0.00593864 -0.23912534
-0.750887 0.2609799 -0.010960716 -0.17526807 -0.7401643 0.15675524 0.03402803 0.1251206
-0.23124394 -0.35294214 -1.0084374 -0.5982512 -0.3668605 0.40275687 0.46964195 0.19461036
0.34106532 0.3784487 -0.4168725 -0.33158708 0.08178536 0.38718385 0.013047234 0.089825936
0.4222676 0.82303965 -0.031066304 0.11776091 0.1884253 -0.49744406 0.49060526 -0.48677924
0.45788968 -0.02437436 -0.0051573887 0.15896763 0.18654278 0.040443547 -0.09224029 -0.34967405
-0.61979765 -0.0048719654 -0.08764609 0.08509635 -0.19699311 0.21153094 0.31224617 0.11872986
-0.11996098 -0.32756236 -0.50232464 0.025809756 0.13839862 -0.008582905 0.11307855 -0.5312478
0.50031096 0.21234158 0.24416804 -0.7169293 -0.3626161 -0.00036360644 0.021365747 -0.39109722
-0.12579139 -0.5433862 0.4537357 -0.08605148 -0.036086474 0.3248787 -0.19696139 0.42072487
00000000: 3dae 863e ec4e 383d 1196 da3e 3c7b 8e3e
00000010: c293 42be 4836 edbe 3ff0 583e 80c4 0f3e
00000020: d399 06be 954c 0e3f 8293 b33e a2e9 cd3e
00000030: 4551 20bf 9181 a0bc edf6 4ebe 51f9 813e
00000040: 9ffb 04bf ceca b0be 040b 9d3e 45ec ec3c
00000050: 5cd8 1e3e 8096 ba3d 9739 803d 9e70 b4bd
00000060: d07e 623e cf01 743e 08ad 28bf 90ac 6e3d
00000070: d3dd 2bbf 03ff e0be 02c2 3f3d 4f86 6abe
00000080: 72e4 b33c 76b4 8cbe 5bd1 33bd 4814 313f
00000090: e1eb 31be 4d7e 863e 1f45 bc3e 6e96 55bf
000000a0: 7b82 92bd 942b e8bd f5c0 78bf 031a afbe
000000b0: 4e10 b03d 4c5b 4e3d 58ef 84be 917e f3bd
000000c0: c29b 573e 8ff3 9abe 817a d23e 3329 343f
000000d0: 5086 6abf ad47 95be 41c7 353d 96a4 82be
000000e0: 8c73 9d3d 31bb 243e 7db3 cf3d 8c8d b23f
000000f0: 76c6 083f 96ba 343e b2ef 27bd 4104 0b3f
00000100: cba5 773e 0071 7a3e 4c0f 9fbe 349c 8abd
00000110: b35a 12bd 5cc0 a43b 0fba 913e 6726 6fbe
00000120: bc75 163d a34b be3d bec2 cbbe 8a20 ba3e
00000130: b473 043f 5abb fd3e 1587 503d a368 a23e
00000140: cd3a 6c3e d811 ce3e 8fea 9d3e d22a 153f
00000150: 9631 53bd cceb 44bd 0bc1 12bf 337d 11bf
00000160: 759f 1abe a510 a7be 578e a0bd c462 efbb
00000170: a967 d2bd 3444 82be c198 463e 9c57 7f3c
00000180: 08e4 823e 668a 963e 4ba3 a3bd 3585 cc3e
00000190: b3d0 22bd 6ffe 42be ee91 60bf e6ce 03bf
000001a0: 7d27 f9be 8e24 94bd dc42 87bd d594 41be
000001b0: be8b b2bb 6018 57bd d194 a9bd 0f82 723e
000001c0: e988 88be b059 8b3d bdc3 cbbd 81b2 d4bd
000001d0: 6f73 2abf 3e2c e3bd f5a0 c8ba dad5 393e
000001e0: f4b9 a33d 964e 07bc 6c6e 363d 3600 a53e
000001f0: 02cf 2a3e 8881 0fbe c1e6 cfbd e12d 953e
00000200: c47d 12be 27d3 a0be 48d8 1dbf 9345 75be
00000210: e2bf dabe 11f6 c9bd 0548 39bf 8f6e adbe
00000220: 9e10 1ebd e1a8 48be e39c 6a3e c799 ccbc
00000230: 44f4 0bbf dd47 963e e2e2 803e 3ab3 a8bd
00000240: 8a1d 9a3c 15d0 87be 98c7 5a3e 7659 80be
00000250: 73f9 e83e 7205 b2be bcd0 be3e b2f3 6ebe
00000260: 63dc bd3e 1040 09be 315b 7dbe f4ac b63d
00000270: a666 403e b4b6 513d 8932 2bbc 0783 2f3d
00000280: 82af 41be 1abb 603e d11e 4a3f c426 9f3e
00000290: a908 fe3d 4327 f6be 0b7d 37be e37c bb3f
000002a0: bf85 0cbf 79a8 bc3e 8711 eebe 86cc 84be
000002b0: 1062 ff3e 0821 e3be c778 9fbe aa36 b83e
000002c0: be61 b03e aac5 dd3e 28ae 14be 7aa8 f4be
000002d0: 41ee 403f f3b8 573e ec98 c23b 46dd 74be
000002e0: 213a 40bf 289f 853e 9394 33bc 7979 33be
000002f0: 687b 3dbf 7284 203e fa60 0b3d 9d1f 003e
00000300: 36cb 6cbe d5b4 b4be 7a14 81bf fe26 19bf
00000310: 24d5 bbbe 2636 ce3e e974 f03e f047 473e
00000320: 1da0 ae3e 07c4 c13e 5070 d5be c8c5 a9be
00000330: 157f a73d f63c c63e 11c4 553c a9f6 b73d
00000340: 7533 d83e bab2 523f c37e febc a22c f13d
00000350: 90f2 403e fdb0 febe 9d30 fb3e 213b f9be
00000360: 8470 ea3e bdac c7bc 50ff a8bb 69c8 223e
00000370: 1205 3f3e 22a8 253d 7ae8 bcbd 7a08 b3be
00000380: 0fab 1ebf 02a5 9fbb cb7f b3bd ff46 ae3d
00000390: 90b8 49be 919b 583e bbde 9f3e a428 f33d
000003a0: 1aae f5bd 41b6 a7be 5998 00bf fb6e d33c
000003b0: 5eb8 0d3e 509f 0cbc ba95 e73d dbff 07bf
000003c0: 6114 003f 1270 593e 3007 7a3e ae88 37bf
000003d0: d1a8 b9be 6ea2 beb9 3807 af3c e53d c8be
000003e0: 75cf 00be 5c1b 0bbf 0c50 e83e c23b b0bd
000003f0: 69cf 13bd 8056 a63e 3fb0 49be 4069 d73e

gate.0.bias f4 [64]
0.18838577 -0.3476805 0.11530374 0.3016582 -0.59660774 0.7686106 -0.38090357 0.25408447
-0.2600589 0.4445368 -0.5461598 -0.0033854262 -0.46074516 -0.5042693 0.16187862 0.47628292
0.34725994 -0.35317418 0.49968407 0.5116076 -0.34502238 -0.54972124 0.23585723 -0.41140717
-0.0774241 -0.109708056 0.69765663 0.36656025 -0.18247214 0.23338628 -0.3659428 -0.2618065
0.098852485 -0.7216332 -0.37954763 -0.17804089 0.5903042 0.530731 0.32962668 0.18528531
-0.43611872 0.36392963 -0.42764968 -0.7091808 0.23630723 -0.3439403 0.022747025 0.36391777
0.3270326 -0.07400272 -0.6354434 0.66302353 0.10108538 0.34999222 0.1264477 -0.54490054
0.29191124 -0.5510908 0.0055992063 0.6285866 0.45831698 -0.6370505 -0.38881248 0.2088079
00000000: 33e8 403e 2e03 b2be 5e24 ec3d f272 9a3e
00000010: 49bb 18bf aac3 443f cb05 c3be 5c17 823e
00000020: 7126 85be 549a e33e 21d1 0bbf 07de 5dbb
00000030: cae6 ebbe cb17 01bf 82c3 253e 5bdb f33e
00000040: 0ecc b13e 3fd3 b4be 97d6 ff3e b7f8 023f
00000050: c6a6 b0be 88ba 0cbf 8f84 713e f6a3 d2be
00000060: 8790 9ebd 9eae e0bd a099 323f c9ad bb3e
00000070: fad9 3abe d0fc 6e3e db5c bbbe 800b 86be
00000080: 2c73 ca3d f4bc 38bf 1154 c2be 5a50 36be
00000090: 2d1e 173f fddd 073f d4c4 a83e 6fbb 3d3e
000000a0: f44a dfbe fc54 ba3e e6f4 dabe df8c 35bf
000000b0: 86fa 713e f118 b0be f857 ba3c 6e53 ba3e
000000c0: d170 a73e bd8e 97bd 6bac 22bf e9bb 293f
000000d0: da05 cf3d 2e32 b33e 827b 013e 9a7e 0bbf
000000e0: 6475 953e 4914 0dbf 8c79 b73b 0deb 203f
000000f0: 86a8 ea3e be15 23bf 6e12 c7be bdd1 553e

gate.2.weight f4 [36, 64]
0.023722284 -0.18067391 0.050255924 0.09012994 -0.19031885 -0.0207139 -0.05614419 0.10965308
0.17979899 -0.1954014 -0.16563173 0.10390501 -0.22044042 0.023550905 0.22204572 0.033207033
0.015506543 -0.047142282 0.13910322 0.1629592 -0.17073901 -0.33220333 0.2473611 -0.15909137
0.22773638 -0.13867104 0.23074591 -0.26711372 0.08369143 0.066323295 -0.41070178 -0.056285936
0.057191078 0.08587185 -0.16040714 -0.08353864 0.17662992 0.23290339 0.16086677 0.41518438
-0.26346183 0.14542478 -0.13122961 0.013357887 0.12834945 -0.009748043 -0.05082744 0.32081884
0.082923084 0.17489304 -0.07529714 0.16750552 0.25561407 0.080997884 0.17221938 -0.06181633
0.23285225 -0.13027689 0.056202542 0.13531768 0.18252169 -0.14308208 -0.21354698 0.11706359
0.20597403 0.033602163 0.049794707 0.08048659 -0.2916302 -0.13054056 0.108875565 0.1400266
-0.341116 -0.4376129 0.054944564 0.21001017 -0.033310957 -0.06659544 0.27688894 0.013862071
0.3578778 0.073702015 0.0911038 0.09749705 0.17665398 -0.36264434 0.20660622 0.29700014
0.28390655 -0.34128907 -0.02936944 -0.41155338 0.097781554 0.2770403 -0.7320003 0.2046887
-0.055530272 -0.09713519 -0.16451399 0.19373463 0.14818776 0.11644327 0.31139013 0.5351834
-0.48489305 0.15262222 0.23980449 0.15007137 0.15545507 -0.38102853 0.26243564 0.083226785
0.24878353 -0.13289511 0.07783923 0.23839375 0.23768248 0.073158816 0.5429441 0.19133511
0.29293117 -0.14546162 0.3995631 0.0144433 0.12039831 0.23625444 -0.28096506 0.46547154
0.16881655 0.26745203 0.24998018 0.064461604 0.11027571 -0.21608292 -0.034960214 -0.016665637
0.2147898 -0.31299224 0.07668227 -0.060684614 0.21875936 0.17647392 0.27107534 0.048649997
0.2664128 0.0060301824 0.018080119 0.036514245 0.04341835 0.037696477 0.0016637299 0.12556258
-0.062087055 0.09523765 -0.006869462 -0.4521849 -0.083317816 0.32673782 0.20917109 0.10900348
-0.13025886 0.33852133 0.12894444 -0.19402519 0.10746364 -0.06523357 0.26685402 0.042368423
-0.15951653 -0.16033025 0.25354767 0.005411748 0.1050284 0.14693646 0.103914574 -0.13741001
0.0032102836 -0.19109738 0.3060005 -0.17826152 0.02551419 -0.027966104 0.086201906 0.14551522
0.13734831 0.07882955 0.27258787 -0.13265637 0.04216688 0.12787478 0.036048956 -0.0013115153
-0.007477717 -0.16278894 0.036782447 -0.072377086 -0.26515964 -0.2285166 -0.5758705 0.11344093
0.19171397 -0.5606819 -0.18368037 0.1863298 -0.17453745 -0.2021287 0.047441326 0.14156958
0.092933126 0.004805072 -0.116065904 -0.024122884 0.13763225 -0.52849525 -0.0332532 -0.01717205
0.14530203 -0.043078147 -0.12457791 -0.7558856 0.02012962 0.1739086 -0.86998403 -0.2354774
-0.032014433 0.4416364 -0.20406543 -0.2505368 -0.04761323 -0.010654964 0.19701058 0.32538673
-0.7727975 0.006347004 -0.088482775 0.13407576 0.120091945 -0.7602891 0.15850626 0.06473613
-0.12488662 0.20860569 -0.041625444 0.20436193 0.047817808 0.15044428 0.35855222 -0.03595562
0.11226884 -0.19188042 0.089245856 0.062121868 -0.07624758 -0.23591357 -0.6358643 0.20801052
00000000: 3c55 c23c 9502 39be 28d9 4d3d 0c96 b83d
00000010: f2e2 42be 32b0 a9bc 73f7 65bd cb91 e03d
00000020: 3a1d 383e 4e17 48be 5d9b 29be 26cc d43d
00000030: 22bb 61be d4ed c03c f45f 633e 1904 083d
00000040: 280f 7e3c 4418 41bd 1371 0e3e c7de 263e
00000050: 35d6 2ebe 8e16 aabe 3a4c 7d3e d9e8 22be
00000060: ba33 693e c8ff 0dbe a848 6c3e 21c3 88be
00000070: 6a66 ab3d 82d4 873d 8147 d2be 158c 66bd
00000080: 3141 6a3d 95dd af3d c541 24be 4e16 abbd
00000090: 79de 343e 3a7e 6e3e 42ba 243e 0c93 d43e
000000a0: 78e4 86be 3cea 143e 0e61 06be 0adb 5a3c
000000b0: 0a6e 033e 41b6 1fbc 6f30 50bd 5e42 a43e
000000c0: 94d3 a93d 2917 333e 6335 9abd 9186 2b3e
000000d0: d9df 823e 38e2 a53d 475a 303e 1f33 7dbd
000000e0: d270 6e3e 4e67 05be a334 663d b890 0a3e
000000f0: f7e6 3a3e 1c84 12be 0fac 5abe 09bf ef3d
00000100: dbea 523e 6ca2 093d 89f5 4b3d 27d6 a43d
00000110: 8e50 95be 6dac 05be 27fa de3d 2263 0f3e
00000120: c2a6 aebe cc0e e0be 8d0d 613d e80c 573e
00000130: 1271 08bd 3163 88bd 63c4 8d3e bd1d 633c
00000140: c23b b73e 15f1 963d a194 ba3d 89ac c73d
00000150: c8e4 343e 85ac b9be 9590 533e 6710 983e
00000160: 335c 913e 71bd aebe 2e98 f0bc 20b7 d2be
00000170: b241 c83d 3ad8 8d3e 5f64 3bbf ea99 513e
00000180: b673 63bd d1ee c6bd 5b76 28be 5f62 463e
00000190: 88be 173e cf79 ee3d 876e 9f3e c801 093f
000001a0: e743 f8be 0049 1c3e 4f8f 753e 4fac 193e
000001b0: 9d2f 1f3e 2c16 c3be f75d 863e ce72 aa3d
000001c0: 1cc1 7e3e a815 08be 2d6a 9f3d 7e1d 743e
000001d0: 0963 733e 4ad4 953d 62fe 0a3f 5aed 433e
000001e0: 13fb 953e e4f3 14be 8993 cc3e 97a3 6c3c
000001f0: 6493 f63d afec 713e a7da 8fbe 4952 ee3e
00000200: 3fde 2c3e 79ef 883e cefa 7f3e 7204 843d
00000210: 3bd8 e13d d744 5dbe 7132 0fbd 6086 88bc
00000220: dbf1 5b3e 8540 a0be 980b 9d3d 6e90 78bd
00000230: 7402 603e 94b5 343e 63ca 8a3e 3845 473d
00000240: 4267 883e d698 c53b c21c 943c f68f 153d
00000250: 71d7 313d 9f67 1a3d 8311 da3a 7a93 003e
00000260: ff4e 7ebd f50b c33d 3919 e1bb c784 e7be
00000270: 88a2 aabd 2e4a a73e f230 563e 373d df3d
00000280: 9462 05be ab52 ad3e 030a 043e 8aae 46be
00000290: e615 dc3d 2e99 85bd 17a1 883e 838a 2d3d
000002a0: 4d58 23be 9d2d 24be 00d1 813e 0855 b13b
000002b0: 2119 d73d 8376 163e 2ad1 d43d 36b5 0cbe
000002c0: 9f63 523b 08af 43be 19ac 9c3e 308a 36be
000002d0: 2203 d13c 2c19 e5bc a08a b03d f101 153e
000002e0: 09a5 0c3e 6371 a13d a390 8b3e 12d7 07be
000002f0: 2eb7 2c3d 9bf1 023e 12a8 133d 27e7 abba
00000300: a307 f5bb 25b2 26be 31a9 163d 703a 94bd
00000310: 01c3 87be 4100 6abe 406c 13bf b853 e83d
00000320: ab50 443e d988 0fbf b516 3cbe 3dcd 3e3e
00000330: f2b9 32be d3fa 4ebe d651 423d 9ef7 103e
00000340: b953 be3d de73 9d3b f6b3 edbd 5b9d c5bc
00000350: 78ef 0c3e 774b 07bf 8234 08bd 66ac 8cbc
00000360: 0eca 143e b672 30bd b422 ffbd b881 41bf
00000370: dfe6 a43c 1915 323e 46b7 5ebf fd20 71be
00000380: 9121 03bd 2b1e e23e 87f6 50be 5c46 80be
00000390: 1706 43bd 2892 2ebc 24bd 493e 1799 a63e
000003a0: 0fd6 45bf 87fa cf3b 7536 b5bd 284b 093e
000003b0: c4f2 f53d 4ea2 42bf 774f 223e 6094 843d
000003c0: 8ec4 ffbd bb9c 553e 717f 2abd 4144 513e
000003d0: 9bdc 433d 110e 1a3e 2894 b73e 3346 13bd
000003e0: 35ed e53d 4d7c 44be 88c6 b63d 8073 7e3d
000003f0: b127 9cbd 5493 71be 01c8 22bf b600 553e

gate.2.bias f4 [36]
0.3271802 0.1821835 0.061504416 0.09334537 0.48058105 0.050128534 -0.20069215 -0.14268008
0.21765612 -0.059288215 0.07397618 -0.22002684 0.0869698 0.17541577 -0.16010508 -0.19087347
-0.14317426 0.10776904 -0.006416762 0.07224758 -0.045000173 0.04241727 0.16000873 0.031564534
0.15264046 -0.33709353 -0.021388656 0.013676675 0.06486998 0.031899486 -0.010595281 0.13397354
-0.058671642 -0.37989017 -0.06549701 -0.021401834
00000000: 2a84 a73e 508e 3a3e 0eec 7b3d db2b bf3d
00000010: b80e f63e 9453 4d3d 3e82 4dbe ba1a 12be
00000020: 3fe1 5e3e 33d8 72bd d380 973d b74e 61be
00000030: 391d b23d 31a0 333e 96f2 23be 5674 43be
00000040: 469c 12be 04b6 dc3d b343 d2bb 8af6 933d
00000050: 1a52 38bd bbbd 2d3d 54d9 233e d049 013d
00000060: c84d 1c3e 8697 acbe 4337 afbc 2214 603c
00000070: 8dda 843d 09a9 023d d497 2dbc 5c30 093e
00000080: ad51 70bd f780 c2be 4c23 86bd e652 afbc

Wc.weight f4 [3, 6]
-0.030659301 0.0014530672 0.0010845932 -0.0008684319 0.09812348 0.022989487 -0.04184644 -0.00091417576
-0.009778832 0.092129834 -0.016461331 0.013868654 -0.026684212 0.0010145162 -0.017541502 0.0034356897
0.14189513 -0.023822926
00000000: 3729 fbbc d874 be3a e928 8e3a 7aa7 63ba
00000010: f7f4 c83d 7354 bc3c 2c67 2bbd 4ca5 6fba
00000020: 6537 20bc 91ae bc3d ead9 86bc 5a39 633c
00000030: d998 dabc 84f9 843a 32b3 8fbc 4f29 613b
00000040: f54c 113e 4c28 c3bc
