checkpoints/NeuralGVAR/VOL_h1_h1_tr2021-01-01_te2023-01-01_seed1_lam1.0e-04.pt (torch, 16307 bytes, 7 tensors)

S f4 [4, 3, 3]
0.6661763 0.14844972 0.08588522 0.19379087 0.5680404 0.1104099 0.10771625 0.08512515
0.6007801 0.24467543 -0.024582673 0.0077844537 -0.046940546 0.27813208 -0.016746435 0.043964833
0.04370021 0.26488498 0.10462541 -0.095533565 0.0033043427 -0.11072145 0.12341664 -0.037214093
-0.10941649 0.019250462 0.11976333 -0.01856145 -0.03328098 -0.07971889 -0.05165916 0.042091735
-0.043003097 -0.048232425 0.030409873 0.10103307
00000000: 888a 2a3f 3403 183e 97e4 af3d 1d71 463e
00000010: 186b 113f 961e e23d 569a dc3d 1856 ae3d
00000020: bacc 193f 328c 7a3e 9a61 c9bc bb14 ff3b
00000030: bb44 40bd 5467 8e3e d22f 89bc 7814 343d
00000040: fefe 323d 019f 873e d945 d63d 1aa7 c3bd
00000050: ac8d 583b edc1 e2bd ddc1 fc3d ce6d 18bd
00000060: c115 e0bd 25b3 9d3c 7a46 f53d 2f0e 98bc
00000070: a351 08bd a843 a3bd 8e98 53bd 6268 2c3d
00000080: 0424 30bd 5d8f 45bd 201e f93c 6dea ce3d

bias f4 [3]
-0.0060079615 -0.0021152191 -0.0019728923
00000000: 6fde c4bb 7d9f 0abb a44b 01bb

gate.0.weight f4 [64, 6]
0.22612001 -0.14761369 0.2100096 0.3427523 -0.06575315 -0.29353154 0.2108319 0.034140594
-0.3818984 0.3119842 0.3386687 0.4873055 -0.5821974 -0.1977751 -0.08381488 0.02718969
-0.41318035 -0.33477136 0.2694269 -0.1673575 0.048453957 0.056796394 0.14410342 0.05731101
0.21196015 0.17178829 -0.24287091 0.1016627 -0.4539307 -0.49446958 -0.26980168 -0.33210963
0.12519726 -0.2337689 -0.3220959 0.34566107 0.082434215 0.40229446 0.27346534 -0.8559822
-0.19129485 0.13677153 -0.50761634 -0.47831243 -0.05954964 0.029701475 -0.20326667 -0.1513058
0.5027213 -0.07552186 0.27894512 0.29470852 -0.25824955 -0.36138818 0.36968976 -0.03144797
0.07780919 0.08670805 0.10244327 0.3942122 0.35077095 -0.28524625 0.053402733 0.28588757
0.26404333 0.27804422 -0.37447602 -0.30422243 -0.46130785 0.036919456 0.47873342 -0.25212517
0.14652672 -0.0012930867 -0.64881504 -0.021183541 0.346278 0.37427893 -0.24280323 0.0047033806
0.2897124 0.47936958 0.3673263 0.4987339 0.2410901 -0.14712694 -0.47584307 -0.43625975
-0.27616343 -0.07988387 -0.24997179 -0.12367088 -0.08487517 -0.19109225 0.17139612 0.10979269
0.17659763 0.04017679 -0.22060163 0.3745369 -0.047787193 0.029647468 -0.41261607 -0.23465143
-0.23398115 -0.3795343 0.10893083 -0.30557543 -0.21226259 -0.07946131 -0.041544847 0.21898054
-0.21989645 0.13515 -0.13167082 -0.3162273 -0.6788064 -0.2108937 -0.16331883 0.1532111
0.044678777 0.13923335 0.32636294 0.27896604 0.17067578 -0.049801603 -0.10199462 0.28443208
-0.17982979 -0.14573894 -0.5154107 -0.21117839 -0.410691 -0.06729711 -0.5717538 -0.43015617
-0.10310384 -0.26548627 -0.024012448 -0.26769727 -0.41587737 0.012829288 0.32776725 -0.23519102
0.21959007 0.11493419 0.21855487 -0.28360623 0.0687434 -0.34675187 0.28324267 -0.23487191
0.19373994 -0.0887358 -0.12099023 0.12310778 0.10439627 -0.13944986 -0.020692391 0.09968951
-0.37591693 0.32093516 0.40048087 0.040809147 0.26796445 -0.49890307 -0.3106191 0.23474598
-0.20582852 0.421085 0.15143992 -0.24704608 0.19769286 -0.27541465 -0.10292957 0.26151487
0.23032564 0.38861752 -0.10641395 -0.36719036 0.6616585 -0.12976924 -0.3013551 -0.5070663
-0.674814 0.2803205 0.09124424 -0.3800824 -0.41941142 0.12331837 0.3159866 0.07844185
-0.17369734 -0.24690017 -0.600295 -0.4716432 -0.3720667 0.405241 0.5358468 0.16760646
0.07402301 0.34858772 -0.014091216 -0.25091365 0.17016599 0.12392131 -0.17283924 -0.043144338
0.4353399 0.39131814 -0.1531519 0.27651647 0.17519946 -0.4338738 0.060774677 -0.45127547
0.3069696 -0.34426948 0.056893185 0.15660943 0.117716424 0.28184435 -0.24468197 -0.3798176
-0.5828554 -0.078270845 -0.20554669 0.037995808 -0.11834457 0.10782028 0.20834875 0.09202533
-0.17420863 -0.20449248 -0.50641435 0.061436657 -0.08833728 0.08369873 0.03225639 -0.25077227
0.2986902 0.14264128 0.29336926 -0.6787587 -0.38883647 0.013544079 0.037684016 -0.3277438
-0.33579743 -0.17416857 0.09129205 -0.21095328 -0.005987696 -0.46617603 -0.58639765 0.36458078
00000000: 018c 673e 0b28 17be c20c 573e 3b7d af3e
00000010: 96a9 86bd c449 96be 51e4 573e 02d7 0b3d
00000020: 3088 c3be 65bc 9f3e fc65 ad3e 1b80 f93e
00000030: e40a 15bf 8e85 4abe 23a7 abbd eabc de3c
00000040: 608c d3be 2767 abbe 53f2 893e c45f 2bbe
00000050: a877 463d 56a3 683d d98f 133e f3be 6a3d
00000060: 150c 593e 45e9 2f3e 27b3 78be 8934 d03d
00000070: 9b69 e8be 1e2b fdbe 7223 8abe 460a aabe
00000080: b633 003e 1d61 6fbe c1e9 a4be 7dfa b03e
00000090: 45d3 a83d 8af9 cd3e a603 8c3e a621 5bbf
000000a0: cce2 43be d60d 0c3e 25f3 01bf 5ee5 f4be
000000b0: 53ea 73bd 8250 f33c 2325 50be e8ef 1abe
000000c0: 58b2 003f 34ab 9abd e5d1 8e3e 09e4 963e
000000d0: 4939 84be df07 b9be fa47 bd3e 96cf 00bd
000000e0: 6d5a 9f3d fd93 b13d c7cd d13d 2ed6 c93e
000000f0: 4098 b33e cc0b 92be d3bc 5a3d db5f 923e
00000100: b030 873e d05b 8e3e 52bb bfbe 0bc3 9bbe
00000110: 8b30 ecbe db38 173d 8c1c f53e 8d16 81be
00000120: 1a0b 163e ca7c a9ba be18 26bf 1b89 adbc
00000130: 5a4b b13e 7da1 bf3e 69a1 78be d11e 9a3b
00000140: 2f55 943e ee6f f53e 3112 bc3e 0d5a ff3e
00000150: 53e0 763e 72a8 16be b4a1 f3be 705d dfbe
00000160: 4b65 8dbe 289a a3bd 9bf8 7fbe 2947 fdbd
00000170: 08d3 adbd b0ad 43be 7782 2f3e fdda e03d
00000180: 02d6 343e 6b90 243d 65e5 61be 4dc3 bf3e
00000190: 81bc 43bd 3fdf f23c 6a42 d3be 7748 70be
000001a0: c198 6fbe 5252 c2be 2117 df3d 6274 9cbe
000001b0: 5d5b 59be 9cbc a2bd ee2a 2abd 6f3c 603e
000001c0: 892c 61be c364 0a3e b7d4 06be 8be8 a1be
000001d0: 42c6 2dbf 85f4 57be 0d3d 27be 5fe3 1c3e
000001e0: 1801 373d 3093 0e3e 0b19 a73e a3d4 8e3e
000001f0: a2c5 2e3e c4fc 4bbd 8ee2 d0bd 15a1 913e
00000200: 4d25 38be 973c 15be f5f1 03bf 263f 58be
00000210: 1746 d2be 11d3 89bd 755e 12bf 6e3d dcbe
00000220: 1b28 d3bd d1ed 87be c1b5 c4bc 9e0f 89be
00000230: e1ed d4be ef31 523c 1cd1 a73e ead5 70be
00000240: 38dc 603e 9e62 eb3d d9cc 5f3e d634 91be
00000250: 57c9 8c3d 7689 b1be 2f05 913e 4382 70be
00000260: c363 463e 1dbb b5bd bac9 f7bd ef1f fc3d
00000270: b6cd d53d f2cb 0ebe 1783 a9bc 042a cc3d
00000280: 2f78 c0be 9d51 a43e d40b cd3e 7e27 273d
00000290: a332 893e 3970 ffbe 7709 9fbe 4061 703e
000002a0: b6c4 52be 7498 d73e 1113 1b3e a6f9 7cbe
000002b0: ff6f 4a3e 2603 8dbe bdcc d2bd 47e5 853e
000002c0: 7cda 6b3e e0f8 c63e 8fef d9bd 6000 bcbe
000002d0: 7462 293f 3ae2 04be 374b 9abe 19cf 01bf
000002e0: 9cc0 2cbf 2b86 8f3e 43de ba3d 299a c2be
000002f0: 18bd d6be 578e fc3d ffc8 a13e 1fa6 a03d
00000300: b7dd 31be 66d3 7cbe efac 19bf 387b f1be
00000310: 877f bebe c07b cf3e 422d 093f 07a1 2b3e
00000320: 6099 973d 177a b23e d8de 66bc c177 80be
00000330: fe3f 2e3e 75ca fd3d c5fc 30be 1eb8 30bd
00000340: dfe4 de3e da5a c83e dad3 1cbe 9193 8d3e
00000350: 7d67 333e b524 debe deee 783d 940d e7be
00000360: 1f2b 9d3e 1744 b0be d408 693d 395e 203e
00000370: 4f15 f13d e74d 903e e98d 7abe 7477 c2be
00000380: 0336 15bf 774c a0bd d57a 52be 7ea1 1b3d
00000390: a35e f2bd e1d0 dc3d 6059 553e c777 bc3d
000003a0: bf63 32be 7a66 51be 5fa4 01bf 01a5 7b3d
000003b0: 2dea b4bd 3d6a ab3d 471f 043d 3965 80be
000003c0: eced 983e 8e10 123e 7f34 963e 21c3 2dbf
000003d0: 9315 c7be fce7 5d3c 8e5a 1a3d 09ce a7be
000003e0: a4ed abbe 3f59 32be 54f7 ba3d 2304 58be
000003f0: 6f34 c4bb a0ae eebe 281e 16bf 55aa ba3e

gate.0.bias f4 [64]
0.39091098 0.35275283 0.41818923 0.51881325 -0.039289825 0.7945972 0.2822154 0.49555025
0.029235018 0.8103633 -0.2915521 0.37036514 -0.12675373 -0.2531173 0.357012 0.7147951
0.51814073 0.10154 0.75290334 0.7075994 -0.3239665 -0.36891192 0.47961897 -0.22254783
0.29118153 -0.410878 0.7965612 0.52624786 -0.1392364 0.37734053 0.6857909 0.0972208
0.32871968 -0.16030957 0.15322283 -0.045038655 0.7192625 0.71708894 0.52149194 0.5158771
0.1292706 0.26030314 0.5949963 -0.30832088 0.4079472 0.2348803 -0.059841633 0.5055155
0.5773583 -0.04063097 -0.40125105 0.68330663 0.4386298 0.572076 0.28483677 -0.0109762605
0.3461403 -0.33103272 0.28724468 0.8057845 0.58451045 -0.077499 -0.3068323 0.34926987
00000000: 7c25 c83e 059c b43e e61c d63e f2d0 043f
00000010: 5eee 20bd b96a 4b3f 897e 903e c3b8 fd3e
00000020: 477e ef3c f873 4f3f 5146 95be 80a0 bd3e
00000030: bbcb 01be 9798 81be 47ca b63e d0fc 363f
00000040: dfa4 043f 34f4 cf3d 46be 403f 3c25 353f
00000050: f0de a5be 06e2 bcbe 9e90 f53e 94e3 63be
00000060: bf15 953e 9a5e d2be 6feb 4b3f 2eb8 063f
00000070: fd93 0ebe c732 c13e fe8f 2f3f b31b c73d
00000080: f24d a83e 3128 24be 72e6 1c3e 747a 38bd
00000090: 9621 383f 2493 373f 7f80 053f 8610 043f
000000a0: 835f 043e 7446 853e ad51 183f 3cdc 9dbe
000000b0: 75de d03e 7684 703e 801c 75bd 7769 013f
000000c0: c1cd 133f a96c 26bd c770 cdbe 2fed 2e3f
000000d0: 1694 e03e 9373 123f 20d6 913e c6d5 33bc
000000e0: 4d39 b13e 1f7d a9be bc11 933e e547 4e3f
000000f0: 7aa2 153f ccb7 9ebd 2019 9dbe 80d3 b23e

gate.2.weight f4 [36, 64]
-0.0002480243 0.0274607 0.0018295321 0.20056522 -0.0968724 0.34898683 0.026496751 0.06617191
0.062082555 0.17344975 0.023282401 0.11175716 0.0444599 0.19243723 0.24268308 0.28346503
0.1289315 -0.13047013 0.3410824 0.50712293 -0.04582468 -0.077458575 0.19584006 -0.042046417
0.030485373 -0.05459316 0.54784286 0.3645144 -0.093626834 -0.003406716 0.6948842 0.16974716
0.5027262 0.040346853 0.09688135 -0.16703881 0.32830334 0.3951384 0.058943957 0.2274335
0.030260824 -0.026259517 0.09214471 -0.11234229 0.15405628 0.24164307 -0.057819273 0.50697404
0.16018653 0.28794217 0.10813994 0.20300248 0.252326 0.36254662 -0.019583415 0.13636033
0.22417462 0.04606476 0.004970763 0.40511113 0.32784694 0.084741004 -0.02180896 -0.0020045831
0.13595541 0.04535084 0.10479088 0.056582082 0.20349744 0.12054959 0.272397 0.15522632
0.056810692 -0.0143346805 0.0011467844 0.055158965 0.07264212 0.01337368 0.23117425 0.10793904
0.20746107 0.110476725 0.12099476 0.25493088 0.05774992 0.045937113 0.118959144 0.10553102
0.22920702 0.10892528 0.1362682 0.1879004 0.15996271 0.15001205 0.14601362 0.17877203
0.14444683 -0.002205492 0.046742365 0.29611948 0.19784987 0.15416527 0.29664496 0.23263979
0.25609738 0.037019555 0.1205273 0.14075384 0.088144585 0.23219255 0.04919993 0.12868233
0.105803244 0.14330027 0.067230016 0.24341522 0.22722964 0.211457 0.32905123 0.08683946
0.1239184 -0.011069883 0.32616234 0.14492087 0.20052573 0.17673907 0.0018704723 0.20795147
-0.0305917 0.16410145 0.09823337 0.09538834 -0.07855596 0.098655894 0.49913433 -0.012241632
-0.07334424 0.0704947 -0.06788786 -0.10166418 0.06727291 0.029177282 0.12684008 0.3430012
0.2034277 0.004447621 0.16624092 0.31698233 -0.07360772 -0.005144855 -0.05929327 -0.025544621
-0.10951786 -0.02521081 0.13180375 0.070075385 -0.108462565 0.114304036 0.43865725 0.05363203
-0.0010054975 0.043793563 0.03697169 -0.19336328 0.22347896 0.08312407 0.1354271 -0.077899195
-0.12118042 -0.13876918 0.116743326 -0.11899249 -0.0004024882 0.042031877 -0.050969876 0.1485968
-0.016825363 0.060141183 0.1335697 -0.025158303 0.09311346 0.32092988 -0.111036524 -0.017001584
0.022079313 -0.061873708 0.043111734 0.1730876 0.112083524 -0.025056327 0.21710241 -0.1139316
-0.11008535 -0.06719138 0.18725978 -0.007159224 0.11969514 0.17088169 -0.33985585 0.28838015
-0.03144557 -0.054312717 -0.086977005 0.15113986 0.06617788 -0.12454677 0.3093607 0.3888193
0.08805359 0.049572654 0.05208416 0.24409862 0.06421171 -0.16464408 0.19312887 0.039434202
0.16192015 -0.0791644 0.17165962 0.0154545205 0.094327845 0.05746491 -0.17553896 -0.12691452
0.31947666 -0.007915793 0.082681686 -0.03110445 0.05483051 0.2064437 0.24791946 0.2701527
-0.4089528 0.23648503 -0.022522427 0.15831609 0.11462422 0.08423655 0.04932339 0.24274664
-0.079185106 0.15209731 -0.0004924323 0.38764495 0.18814671 0.38152146 0.32929963 0.020564253
0.088263325 -0.008669942 0.33899382 0.33322024 0.119215444 -0.19990589 -0.34612522 0.19334887
00000000: 4209 82b9 43f5 e03c e9cc ef3a f860 4d3e
00000010: 0965 c6bd 67ae b23e b70f d93c 2385 873d
00000020: 474a 7e3d d09c 313e bcba be3c f0e0 e43d
00000030: 961b 363d 440e 453e ea81 783e 5422 913e
00000040: 9e06 043e f699 05be 5aa2 ae3e cfd2 013f
00000050: a9b2 3bbd 9aa2 9ebd 4c8a 483e dd38 2cbd
00000060: 76bc f93c 149d 5fbd 6e3f 0c3f a2a1 ba3e
00000070: 6dbf bfbd 3643 5fbb eee3 313f 33d2 2d3e
00000080: aab2 003f be42 253d bb69 c63d 390c 2bbe
00000090: 6017 a83e 954f ca3e 386f 713d 54e4 683e
000000a0: 8ce5 f73c 331e d7bc 5eb6 bc3d b713 e6bd
000000b0: eec0 1d3e 4871 773e e7d3 6cbd 0dc9 013f
000000c0: f007 243e 286d 933e 7978 dd3d e2df 4f3e
000000d0: e030 813e b69f b93e 666d a0bc 0ba2 0b3e
000000e0: 088e 653e 67ae 3c3d c8e1 a23b ba6a cf3e
000000f0: 8edb a73e b18c ad3d b4a8 b2bc 535f 03bb
00000100: e537 0b3e cdc1 393d 9a9c d63d 9dc2 673d
00000110: a261 503e b4e2 f63d 9f77 8b3e a6f3 1e3e
00000120: 54b2 683d 02dc 6abc b34f 963a 5eee 613d
00000130: 64c5 943d 481d 5b3c f1b8 6c3e 250f dd3d
00000140: ad70 543e 9f41 e23d 1acc f73d 4d86 823e
00000150: 2e8b 6c3d 8e28 3c3d daa0 f33d a620 d83d
00000160: 3fb5 6a3e 3814 df3d e489 0b3e f668 403e
00000170: 44cd 233e c29c 193e 9884 153e 0410 373e
00000180: dfe9 133e 048a 10bb ec74 3f3d f99c 973e
00000190: 2899 4a3e 80dd 1d3e d9e1 973e 2039 6e3e
000001a0: 321f 833e d1a1 173d 04d7 f63d c621 103e
000001b0: 2685 b43d e2c3 6d3e de85 493d 4dc5 033e
000001c0: 5faf d83d 4ebd 123e e4af 893d d741 793e
000001d0: e3ae 683e 2f88 583e 6779 a83e e3d8 b13d
000001e0: eec8 fd3d 745e 35bc c0fe a63e 2366 143e
000001f0: 9e56 4d3e 16fb 343e a32a f53a 3bf1 543e
00000200: 729b fabc 360a 283e 942e c93d f65a c33d
00000210: f2e1 a0bd 1a0c ca3d 898e ff3e 2091 48bc
00000220: 8135 96bd 865f 903d ca08 8bbd 4f35 d0bd
00000230: 61c6 893d 3205 ef3c 5ee2 013e da9d af3e
00000240: 5a4f 503e 59bd 913b 0f3b 2a3e 824b a23e
00000250: a5bf 96bd 2c96 a8bb 80dd 72bd f442 d1bc
00000260: e64a e0bd e786 cebc 90f7 063e af83 8f3d
00000270: 9f21 debd 3c18 ea3d af97 e03e 42ad 5b3d
00000280: e6ca 83ba e160 333d a06f 173d 0601 46be
00000290: abd7 643e f43c aa3d 67ad 0a3e 9d89 9fbd
000002a0: 712d f8bd 8219 0ebe 2017 ef3d 56b2 f3bd
000002b0: 0d05 d3b9 9e29 2c3d cac5 50bd c229 183e
000002c0: 58d5 89bc 9a56 763d 7fc6 083e c918 cebc
000002d0: 45b2 be3d ec50 a43e 1e67 e3bd e846 8bbc
000002e0: addf b43c 496f 7dbd ee95 303d e03d 313e
000002f0: 0c8c e53d ed42 cdbc 1850 5e3e f854 e9bd
00000300: 6e74 e1bd a29b 89bd 07c1 3f3e ec97 eabb
00000310: ba22 f53d 9cfb 2e3e 9601 aebe 90a6 933e
00000320: 12cd 00bd 0377 5ebd 0021 b2bd 68c4 1a3e
00000330: 4588 873d 6012 ffbd 8764 9e3e 5313 c73e
00000340: 7155 b43d b20c 4b3d 3356 553d fdf4 793e
00000350: 6e81 833d 7598 28be 93c3 453e c285 213d
00000360: 65ce 253e f220 a2bd 8ac7 2f3e f534 7d3c
00000370: f52e c13d 5360 6b3d 7cc0 33be e1f5 01be
00000380: 7292 a33e 3eb1 01bc 0455 a93d c2ce febc
00000390: f595 603d fa65 533e 99de 7d3e 7451 8a3e
000003a0: 4362 d1be 2229 723e f480 b8bc 9d1d 223e
000003b0: 1ac0 ea3d 3684 ac3d 5307 4a3d 9392 783e
000003c0: cd2b a2bd 66bf 1b3e 9216 01ba 6679 c63e
000003d0: 88a9 403e c856 c33e f699 a83e 5d76 a83c
000003e0: 67c3 b43d 5f0c 0ebc 9990 ad3e d89b aa3e
000003f0: 3a27 f43d 21b4 4cbe 5337 b1be 3ffd 453e

gate.2.bias f4 [36]
0.4052274 0.1656247 0.18006599 0.24960472 0.33526742 0.112814665 0.10686248 -0.021409314
0.19582057 0.13319384 0.086704366 -0.0807751 0.20660527 0.21963671 0.057528857 0.024346132
0.015238938 0.18530513 0.08935766 0.19772096 0.1032015 0.05533857 0.23670171 0.047771476
0.09705289 -0.12236317 0.02882366 -0.039687566 -0.097045876 0.10100151 0.123078495 -0.08493982
0.13019069 -0.103265375 -0.060976796 -0.20710857
00000000: f779 cf3e 8599 293e 3863 383e 6198 7f3e
00000010: 2ca8 ab3e 600b e73d b7da da3d 9662 afbc
00000020: 3085 483e f763 083e 0f92 b13d 6a6d a5bd
00000030: 5590 533e 72e8 603e 61a3 6b3d 8a71 c73c
00000040: bdac 793c a1c0 3d3e 2601 b73d 5d77 4a3e
00000050: 4f5b d33d b2aa 623d ef61 723e 06ac 433d
00000060: aac3 c63d 8b99 fabd 991f ec3c 6e8f 22bd
00000070: fdbf c6bd e1d9 ce3d 9410 fc3d eef4 adbd
00000080: b550 053e cc7c d3bd cec2 79bd 4514 54be

Wc.weight f4 [3, 6]
-0.014272033 6.584985e-05 1.3231474e-05 -0.0325923 0.039410196 -0.0013741995 -0.016974354 -0.0014701462
-0.00494639 0.03294001 -0.027545506 -0.006994802 -0.009919919 -0.0024895645 0.0014840192 -0.009802925
0.020018747 0.010871834
00000000: 3fd5 69bc de18 8a38 c0fc 5d37 817f 05bd
00000010: 966c 213d 7c1e b4ba cd0d 8bbc ecb1 c0ba
00000020: 5415 a2bb 1bec 063d 1da7 e1bc a734 e5bb
00000030: 2887 22bc f627 23bb 6c83 c23a 739c 20bc
00000040: 5bfe a33c c71f 323c
