checkpoints/NeuralGVAR/VOL_h4_h4_tr2021-01-01_te2023-01-01_seed5_lam5.0e-04.pt (torch, 16307 bytes, 7 tensors)

S f4 [4, 3, 3]
000000 48 a9 2c 3f 90 e5 ef 3d fc 49 e5 3d 2d 94 f0 3d
       0.674458 0.117137074 0.11195752 0.11747012
000010 bf 4f 14 3f 2f 1b 12 3e d6 5f b5 3d 93 f8 1d 3e
       0.5793418 0.14268182 0.0885617 0.15426855
000020 09 48 22 3f 6f 05 66 3e 13 68 24 3d 6b 07 2d 3d
       0.63391167 0.2246301 0.040138315 0.042243402
000030 27 7e 19 3d ba 79 8a 3e 78 10 25 3d c2 7d ea 3b
       0.037473824 0.27045995 0.04029891 0.007156105
000040 ed a2 b2 3d b2 d0 95 3e 7f 16 c8 3c d0 86 8b bc
       0.08722482 0.29260784 0.02442479 -0.017032057
000050 c0 4b e5 3c a7 e6 b7 3b a1 d5 51 3d 36 09 24 3d
       0.027990222 0.0056122127 0.051229123 0.040047847
000060 e9 73 98 bd 36 b5 d9 3c 17 c6 0d 3d 52 74 e9 bd
       -0.07443983 0.026575666 0.03461274 -0.113991395
000070 12 cd 33 bd 52 1c c1 bd 5d c3 c3 bd ea 74 3c 3d
       -0.043896742 -0.0942923 -0.09558747 0.046009935
000080 3c 1a c9 bd f5 09 79 3d bf 80 94 bd 9f 66 78 bd
       -0.09819457 0.06080051 -0.07251119 -0.060644742

bias f4 [3]
000000 9f 5d 85 bc db 1d e2 bb c2 16 77 bb
       -0.016279994 -0.0069005317 -0.0037702774

gate.0.weight f4 [64, 6]
000000 cb 8c c6 bc a9 f6 9d be e0 a2 11 3e ad 37 3a 3e
       -0.024237057 -0.3085225 0.14222288 0.18185301
000010 28 1e b4 3e fe ed 70 be 70 39 fb bc 77 8c 10 bd
       0.35179257 -0.23528287 -0.030667037 -0.035290208
000020 33 2c ef be 8d 42 0d be a0 83 14 3d 7d 52 15 be
       -0.4671341 -0.13794918 0.03625834 -0.14582248
000030 52 9e bf be 74 bc 0f 3e a0 1b c6 3d 2f b2 44 3e
       -0.37425476 0.14036733 0.09673238 0.19208597
000040 7a 03 b5 3e 2c 96 a2 be 73 50 4c 3e 0f b1 5f be
       0.35354215 -0.31755197 0.19952564 -0.21844886
000050 78 2b 3b be d5 ac b0 3e 88 0a cc 3e dd 83 b8 3e
       -0.18278301 0.3450686 0.39851785 0.36038104
000060 49 3a ca 3d ef 17 da bd a6 95 8b be 66 a1 b8 bc
       0.09874398 -0.10649096 -0.2726261 -0.022537898
000070 19 58 3f be 13 88 a7 bd 8c a3 c2 bb 0f 87 fd bd
       -0.1868595 -0.08180251 -0.0059399065 -0.12379276
000080 98 17 d6 3d 60 65 9b be 1c 84 8e be 03 14 51 be
       0.10453719 -0.3035078 -0.27835166 -0.2041779
000090 35 df c0 3e 7f 36 83 be 76 a9 21 bf 8d cc 15 bf
       0.37670293 -0.25627515 -0.631492 -0.58515245
0000a0 67 a6 16 bf f8 fb 30 3c a7 d3 dc be 49 bf 81 be
       -0.5884766 0.0108022615 -0.43130228 -0.25341251
0000b0 0e 4f 51 be cc ba a9 bd cd 07 b5 3e fb 59 5a 3e
       -0.20440313 -0.08287582 0.35357514 0.21323387
0000c0 ec bd 86 be 8a e6 21 bf b0 93 da be 32 4a 8d be
       -0.26316774 -0.632424 -0.42690802 -0.2759567
0000d0 fe cd 3d bd 1c 2d 24 be 2a 09 78 be 4c b6 ed bd
       -0.046339028 -0.16032833 -0.24222246 -0.11607036
0000e0 ff 2b fc bd 5d c1 84 3c 31 4c f7 3b db 76 a1 3e
       -0.12313079 0.016205484 0.0075469245 0.31535992
0000f0 89 7e 0e bf d0 14 6d be bc 77 1d 3d e7 60 99 3e
       -0.5566183 -0.2315247 0.038444266 0.29956743
000100 6d 5c d8 be 4e ba b9 bd d2 dc 9f 3d 75 7c 1a be
       -0.42258015 -0.09068738 0.0780579 -0.15086539
000110 74 1b b6 3a 41 fd e9 bd 36 4b c2 3e 3c 4e cb bd
       0.001389368 -0.114252575 0.37948006 -0.099270314
000120 af 1a 7c be 1d 46 65 3d 86 cf af bd 60 bb 02 3d
       -0.24619554 0.05597507 -0.08584504 0.031916976
000130 db cb cc be 6c 11 20 be 43 f6 c0 3c e1 26 d9 be
       -0.3999928 -0.15631646 0.023554927 -0.42412475
000140 9b 59 ad be e3 63 83 3e 12 c2 99 be 7c 30 31 3f
       -0.33857426 0.25662145 -0.30030876 0.69214606
000150 11 2b 99 3e 57 9d f7 be a9 5b 03 3e 13 bf cd be
       0.2991567 -0.48362228 0.12827934 -0.4018484
000160 0a b0 c6 be 0c 5e fc 3e 64 c8 7e be c7 af 8d be
       -0.38806182 0.49290502 -0.2488113 -0.2767317
000170 7d b6 e6 3d 2c aa 90 3e 8c 4a c0 3c 92 64 25 be
       0.112652756 0.2825483 0.023473047 -0.16151646
000180 d7 53 88 3d a1 df d3 be cc c7 00 bf 7b 1b af 3d
       0.06656616 -0.41381553 -0.50304866 0.08550163
000190 ab b4 c5 3d 40 6c 3d 3e 68 24 9c 3d cf 13 ca be
       0.096536 0.18498325 0.076241314 -0.39468238
0001a0 f3 de b1 be eb 3e 45 bf f1 b0 00 be 53 fb d2 3d
       -0.3474041 -0.7704913 -0.12567498 0.103018425
0001b0 0b 7a f2 bc e0 96 49 bd 6d b4 35 3a 8f 9e 90 3e
       -0.02959921 -0.04921615 0.00069314876 0.2824597
0001c0 b5 99 09 3f 6d 68 54 bd 37 3a df 3e 2f a0 e7 bd
       0.53750163 -0.0518574 0.43599102 -0.113098495
0001d0 d4 4c 99 3e 74 05 39 3f 67 f6 96 be dc cc 88 3f
       0.29941428 0.72273946 -0.29484865 1.0687518
0001e0 b2 24 de bd 36 3b 30 be e3 3b bb be ae fb fc be
       -0.10846843 -0.17210087 -0.36569127 -0.49410766
0001f0 90 76 e6 be 79 89 b9 be 6b 4e 2f bf c8 50 92 be
       -0.4501233 -0.36237696 -0.6847903 -0.28577256
000200 f3 86 cc be 60 96 d4 be 2b 10 45 be 1c 87 bc be
       -0.39946708 -0.41520977 -0.19244449 -0.3682183
000210 cf 9f fe bd cf 30 8c be f2 3a c2 bd e8 ca 90 3e
       -0.12432825 -0.27380988 -0.09483899 0.28279805
000220 71 b5 a1 3e 6a c4 a4 be 46 06 aa 3d 75 13 8a 3e
       0.3158374 -0.32181102 0.08301978 0.2696797
000230 12 4d db 3e 05 cb ec 3e cb ae 6a be a0 22 ce bd
       0.42832237 0.46248642 -0.2291824 -0.10065198
000240 ea eb 9e 3d b7 96 d7 bc 03 e5 74 be fa c3 13 bf
       0.07759841 -0.026316984 -0.23915486 -0.5772091
000250 9e e5 eb be ba 25 b9 bd 9a 98 12 bf 2b bf 20 be
       -0.46073622 -0.09040399 -0.572641 -0.15697925
000260 88 1a 0f 3d 60 e1 3f bd 28 5f 98 3e 1c b6 f8 3e
       0.03493741 -0.046845794 0.29760098 0.48576438
000270 a9 7b dc 3e 5e dd b5 be ae 96 90 3e c1 05 30 be
       0.43063095 -0.35520452 0.2823996 -0.17189695
000280 f2 05 3c bf 55 de 46 3d 07 10 92 be 8e 4f 76 3e
       -0.7344657 0.048551876 -0.28527853 0.24053785
000290 f6 78 6d 3e 5c 51 87 be b0 70 a3 be 6e 27 c9 bd
       0.23190674 -0.2642926 -0.3192191 -0.09821974
0002a0 75 d5 1b be a6 43 c0 bd dd 6f 03 bf b7 e0 c1 3e
       -0.15218146 -0.09387903 -0.51342565 0.37866756
0002b0 be b5 08 3e 4a d6 4f bd 78 f2 98 be b9 c3 f3 3c
       0.13350579 -0.05074147 -0.2987249 0.029756414
0002c0 f9 81 d0 3d ec 31 e5 3e fa 62 8c be b9 8a 7c be
       0.1018104 0.4476465 -0.27419263 -0.24662293
0002d0 5b a1 34 3f 5b e0 eb 3e b5 e2 d7 be 3c b2 78 bf
       0.7055871 0.46069607 -0.4216515 -0.97146964
0002e0 91 71 5a bf 33 fc 99 3e 78 c9 6c 3c 2e 41 88 3e
       -0.8532954 0.30075225 0.014452331 0.26612228
0002f0 e0 26 07 3e 44 d7 60 3e 7e b1 48 3d b2 2c 24 3f
       0.13198423 0.21957117 0.048997395 0.641307
000300 97 f2 0c 3e 90 3d 7a 3e 61 a4 e1 bc 78 5d 3e 3c
       0.13764416 0.24437547 -0.027544202 0.011618964
000310 69 3c 02 3e 06 e0 d3 be ff b3 a9 be 29 09 de be
       0.12718357 -0.41381854 -0.3314514 -0.43366364
000320 59 6d 6a bd b0 dc 88 bd c5 0f 83 3e 5c a6 f3 be
       -0.05723319 -0.06682718 0.2559797 -0.4758786
000330 c5 a9 13 bf fd 2b e3 3e 7c 8b 0b 3b 80 96 91 be
       -0.5768092 0.44369498 0.0021292856 -0.28435135
000340 71 ea 4f be f1 9e 83 bd 70 2e 0c bf cb 03 00 bf
       -0.20304276 -0.064268 -0.5475836 -0.5000579
000350 38 45 9a be b4 1d 8e 3e a6 9b ab 3d dc 88 0c bf
       -0.30130935 0.27757037 0.08379297 -0.5489633
000360 0b 53 4c bc 95 4e 61 be 27 d3 07 3e 0d 0f 4d 3e
       -0.012470971 -0.22002633 0.13264142 0.20025273
000370 95 e4 b4 3e c0 b1 1c bd 13 74 c3 3d 17 27 a1 be
       0.35330644 -0.038255453 0.09543624 -0.31475136
000380 16 16 cc bd 27 32 07 bf 3f 3f eb be 84 4f 32 3e
       -0.0996515 -0.528109 -0.4594669 0.17413145
000390 63 3d af 3e 89 f7 84 3e c9 5d 08 3f ce ca 59 be
       0.34226522 0.25970104 0.53268105 -0.2126877
0003a0 51 b9 f5 3e 1a fb ee be 01 78 56 3d 5c 03 13 3f
       0.47992948 -0.4667595 0.05236054 0.57427
0003b0 2d b6 c2 3a 5a 0f bb be bb e5 4f bf 0e ad 3b be
       0.0014855318 -0.3653515 -0.81209916 -0.18327734
0003c0 e5 da 07 bf e7 9b e7 bc 7c 7c 38 3b 1c 55 cc be
       -0.5306838 -0.028272582 0.002815037 -0.39908683
0003d0 73 60 7a be 35 07 79 be 9e aa 19 3f b3 00 65 be
       -0.24450855 -0.24319156 0.60025966 -0.22363548
0003e0 0c 23 8d 3d 84 a2 cc 3d 0b c2 40 3e cf d6 a6 3f
       0.0689145 0.09991935 0.18824022 1.3034304
0003f0 3e 4d e0 3b 1c 4a a5 bd a3 0f e5 be 5d 00 98 3e
       0.0068451455 -0.08070776 -0.44738492 0.29687777

gate.0.bias f4 [64]
000000 ea b4 b5 be d8 ac 3f 3f c0 d6 60 3e d9 5c e9 be
       -0.3548959 0.74873114 0.2195692 -0.4557865
000010 5e 56 d6 3e 71 f4 27 3f a8 2b b6 3e f7 48 17 3f
       0.41862768 0.65607363 0.35580182 0.5909571
000020 62 6d 27 3f fb ea 38 3f d8 b9 19 3f b1 5e b4 3e
       0.6540128 0.7223355 0.600492 0.35228494
000030 68 0b de 3e 97 20 ea 3e 68 04 00 3f bf 05 20 be
       0.43368077 0.4572799 0.50006723 -0.15627192
000040 3c ca 37 3f d1 b8 8e 3e a8 4c 8d bd 9f 77 05 3f
       0.7179296 0.2787538 -0.06899387 0.5213565
000050 20 51 87 3e f0 5e 92 3e 52 b2 03 be 2a a4 26 3c
       0.2642908 0.28588057 -0.12860993 0.010170976
000060 6c f1 16 bd ec 88 18 be ef 7e a3 3e 97 b7 04 3f
       -0.03685133 -0.14895982 0.3193278 0.51842636
000070 7e a7 26 be be 4f 46 3e 62 51 44 3f fb 85 8b 3e
       -0.1627483 0.19366357 0.7668668 0.27250656
000080 ff 75 d1 be 6e d7 c6 be dd 26 0d be dd 89 15 3e
       -0.40910336 -0.38836235 -0.13784356 0.14603372
000090 d7 8c 7e 3e 7e 31 a9 3e 57 7f f5 be 8c ed bb be
       0.24858414 0.33045572 -0.47948715 -0.3670467
0000a0 23 6a 65 bd 6c dd 3a 3f 3b 6f 49 be 74 26 35 3f
       -0.056009423 0.7299411 -0.19671337 0.707618
0000b0 6f 9a f9 3e 42 cc a7 3d 95 4e 03 bf 64 b7 06 bf
       0.48750636 0.08193256 -0.5129178 -0.5262358
0000c0 45 a7 49 3f 5f 31 95 be 24 32 06 3f a3 ec ca be
       0.7877086 -0.2913923 0.5242026 -0.39633664
0000d0 35 a8 b1 be 11 0c ca 3e ad 23 09 3f a3 31 c9 be
       -0.34698644 0.3946233 0.5357006 -0.39295682
0000e0 72 06 c3 be 54 4f 00 3f 5c 79 fa be 25 7b 29 3f
       -0.38090855 0.50121045 -0.48920715 0.6620353
0000f0 1a 29 28 3f 5f c6 39 3e b4 c5 96 3e 63 e8 fa 3e
       0.65687716 0.18142079 0.2944771 0.49005422

gate.2.weight f4 [36, 64]
000000 cd f7 de bc 29 61 b7 3e f8 26 63 3e ee 00 9b bd
       -0.02721777 0.35816315 0.22182834 -0.07568537
000010 bb 3a b8 3e d3 3d ca 3e db 0e db 3e 05 8b fa 3d
       0.35982308 0.39500293 0.4278477 0.12233547
000020 bc 5d 58 3e 9e a6 97 3e 98 1d d6 3e 0b 22 fb 3e
       0.21129507 0.29619306 0.41819453 0.4904941
000030 ad 05 bc 3e be 01 12 3f 10 b3 b8 3e ee e3 27 bd
       0.3672308 0.5703391 0.36074114 -0.040988855
000040 da 37 bf 3e 30 d3 93 3e 93 a9 d6 3d 1e 5f 3d 3e
       0.373473 0.2887206 0.104815625 0.18493316
000050 a0 d6 18 3e 0d 9f 8e 3e 9a 92 82 bc 6d 5e 6c 3e
       0.14925623 0.2785572 -0.015939046 0.23082896
000060 90 5e a0 3e 5a b6 dc 3c 8f 89 9d 3e 4c fb 67 3e
       0.31322145 0.02694242 0.3076901 0.22654456
000070 d7 71 35 bc 60 13 53 3e b1 b3 e9 3e d4 18 48 3e
       -0.011074505 0.2061286 0.45644906 0.19540721
000080 ff dc 90 3d ef 04 2e 3d c9 d6 50 3e 6b aa 0d 3e
       0.07073402 0.042485174 0.20394434 0.1383454
000090 6b 86 9a 3d 26 e5 15 3e 78 98 ce bb 5d 8b 67 3e
       0.075451694 0.14638194 -0.006304797 0.22611757
0000a0 7d 3c 70 3e 4a b9 0d 3f a3 d6 01 3c 75 0b f9 3e
       0.23460574 0.55360854 0.007924709 0.48641554
0000b0 32 7e 20 3f 86 34 0f 3d 30 d3 70 bd f4 db 03 bd
       0.6269256 0.0349622 -0.058795154 -0.032192186
0000c0 cb 7d 95 3e b5 9b 6f bd f8 78 4f 3e d3 3d 2f 3c
       0.29197535 -0.058498103 0.2026099 0.010695892
0000d0 d1 23 18 3e 1c 4e 93 3e 6c 9a 00 3f da b6 f6 3d
       0.14857413 0.2877053 0.5023563 0.12046595
0000e0 2a a6 ce bb fe ea 21 3e ba e6 65 3d 01 d9 e2 3e
       -0.0063064294 0.15812299 0.05612824 0.44306186
0000f0 5f 5b fd 3d 46 c6 31 3e 29 1c a2 3e e8 e6 cf 3d
       0.12370943 0.17360792 0.3166211 0.10151464
000100 29 53 cc 3d e7 c9 1d 3e e8 93 39 3e 33 4f 11 3c
       0.09976799 0.15409051 0.18122828 0.00886898
000110 3c 72 91 3e b8 72 4d 3e 34 e8 26 3e 71 8e 3c 3e
       0.28407466 0.20063293 0.16299516 0.18413712
000120 e9 ba 52 3e 50 8a 77 3e c3 cc 24 3e 41 8c df 3e
       0.20579113 0.24173856 0.16093735 0.43661693
000130 57 52 4b 3e 7d 95 29 3e 17 22 7b bd f6 36 0f 3e
       0.19855629 0.16560932 -0.061311807 0.1398581
000140 2c 3d 5b 3e 5b 87 51 3e b4 21 45 3c 02 34 17 bd
       0.21410054 0.2046179 0.012031961 -0.036914833
000150 c4 38 f4 3d 11 6c 80 3e 7e bb 1b bd 75 48 da bb
       0.1192489 0.25082448 -0.038020603 -0.0066614696
000160 f3 63 85 3e 61 0d fe 3d 0a 53 06 3e f1 64 68 3e
       0.26052818 0.124048956 0.13117614 0.22694756
000170 49 4e 1a bd fe c4 a5 3e b9 c6 4d be 92 76 3a bd
       -0.037672315 0.32376856 -0.20095338 -0.045523234
000180 25 9e d6 3c 1f b3 f0 bd 1a f2 93 3e da 33 03 3e
       0.026198456 -0.11752915 0.28895646 0.12812749
000190 e4 a3 84 3e 45 04 96 3d 0f 1c 0e be 61 93 75 3e
       0.2590629 0.07325033 -0.13877891 0.23982002
0001a0 a5 24 91 3e 26 3a 54 bd 17 65 21 3e d4 eb 82 3e
       0.2834827 -0.051813267 0.15761219 0.25570548
0001b0 1f 32 59 3e da d3 45 3d e0 d9 26 3c fe 93 e0 bd
       0.21210526 0.04829774 0.010183781 -0.10965727
0001c0 a1 3e e5 3d a8 9f 70 bd 38 0e 81 bd 3e 3e 82 3c
       0.11193586 -0.05874601 -0.0630154 0.01589882
0001d0 0b 93 5d bd 49 68 66 3d b1 70 d6 3d 5d 14 09 bd
       -0.05409531 0.056251798 0.10470713 -0.033466686
0001e0 e7 48 a1 bd 00 8e f6 3d aa 2f d9 3d c1 b9 72 3e
       -0.07875233 0.12038803 0.10604794 0.23703672
0001f0 09 fa 75 3e 77 5b 88 3d 41 1d ba 3e 56 91 a7 3e
       0.24021162 0.066580705 0.36350444 0.3272807
000200 92 bb a9 bd 16 b5 35 3e ce 34 ad 3d 67 15 f4 bd
       -0.08287729 0.1774486 0.08457337 -0.11918145
000210 5a 19 39 3e 27 ef 3e 3d e7 59 4c 3e 2a 7b bf 3d
       0.18076077 0.046614792 0.1995617 0.093496636
000220 dd 6c 74 3e 41 d4 00 3e 61 75 84 3e 6e 3b e8 bc
       0.23869653 0.12580968 0.25870803 -0.02834865
000230 23 3a ee 3d 05 2c 85 bd e5 d1 5e 3d 27 91 04 be
       0.116321824 -0.06502537 0.05439939 -0.12945996
000240 2f 58 60 3e 8c 8f 77 3e 4a b0 61 be 7e 37 14 3d
       0.2190864 0.24175853 -0.22039905 0.036185734
000250 08 70 8a 3d d6 ab c8 3c 2c 25 bd bd ba 38 5d 3b
       0.067596495 0.024496 -0.092356056 0.0033755735
000260 c9 24 0d 3a 2c cd d4 bd be b2 b9 3c 77 34 83 3e
       0.00053842046 -0.10390696 0.022668239 0.25625965
000270 b1 76 11 be 22 11 8b 3d 0d 8a 68 3c 5c 20 8a 3d
       -0.14205433 0.06790377 0.01419307 0.06744453
000280 99 9c 9c bd 9f 5c 77 3d 16 0d 8f 3e de 20 c1 3c
       -0.07647056 0.060391065 0.2793967 0.023575243
000290 7f 6a 13 be 1a 05 16 3e ab 81 a6 bc 2a 9e 09 3e
       -0.14396094 0.14650384 -0.020325502 0.13439241
0002a0 fb 14 45 3e cc 85 09 be 4c 5c 31 be b7 f0 99 3e
       0.19246285 -0.13429946 -0.17320365 0.30066463
0002b0 82 b2 b7 3d 5e 08 89 bd d1 bb bc 3d c2 53 6a 3d
       0.089695945 -0.06691049 0.09215511 0.057208784
0002c0 2e 2f b9 3e 78 6f 0d 3d c7 8f 3c 3d d3 19 42 3c
       0.36168808 0.034530133 0.046035554 0.011846977
0002d0 85 7c 47 bc 00 8b 1a 3e b5 a3 c4 3d f1 3d d5 3d
       -0.012175684 0.15092087 0.09601537 0.10412205
0002e0 68 de 5d 3d ee 65 0c 3e 79 80 19 bd 87 7b 65 3e
       0.05416718 0.13710758 -0.037476037 0.22410403
0002f0 36 55 aa 3d d1 85 12 be af df 44 3c dc 91 63 bd
       0.08317034 -0.1430886 0.012016221 -0.055559024
000300 63 73 b9 3d b4 97 22 3e 42 0f 36 3d c0 b2 af bd
       0.090552114 0.15878183 0.044448145 -0.08579016
000310 4c c7 84 3e 08 e6 c1 3d 5d 48 44 be 77 2c 66 3c
       0.259333 0.09467703 -0.1916823 0.014048687
000320 15 b1 ab 3d 2a f1 f5 3d f9 61 17 3e e3 cd 50 3e
       0.08383385 0.12008889 0.14783467 0.2039104
000330 d5 46 1e 3e 75 94 c0 bc 40 55 d6 bd 7f 9a 39 bd
       0.15456708 -0.02350829 -0.10465479 -0.045313355
000340 f5 c6 78 3e 20 62 ce 3d 78 c6 c6 3d c3 ff 1c bf
       0.24294646 0.100773096 0.09705824 -0.6132776
000350 42 31 40 3e 41 c2 a4 3d 0d aa 6f 3d 27 96 b8 be
       0.1876879 0.080448635 0.058511782 -0.36052057
000360 d1 08 e3 bd d6 82 df bc da 09 23 be 50 fb 0f 3e
       -0.11085666 -0.027284067 -0.15921727 0.14060712
000370 31 a5 e8 3b 58 9a e2 bd aa 82 bc be 66 ec c5 be
       0.0070997705 -0.11064595 -0.3681844 -0.3865692
000380 eb b2 19 3e d3 21 7b 3d 7c 8f f9 bd 68 76 2b 3d
       0.15009658 0.061311554 -0.121855706 0.041860968
000390 40 2b e4 3d 55 be 2a 3e a4 5e 89 3e f7 65 0d bf
       0.11141062 0.16674168 0.26830018 -0.5523371
0003a0 58 1f a8 3c 24 bf 3a be 37 50 0c 3e 3e 1d a0 3d
       0.020522758 -0.18236977 0.13702475 0.078180775
0003b0 6b e8 ae 3e ad 6b 82 3d 54 ae 75 3a 95 65 4a 3b
       0.34161696 0.06368194 0.0009371985 0.0030883302
0003c0 fb 2b 32 3e c6 4b 37 be 86 d8 d2 bd 03 13 ad bd
       0.1739959 -0.17899999 -0.10295205 -0.08450892
0003d0 5b 62 95 3d 7e 11 31 3e e9 9e 2a be 7f 1d 68 3e
       0.072941504 0.17291829 -0.16662182 0.22667502
0003e0 57 33 7e 3b 46 d7 9e 3e 07 ce 58 3a 42 fb 90 3d
       0.0038787925 0.31023616 0.00082704466 0.070791736
0003f0 b0 50 16 3e 74 3e e6 bd ed 58 ab 3d c2 28 1e 3c
       0.14679217 -0.11242381 0.083665706 0.009653272

gate.2.bias f4 [36]
000000 d8 9f 94 3e 8b 0e 33 3e 60 5f 21 3e 41 4e 7f 3e
       0.290282 0.17486016 0.15759039 0.24932195
000010 b6 2e b2 3e 5b 8e 30 3e 06 a0 e2 3d 9c 82 8c 3e
       0.34801263 0.17241804 0.11065678 0.27443397
000020 cb 23 c8 3e 9e 83 08 3e 5b 80 ca 3d 19 5a 3c 3c
       0.39089808 0.13331458 0.09887763 0.01149609
000030 27 dd 16 3d da bf 6d 3e 01 1b da bd 9a 76 b0 bd
       0.036832 0.23217717 -0.10649682 -0.086163715
000040 6c 99 6a bc 1c 6d a4 3e 0e 64 4b 3d ca 27 c8 3d
       -0.014318805 0.32114494 0.049655966 0.09773214
000050 ec 25 2e bb 54 dd a4 bd f3 e8 53 3d dc e4 79 be
       -0.0026572896 -0.080500275 0.05173583 -0.24403709
000060 59 aa 97 3d f3 3a 9c bd ca 51 3d 3e be 9f f5 bb
       0.07405538 -0.07628431 0.18488231 -0.0074958494
000070 0e 5b 61 3c 2e 97 96 3d b6 67 32 3e 43 0f 90 bd
       0.013754619 0.07353054 0.17422375 -0.07034161
000080 80 72 9c 3d a4 57 fa bd 7b 4f da 3d fb 7b cc 3d
       0.07639027 -0.122237474 0.10659691 0.09984585

Wc.weight f4 [3, 6]
000000 00 9d b1 bc ff 7f c6 bb c0 ec 8b ba 1b 67 30 bb
       -0.021681309 -0.006057739 -0.0010675415 -0.0026916924
000010 f9 91 2a 3d f9 25 b0 bc 50 73 be bc 5f a6 5b bb
       0.041643117 -0.021502482 -0.023248345 -0.0033515913
000020 dc 95 db bb 48 b4 6c 3d a3 0d 87 bd 76 51 15 3d
       -0.0067012142 0.057789117 -0.06594398 0.03645464
000030 bf 2b 7b bc 62 02 26 bb 81 39 49 3b 7d 95 a1 3d
       -0.015330254 -0.002533101 0.003070444 0.07889841
000040 b3 75 7e bd dc 65 b4 3c
       -0.062123965 0.022021227
