checkpoints/NeuralGVAR/VOL_h1_h1_tr2021-01-01_te2024-01-01_seed5_lam5.0e-04.pt (torch, 16307 bytes, 7 tensors)

S f4 [4, 3, 3]
0.756746 0.14330746 0.048598565 0.053649236 0.6891939 0.07283719 0.070256315 0.100202836
0.7120175 0.1789517 0.015654998 -0.006585541 0.012733981 0.248662 0.024095334 -0.0677476
0.06057161 0.25630382 0.03758093 -0.10211648 0.014892978 -0.0012127358 -0.011994367 0.007063865
-0.0028719814 0.015838113 -0.008718309 -0.052370965 -0.021087226 -0.023969747 -0.00045945714 0.06877933
-0.06446998 0.025595887 -0.058250424 0.015526236
00000000: 1bba 413f 31bf 123e 4a0f 473d 4dbf 5b3d
00000010: 036f 303f aa2b 953d 8be2 8f3d 2537 cd3d
00000020: c746 363f 1d3f 373e e93e 803c 86cb d7bb
00000030: 30a2 503c 40a1 7e3e 9463 c53c 41bf 8abd
00000040: f019 783d 413a 833e 76ee 193d 7222 d1bd
00000050: ad01 743c a9f4 9eba 0684 44bc ff77 e73b
00000060: da37 3cbb eebe 813c 3dd7 0ebc f082 56bd
00000070: 1ebf acbc 345c c4bc 4be3 f0b9 2ddc 8c3d
00000080: d608 84bd 77ae d13c ff97 6ebd c161 7e3c

bias f4 [3]
-0.008951556 -0.011857305 -0.008956008
00000000: 8ca9 12bc 2445 42bc 38bc 12bc

gate.0.weight f4 [64, 6]
0.018731652 -0.17851114 0.09552247 0.16042201 0.28765747 -0.26750118 -0.17856824 0.0020136272
-0.63877773 -0.15885349 -0.0089721605 -0.13304791 -0.38458303 0.10654523 0.040861294 0.18785574
0.3661407 -0.15739197 0.42657366 -0.062114283 -0.07037056 0.32524434 0.39745384 0.37958762
0.0022122294 -0.063290015 -0.34396324 -0.0027361838 -0.13994442 -0.011529025 -0.12456961 -0.14384966
0.17112042 -0.29463032 -0.25602564 -0.24916731 0.3854853 -0.24736336 -0.7118508 -0.4174473
-0.4603445 0.044870965 -0.54431474 -0.18320775 -0.21911456 -0.14004174 0.40286008 0.2618857
-0.44834426 -0.5340298 -0.43739834 -0.28981838 0.022375474 -0.13790345 -0.34256452 -0.10169131
-0.1208263 -0.0062809126 -0.006795889 0.3772447 -0.31616142 -0.035423182 0.06420039 0.41812977
-0.27125993 -0.0639643 0.16877821 -0.11712198 0.043700464 -0.14804289 0.3435807 -0.13427834
-0.103667535 0.08331929 -0.06188076 0.009645789 -0.28898668 -0.17153029 -0.057722818 -0.44667295
-0.5294015 0.16060333 -0.24872497 0.5447913 0.31448403 -0.4300988 0.16284515 -0.32068658
-0.33670443 0.46855533 -0.13643485 -0.04168256 0.22076622 0.18991075 0.013576087 -0.27226207
-0.021489395 -0.32913017 -0.58386207 0.04698089 0.059319507 0.20235784 -0.0521243 -0.34766066
-0.45133018 -0.72313994 -0.048435394 0.14982477 -0.011603694 -0.07238305 0.02761501 0.19195558
0.5118051 0.11555364 0.31422162 -0.21779492 0.08538112 0.6939535 -0.41624135 0.7152409
-0.11046264 -0.16041096 -0.42124796 -0.46783924 -0.40271157 -0.37403965 -0.3419984 -0.17253599
-0.4815568 -0.44207352 -0.13999774 -0.42397147 -0.092583045 -0.12922965 -0.0958831 0.2604126
0.3252168 -0.3220621 -0.19556011 0.18425754 0.2648693 0.69420683 -0.23386236 -0.05937727
0.25985572 -0.06395703 -0.12434648 -0.48867795 -0.36648676 -0.15522018 -0.6874978 -0.06553309
0.0468671 -0.22414777 0.2661807 0.57178235 0.47045013 -0.34699178 0.4154028 -0.24539383
-0.88989335 0.025036579 -0.3963723 0.116772614 0.22045223 -0.2708475 -0.34363875 -0.023928517
-0.167794 0.008531716 -0.47230485 0.338825 0.105980076 -0.045041226 -0.23833543 0.037943818
0.13867974 0.41350633 -0.30471703 -0.20783256 0.18654987 0.3122866 -0.8170652 -0.7376611
-0.67467225 0.22715786 -0.005301494 0.27562776 0.17610127 0.023147125 0.027223637 0.29957068
0.06991893 0.12758574 -0.025296848 -0.0047822157 0.1546952 -0.33822325 -0.05234835 -0.20386742
0.06389193 -0.11314797 0.14037661 -0.4514653 -0.5054923 0.1295142 -0.0466873 -0.26688012
-0.12647617 -0.029566558 -0.4986723 -0.468289 -0.31132013 0.22718717 0.13125466 -0.5068824
-0.29698607 -0.07544076 0.1546577 0.10094839 0.31728047 0.05687823 0.0046539227 -0.28955454
-0.10245571 -0.471151 -0.4733583 0.2863384 0.20787068 0.15882234 0.5446742 -0.23895548
0.5429951 -0.45080724 0.015881201 0.717701 0.2464322 -0.2884689 -0.83831143 -0.030572362
-0.55692977 -0.1286406 -0.057945553 -0.37716803 -0.15680239 -0.14883941 0.4896095 -0.16314627
-0.038228292 0.06727689 0.2990159 0.9707619 0.060897604 -0.010979852 -0.37982783 0.1788005
00000000: 1f73 993c a0cb 36be 49a1 c33d ab45 243e
00000010: d747 933e eaf5 88be 98da 36be 0ff7 033b
00000020: f086 23bf 7daa 22be f8ff 12bc b63d 08be
00000030: 11e8 c4be 6334 da3d 2c5e 273d 415d 403e
00000040: cb76 bb3e 5c2b 21be dd67 da3e 8c6b 7ebd
00000050: 711e 90bd 6d86 a63e 127f cb3e 4f59 c23e
00000060: 0dfb 103b 329e 81bd f31b b0be 8c51 33bb
00000070: 974d 0fbe 3ce4 3cbc 5a1e ffbd 534d 13be
00000080: 313a 2f3e c9d9 96be cb15 83be b725 7fbe
00000090: 545e c53e d24c 7dbe db3b 36bf a7bb d5be
000000a0: 46b2 ebbe 9eca 373d 3658 0bbf d09a 3bbe
000000b0: 915f 60be 1a67 0fbe ad43 ce3e e215 863e
000000c0: 618d e5be 2db6 08bf adf2 dfbe 1363 94be
000000d0: c54c b73c 9036 0dbe 9e64 afbe 8943 d0bd
000000e0: c773 f7bd 1dd0 cdbb 0db0 debb 3826 c13e
000000f0: e9df a1be e617 11bd 7e7b 833d 1b15 d63e
00000100: 95e2 8abe b7ff 82bd 32d4 2c3e a6dd efbd
00000110: 42ff 323d 8e98 17be cfe9 af3e 4380 09be
00000120: a54f d4bd 4ea3 aa3d ae76 7dbd 5f09 1e3c
00000130: 10f6 93be a3a5 2fbe c36e 6cbd 51b2 e4be
00000140: db86 07bf 3375 243e c2b1 7ebe 7177 0b3f
00000150: 0d04 a13e e935 dcbe e1c0 263e 0831 a4be
00000160: 8664 acbe 7ce6 ef3e 94b5 0bbe 55bb 2abd
00000170: 8a10 623e f777 423e 3c6e 5e3c ef65 8bbe
00000180: 870a b0bc c083 a8be fc77 15bf 096f 403d
00000190: 03f9 723d e536 4f3e 4a80 55bd 9400 b2be
000001a0: c014 e7be b31f 39bf 3164 46bd aa6b 193e
000001b0: 6c1d 3ebc 913d 94bd e038 e23c 0190 443e
000001c0: a905 033f 63a7 ec3d a8e1 a03e a205 5fbe
000001d0: 4cdc ae3d f0a6 313f 961d d5be 071a 373f
000001e0: 3d3a e2bd c542 24be d0ad d7be a088 efbe
000001f0: 3630 cebe 2082 bfbe 6a1a afbe 46ad 30be
00000200: 9d8e f6be 7657 e2be 915b 0fbe ca12 d9be
00000210: 2e9c bdbd c754 04be 5c5e c4bd cd54 853e
00000220: d182 a63e 53e5 a4be e940 48be 02ae 3c3e
00000230: f39c 873e 8ab7 313f 9d79 6fbe 9535 73bd
00000240: cf0b 853e e7fb 82bd 5ea9 febd ff33 fabe
00000250: 27a4 bbbe 0af2 1ebe dbff 2fbf 3636 86bd
00000260: b7f7 3f3d fe86 65be d648 883e 5460 123f
00000270: d7de f03e e8a8 b1be adaf d43e 8548 7bbe
00000280: 0dd0 63bf 8319 cd3c 4ff1 cabe 7b26 ef3d
00000290: 3bbe 613e 86ac 8abe 6bf1 afbe bd05 c4bc
000002a0: 31d2 2bbe 9cc8 0b3c f1d1 f1be 787a ad3e
000002b0: 150c d93d 267d 38bd 340e 74be fa6a 1b3d
000002c0: 1002 0e3e 1ab7 d33e df03 9cbe 0fd2 54be
000002d0: ee06 3f3e 07e4 9f3e 2f2b 51bf 5cd7 3cbf
000002e0: 52b7 2cbf 129c 683e 28b8 adbb 151f 8d3e
000002f0: e453 343e 0a9f bd3c 1b04 df3c 5461 993e
00000300: a831 8f3d d6a5 023e 563b cfbc 22b4 9cbb
00000310: 6b68 1e3e 992b adbe 396b 56bd 9fc2 50be
00000320: c6d9 823d 1fba e7bd e3be 0f3e 7626 e7be
00000330: f267 01bf 5f9f 043e 2f3b 3fbd 83a4 88be
00000340: f882 01be 9135 f2bc fa51 ffbe 93c3 efbe
00000350: 5a65 9fbe c1a3 683e 9f67 063e 0cc3 01bf
00000360: 8f0e 98be af80 9abd 975e 1e3e 08be ce3d
00000370: 9672 a23e 26f9 683d ef7f 983b 7e40 94be
00000380: 4dd4 d1bd b43a f1be 055c f2be f29a 923e
00000390: 0ddc 543e 53a2 223e c56f 0b3f bfb0 74be
000003a0: ba01 0b3f 35d0 e6be 4b19 823c 41bb 373f
000003b0: b958 7c3e 32b2 93be 949b 56bf e472 fabc
000003c0: f392 0ebf 5dba 03be 5158 6dbd 2b1c c1be
000003d0: ce90 20be 5c69 18be 19ae fa3e d10f 27be
000003e0: 4595 1cbd 77c8 893d 9d18 993e da83 783f
000003f0: c46f 793d d6e4 33bc cb78 c2be 7a17 373e

gate.0.bias f4 [64]
-0.38612258 0.83340114 0.0966476 -0.47575307 0.47758952 0.76902497 0.69337124 0.5045503
0.6965276 0.7381741 0.733922 0.48582202 0.53082126 0.6228185 0.6454095 -0.25959858
0.7742191 0.47829226 -0.17403938 0.5144108 0.30821678 0.41999495 -0.19289534 0.44829792
-0.14194565 -0.24022098 0.67522 0.5309597 -0.24481337 0.20681648 1.0941349 -0.2764179
-0.310984 -0.4279639 -0.16495635 0.11843825 0.15231922 0.3385091 -0.38640946 -0.16207457
-0.079070516 0.5897039 -0.30872804 0.8186524 0.61865324 0.12036741 -0.43122238 -0.34749478
0.8206209 -0.32341993 -0.020084415 -0.28002658 -0.48138276 0.5351701 1.1391896 -0.4172126
-0.35030207 0.56138617 -0.37596807 0.7192742 0.61134756 0.37609947 0.57475984 0.54779255
00000000: dcb1 c5be c759 553f 2def c53d e895 f3be
00000010: 9d86 f43e d2de 443f c780 313f 352a 013f
00000020: a24f 323f faf8 3c3f 50e2 3b3f aabd f83e
00000030: e7e3 073f 0971 1f3f 8f39 253f 1bea 84be
00000040: 3933 463f b9e2 f43e 6137 32be 6db0 033f
00000050: 97ce 9d3e 9409 d73e 5b86 45be 4e87 e53e
00000060: 335a 11be 7dfc 75be 38db 2c3f faec 073f
00000070: 5bb0 7abe b3c7 533e 9d0c 8c3f a686 8dbe
00000080: 4b39 9fbe 161e dbbe 51ea 28be c18f f23d
00000090: 92f9 1b3e 1151 ad3e 76d7 c5be e0f6 25be
000000a0: b9ef a1bd d6f6 163f 9a11 9ebe 3493 513f
000000b0: 0f60 1e3f 3083 f63d 2ec9 dcbe d6ea b1be
000000c0: 3614 523f 4c97 a5be 1288 a4bc a55f 8fbe
000000d0: cd77 f6be e800 093f f7d0 913f e49c d5be
000000e0: cb5a b3be 01b7 0f3f e37e c0be 5b22 383f
000000f0: 4681 1c3f 1c90 c03e 7623 133f 223c 0c3f

gate.2.weight f4 [36, 64]
-0.020473838 0.3429884 0.19657888 -0.08902387 0.33974397 0.3839025 0.30093536 0.0725186
0.19285277 0.29566965 0.464194 0.42079717 0.35098913 0.7093122 0.3831559 -0.05657888
0.3717702 0.3294262 0.09314034 0.06892232 0.12570807 0.25508055 -0.016895136 0.34621564
0.23436588 -0.009968292 0.30190498 0.2133665 -0.00986103 0.18144692 0.26536486 0.10514605
0.08346265 0.05761797 0.22212197 0.12381282 0.037583902 0.14919952 -0.0004931315 0.23863934
0.18502297 0.25783065 -0.009718881 0.50889665 0.70644087 0.015287774 -0.06202795 -0.0414742
0.2583894 -0.05021322 0.13684261 -0.019257681 0.13352506 0.30951133 0.56249475 0.099094495
-0.024801409 0.1366876 0.05917297 0.45725763 0.08650502 0.15769508 0.36216912 0.066209845
0.017694982 0.16948292 0.0382206 -0.06954374 0.3366987 0.23021865 0.24399775 0.12713113
0.20831811 0.29058853 0.26254985 0.33977655 0.218529 0.36029357 0.08960847 -0.025204351
0.2604655 0.33801213 -0.09813631 0.049126968 0.11796228 0.15887411 -0.16004409 0.10025611
0.22339575 -0.015092299 0.3241318 0.2596174 -0.17039487 0.13038608 0.18377985 -0.17080517
-0.060210582 -0.25493667 0.22853565 -0.07524288 0.12534803 0.12385613 -0.20986256 0.32879773
0.21120653 0.07832427 0.04962891 0.39766037 0.36257657 -0.06308041 -0.21971095 -0.24175261
0.1591188 -0.101893745 -0.11341089 -0.13809179 -0.14277005 0.19394228 0.39491752 -0.16739865
-0.09718833 0.08785178 -0.13742167 0.29274538 0.16078755 0.22958714 0.45145524 0.20008184
-0.09338801 0.0711752 0.0910516 -0.11850722 0.056630656 -0.089845404 -0.043259084 0.024316015
0.12367052 0.014209971 0.16257483 -0.14209235 -0.0032907296 0.016150711 -0.025908327 -0.12743351
0.106732406 0.19237064 -0.16562593 -0.027812796 -0.040482096 -0.07526191 -0.072640225 0.19496518
-0.116906784 -0.064381674 -0.26229018 0.09240498 0.005421556 0.033454195 0.19623393 0.022827936
-0.12878159 -0.023776053 0.114190154 -0.017912138 -0.124651 0.13358648 -0.08978206 0.03862855
0.10645258 -0.27088475 -0.11955062 0.12148865 -0.028893057 -0.11087619 0.023837188 -0.008907595
0.22141322 -0.013391214 0.048914976 -0.061939374 -0.041596413 0.011399294 0.0070932084 0.034851205
-0.019778749 0.033644695 -0.100386396 0.16943727 0.06401294 -0.16472137 -0.077436924 -0.08203195
0.07093459 0.1793339 0.012937683 -0.09189814 0.28746763 0.087079294 -0.1506834 0.014808216
0.08678779 0.17038445 -0.06952279 0.18433698 0.10183781 0.22272812 -0.036508426 -0.0871649
0.25790194 0.21887712 0.09312694 -0.6176729 0.13846694 0.010343791 0.030099262 -0.57661724
-0.26435503 0.019639779 -0.19523011 0.14832512 -0.012099572 -0.19803333 -0.24144508 -0.21009117
0.11057238 -0.042102043 -0.08701285 -0.03554651 0.13031705 0.2091432 0.1883299 -0.56304246
-0.09644485 -0.061784346 0.13862656 0.11550633 0.3962392 0.039040208 -0.11412923 -0.08692276
0.24671112 -0.15084408 0.038224414 -0.16369544 0.06457787 0.19697773 -0.06735378 0.1507671
0.028554587 0.24238276 -0.10947034 0.024398616 0.15380524 -0.14342135 -0.048591424 -0.027601752
00000000: c0b8 a7bc 2d9c af3e f94b 493e 2652 b6bd
00000010: ecf2 ad3e de8e c43e 3314 9a3e a284 943d
00000020: 327b 453e 0362 973e d6aa ed3e ba72 d73e
00000030: d9b4 b33e 7c95 353f 032d c43e 41bf 67bd
00000040: aa58 be3e 8daa a83e 5dc0 be3d 2527 8d3d
00000050: 9eb9 003e eb99 823e ab67 8abc 2d43 b13e
00000060: 9cfd 6f3e 0c52 23bc 4a93 9a3e bf7c 5a3e
00000070: 2890 21bc 39cd 393e e7dd 873e d056 d73d
00000080: 77ee aa3d d200 6c3d f173 633e 9391 fd3d
00000090: 94f1 193d c2c7 183e 7f45 01ba df5d 743e
000000a0: a976 3d3e 6102 843e f13b 1fbc 0d47 023f
000000b0: 4fd9 343f 9279 7a3c 0511 7ebd dae0 29bd
000000c0: 9e4b 843e 61ac 4dbd 7820 0c3e 49c2 9dbc
000000d0: cbba 083e 4578 9e3e a8ff 0f3f 0ef2 ca3d
000000e0: 532c cbbc d6f7 0b3e 5b5f 723d ac1d ea3e
000000f0: 8b29 b13d d27a 213e 3b6e b93e 0799 873d
00000100: 11f5 903c ee8c 2d3e 348d 1c3d f36c 8ebd
00000110: c663 ac3e 70be 6b3e 8cda 793e aa2e 023e
00000120: 5851 553e 05c8 943e ef6c 863e 31f7 ad3e
00000130: 11c6 5f3e 6678 b83e a584 b73d 5b79 cebc
00000140: bc5b 853e ed0f ad3e b1fb c8bd 5c39 493d
00000150: 3596 f13d e5af 223e 99e2 23be 1353 cd3d
00000160: dbc1 643e b145 77bc 9af4 a53e 92ec 843e
00000170: fe7b 2ebe ee83 053e c930 3c3e 8de7 2ebe
00000180: 5f9f 76bd 0f87 82be 4005 6a3e f018 9abd
00000190: 3c5b 003e 48a8 fd3d 36e6 56be 2d58 a83e
000001a0: 8646 583e 7a68 a03d af47 4b3d 249a cb3e
000001b0: a3a3 b93e 4d30 81bd e8fb 60be ff8d 77be
000001c0: 0af0 223e abad d0bd f843 e8bd ef67 0dbe
000001d0: 5032 12be ce98 463e a132 ca3e 8d6a 2bbe
000001e0: ad0a c7bd a2eb b33d 44b8 0cbe b9e2 953e
000001f0: 7ea5 243e e418 6b3e 2425 e73e 41e2 4c3e
00000200: 3742 bfbd 4ec4 913d 4379 ba3d eab3 f2bd
00000210: 8cf5 673d de00 b8bd 7030 31bd 6132 c73c
00000220: f846 fd3d f0d0 683c 047a 263e a880 11be
00000230: 48a9 57bb 7f4e 843c b33d d4bc ee7d 02be
00000240: 8596 da3d cffc 443e d899 29be a9d7 e3bc
00000250: 8ed0 25bd eb22 9abd 66c4 94bd f4a4 473e
00000260: d36c efbd 8ada 83bd e64a 86be d23e bd3d
00000270: 4fa7 b13b 4407 093d 8cf1 483e a701 bb3c
00000280: 52df 03be ffc5 c2bc 87dc e93d 7abc 92bc
00000290: 0649 ffbd e5ca 083e a8df b7bd f838 1e3d
000002a0: cf03 da3d 68b1 8abe f5d6 f4bd 0bcf f83d
000002b0: 22b1 ecbc 0e13 e3bd 3546 c33c 29f1 11bc
000002c0: 26ba 623e d366 5bbc 125b 483d 24b4 7dbd
000002d0: 0061 2abd 1bc4 3a3c 256e e83b 23c0 0e3d
000002e0: 0b07 a2bc 05cf 093d 6297 cdbd f780 2d3e
000002f0: 3719 833d b8ac 28be 4097 9ebd 5e00 a8bd
00000300: 2846 913d 4ea3 373e 93f8 533c 1835 bcbd
00000310: f52e 933e a156 b23d c04c 1abe 299e 723c
00000320: ccbd b13d 4379 2e3e f761 8ebd d5c2 3c3e
00000330: 5790 d03d d712 643e dc89 15bd 8383 b2bd
00000340: b90b 843e 5321 603e 56b9 be3d d01f 1ebf
00000350: 47ca 0d3e 0179 293c ba92 f63c 309d 13bf
00000360: 8b59 87be 9ae3 a03c 67ea 47be 8ae2 173e
00000370: 493d 46bc 40c9 4abe 613d 77be 2422 57be
00000380: c673 e23d 3173 2cbd cb33 b2bd 3899 11bd
00000390: d571 053e a329 563e 8ed9 403e 8d23 10bf
000003a0: e184 c5bd 9511 7dbd 1ff4 0d3e 958e ec3d
000003b0: dddf ca3e a0e8 1f3d 96bc e9bd 8f04 b2bd
000003c0: d7a1 7c3e df76 1abe 3491 1c3d c79f 27be
000003d0: 6741 843d 88b4 493e c7f0 89bd b162 1a3e
000003e0: 4feb e93c 3033 783e fc31 e0bd 9bdf c73c
000003f0: 1f7f 1d3e 0cdd 12be cd07 47bd 121d e2bc

gate.2.bias f4 [36]
0.28505796 0.20050335 0.019934162 0.25999334 0.3354867 0.14560418 0.12942809 0.26522154
0.37402996 0.14589693 0.13664432 0.0037368247 0.05016945 0.23379812 -0.16065602 -0.015749376
-0.005929784 0.30288255 0.15190919 0.19230644 -0.0015003366 -0.07351978 0.078739405 -0.2202053
0.005198434 -0.06224684 0.16157551 -0.0051961434 0.014437266 0.040916543 0.0452436 -0.0388768
0.018949836 -0.12005087 0.067022964 0.030544901
00000000: 1ef3 913e c050 4d3e f84c a33c d91d 853e
00000010: eac4 ab3e 4319 153e cc88 043e 1ecb 873e
00000020: db80 bf3e 0166 153e 7dec 0b3e 84e5 743b
00000030: 7b7e 4d3d c668 6f3e 0383 24be d604 81bc
00000040: a24e c2bb 6c13 9b3e 158e 1b3e fbeb 443e
00000050: f1a6 c4ba 8a91 96bd 2042 a13d 807d 61be
00000060: a057 aa3b 8bf6 7ebd 0d74 253e 6944 aabb
00000070: 488a 6c3c 1b98 273d 5a51 393d 483d 1fbd
00000080: b03c 9b3c 3bdd f5bd 5643 893d 4d39 fa3c

Wc.weight f4 [3, 6]
-0.000295299 -0.0052036396 0.0022056424 -0.0044461675 0.01615217 -0.0038216761 -0.0053136367 -0.003981169
0.0017758323 0.045516174 -0.037327554 0.016597984 -0.00688947 -0.0027316762 0.003760213 0.054710418
-0.036736142 0.008038207
00000000: 5cd2 9ab9 4b83 aabb 8a8c 103b 28b1 91bb
00000010: 8e51 843c 1675 7abb 041e aebb 7774 82bb
00000020: 0bc3 e83a 2b6f 3a3d c7e4 18bd 7ff8 873c
00000030: 10c1 e1bb ec05 33bb e86d 763b 0818 603d
00000040: a378 16bd afb2 033c
