checkpoints/NeuralGVAR/VOL_h12_h12_tr2021-01-01_te2024-01-01_seed5_lam1.0e-04.pt (torch, 16393 bytes, 7 tensors)

S f4 [4, 3, 3]
0	0x3f1dcf64	0.6164458
1	0x3e541038	0.20709312
2	0x3e3b64da	0.1830019
3	0x3e35ace9	0.17741741
4	0x3f1d47ae	0.614375
5	0x3e1d4e25	0.15361841
6	0x3e1a9ce5	0.15098913
7	0x3e57df77	0.21081339
8	0x3f35ac26	0.709658
9	0x3e160dae	0.14653656
10	0x3debfefc	0.11523244
11	0x3d91b089	0.071137495
12	0x3d94380a	0.07237251
13	0x3e52be8d	0.20580502
14	0x3dd9da47	0.10637336
15	0x3dbaed75	0.091273226
16	0x3e36d153	0.17853288
17	0x3e81feec	0.25389802
18	0x3e0cc2a6	0.13746127
19	0x3ddc5418	0.10758227
20	0x3d470d25	0.04859652
21	0x3d4d07d7	0.050056305
22	0x3d9f8d38	0.07790607
23	0x3d925b18	0.07146281
24	0x3dd8ef4c	0.10592517
25	0x3def3aa9	0.116811104
26	0xbdf0b705	-0.11753658
27	0xbe711f67	-0.23547135
28	0x3cf2ba26	0.029629778
29	0xbddb9e70	-0.10723579
30	0xbe2e51cf	-0.17023395
31	0x3d913f38	0.07092136
32	0xbdd54809	-0.1041413
33	0x3e1b6bff	0.15177916
34	0xbda242d3	-0.07922902
35	0xbe42e324	-0.1903196

bias f4 [3]
0	0xbd3f8e15	-0.04676636
1	0xbd5654e3	-0.052327048
2	0xbce9152d	-0.02845248

gate.0.weight f4 [64, 6]
0	0x3e405637	0.18782888
1	0xbe0601f9	-0.1308669
2	0x3d542565	0.051793475
3	0x3e008272	0.12549761
4	0x3e20d0b6	0.15704617
5	0xbec5eeff	-0.38658902
6	0xbe5ae89f	-0.213778
7	0x3de58006	0.11206059
8	0xbe9fd7d5	-0.31219354
9	0x3c87530c	0.016519092
10	0xbc3c52c8	-0.011494346
11	0xbe8e32b6	-0.27773064
12	0xbed68d8e	-0.41904873
13	0x3e5c8691	0.21535708
14	0x3db9924e	0.090611085
15	0x3b919137	0.00444236
16	0x3e85ec00	0.26156616
17	0xbed00c4f	-0.4063439
18	0x3e65f74c	0.22457618
19	0xbe541159	-0.20709743
20	0xbe472aeb	-0.19449966
21	0x3e74b2a3	0.2389627
22	0x3ec90029	0.39257935
23	0x3eb53509	0.35392025
24	0x3ddaa35b	0.10675689
25	0xbd84fe34	-0.06493798
26	0xbe89d958	-0.26923633
27	0x3da8d107	0.08242994
28	0xbde03127	-0.10946875
29	0xbe142198	-0.1446594
30	0xbe1790d4	-0.14801341
31	0x3c702ead	0.014659566
32	0xbce3e11c	-0.027817301
33	0xbd4f69e2	-0.050638087
34	0x3c4a151c	0.012334134
35	0xbe3a20e6	-0.18176612
36	0x3f299ec9	0.6625791
37	0xbd94a8be	-0.072587475
38	0x3e1ab9a2	0.15109876
39	0xbef79f16	-0.4836356
40	0xbeba3bb7	-0.36373684
41	0x3dc18d12	0.09450735
42	0xbf107975	-0.5643533
43	0xbe451985	-0.19248016
44	0xbecdeb33	-0.40218505
45	0xbe5d92c8	-0.21638024
46	0x3eafe36e	0.34353203
47	0x3e2e1196	0.16998896
48	0xbf129821	-0.5726338
49	0xbf0de048	-0.5542035
50	0xbeefdb73	-0.46847114
51	0xbddcf475	-0.10788814
52	0xbe6365d2	-0.2220681
53	0xbe1297d6	-0.14315733
54	0xbeae225c	-0.3401059
55	0xbd8accb8	-0.06777328
56	0xbdfdae76	-0.123867914
57	0xbc97c822	-0.018528048
58	0xbd8805c5	-0.066417255
59	0x3e82bf13	0.25536403
60	0xbed0ef2a	-0.40807468
61	0x3c925b67	0.01786585
62	0x3ea3b1fc	0.3197173
63	0x3e99a78c	0.3001064
64	0xbf157309	-0.58378655
65	0xbdd15395	-0.1022102
66	0x3e613e78	0.21996486
67	0xbe12e50c	-0.14345187
68	0x3bc2ef4b	0.005948936
69	0xbe3ee038	-0.1864022
70	0x3e9ca3d5	0.30593744
71	0xbea06f8c	-0.31335104
72	0xbe22fc3b	-0.15916531
73	0x3e38a414	0.18031341
74	0xbd58b742	-0.052909143
75	0x3e443544	0.19160944
76	0xbe921abe	-0.28536028
77	0xbdb4fff2	-0.0883788
78	0xbe013efb	-0.12621681
79	0xbe532a57	-0.2062162
80	0xbe8ae7de	-0.27130026
81	0x3ed14cc7	0.4087889
82	0xbea0d816	-0.3141486
83	0x3f73ad1a	0.9518601
84	0x3f1f2f7d	0.62181836
85	0xbe572b38	-0.2101258
86	0x3e5c6213	0.21521787
87	0xbf6aa110	-0.9165201
88	0xbea375fa	-0.31925946
89	0x3e907f68	0.28222203
90	0xbe5646fe	-0.20925519
91	0xbe1e4e13	-0.1545947
92	0x3e3f247e	0.18666264
93	0x3e949f8c	0.29027975
94	0xbca9288a	-0.020649213
95	0xbe581bf0	-0.21104407
96	0xbc8b4c03	-0.017004019
97	0xbe6e8759	-0.23293819
98	0xbf501045	-0.81274825
99	0x3d6f764c	0.058462426
100	0x3dafdaef	0.0858668
101	0xbd8f90e6	-0.07010059
102	0x3d8fbc82	0.07018377
103	0xbe352e56	-0.17693457
104	0x3e2696e4	0.16268498
105	0xbf8478ac	-1.0349326
106	0xbe886d70	-0.26645994
107	0x3e226023	0.15856986
108	0xbd3da373	-0.046298455
109	0x3e5cd293	0.21564703
110	0x3decb221	0.11557413
111	0x3d3cdc86	0.046108745
112	0x3eb3faa0	0.3515215
113	0xbc53d0dc	-0.012928214
114	0x3e856ade	0.26058096
115	0xbe4f1a12	-0.20224789
116	0x3e512cb1	0.20427205
117	0x3f1da3c3	0.61578006
118	0xbed28d45	-0.41123405
119	0x3fbe5704	1.4870305
120	0xbe2c8f61	-0.1685157
121	0xbd87e711	-0.06635869
122	0xbef25987	-0.4733393
123	0xbeeb6c56	-0.4598109
124	0xbf320068	-0.6953187
125	0xbf0a0610	-0.539155
126	0xbefffca5	-0.4999744
127	0xbeb17fd3	-0.34667835
128	0xbf3ce389	-0.7378469
129	0xbee4c073	-0.44678077
130	0xbee187a6	-0.44048804
131	0xbecc088f	-0.3985028
132	0xbd1bd59d	-0.038045514
133	0x3cbfe831	0.023426147
134	0x3e264723	0.16238074
135	0x3ddae52a	0.10688241
136	0x3e6a27b1	0.22866704
137	0xbeb1f8bd	-0.34760085
138	0xbd7689db	-0.060190063
139	0x3e9d366b	0.3070558
140	0x3f5ce169	0.8628145
141	0x3ebd0c8c	0.36923635
142	0xbefd0217	-0.49415657
143	0xbe447196	-0.19183955
144	0x3c0aedff	0.008479594
145	0x3de41e03	0.11138537
146	0x3dc8eb57	0.098105125
147	0xbf40819c	-0.7519777
148	0xbeceee76	-0.40416306
149	0xbdb4981f	-0.08818077
150	0xbf53daa8	-0.8275552
151	0xbc16fb7a	-0.00921523
152	0x3d0e0418	0.034671873
153	0xbe96d925	-0.29462543
154	0x3eafb035	0.34314123
155	0x3f0e0895	0.55481845
156	0x3f333ed3	0.7001774
157	0xbe8a6b2a	-0.27034885
158	0x3e7d751a	0.24751702
159	0xbedf92da	-0.43666726
160	0xbf0d4e60	-0.55197716
161	0x3e7c6757	0.24648796
162	0xbe827e02	-0.2548676
163	0x3ef0c43d	0.47024718
164	0x3e5844ba	0.21119967
165	0xbee2f617	-0.44328377
166	0xbece42be	-0.40285295
167	0xbd6c9d4a	-0.05776719
168	0xbe4fbcca	-0.20286861
169	0xbe307a97	-0.17234264
170	0xbf5162e6	-0.8179153
171	0x3e8ad442	0.27115065
172	0x3caf59e2	0.021405164
173	0xbd216bf9	-0.03940961
174	0xbed0c851	-0.4077783
175	0xbbe898ef	-0.007098309
176	0x3ef65462	0.48111254
177	0x3ed6a63e	0.41923708
178	0xbf01664c	-0.5054672
179	0xbeb123da	-0.34597665
180	0x3f2a30a2	0.6648046
181	0x3ef88bcb	0.48544154
182	0xbe21d782	-0.15804866
183	0xbf1736bf	-0.5906791
184	0xbf15928e	-0.5842675
185	0x3e63ec81	0.22258188
186	0xbda27c90	-0.07933915
187	0x3f117955	0.56825763
188	0x3e3ab44e	0.18232843
189	0x3df0af56	0.11752193
190	0xbc8c5bde	-0.01713365
191	0x3f2c722f	0.6736173
192	0xbdfded9b	-0.12398835
193	0x3e30a9f7	0.17252336
194	0x3c5a6a06	0.013330942
195	0xbb1ff76c	-0.002440895
196	0x3e1798a0	0.14804316
197	0xbec7aa7e	-0.38997263
198	0xbed333bb	-0.41250405
199	0xbeb9f2aa	-0.3631795
200	0xbe245147	-0.1604663
201	0xbdf1fae5	-0.118154325
202	0x3e12aef8	0.14324558
203	0xbf07f8b7	-0.53113884
204	0xbedfd335	-0.43715826
205	0x3dd79fc8	0.10528523
206	0x3d1b5fe8	0.03793326
207	0xbee22101	-0.44165805
208	0xbe53f360	-0.20698309
209	0xbe1e979c	-0.15487522
210	0xbef1f49c	-0.47256935
211	0xbed11571	-0.4083667
212	0xbf093445	-0.5359538
213	0x3e0d1c16	0.13780245
214	0xbcc98cc1	-0.02460325
215	0xbee25a48	-0.44209504
216	0xbe4ce8e4	-0.20010716
217	0x3d2c6bfc	0.04209517
218	0xbe1bcbc8	-0.15214455
219	0xbc5b73f6	-0.013394346
220	0x3e828770	0.25493956
221	0xbdc3f6b0	-0.09568536
222	0x3d8763e5	0.0661085
223	0xbe211d34	-0.15733796
224	0xbcbb8f97	-0.022895617
225	0xbf189dbc	-0.59615684
226	0xbf03d510	-0.5149698
227	0x3e36ce07	0.1785203
228	0xbdd8698c	-0.105670065
229	0x3db0928b	0.08621701
230	0xbd0a13ed	-0.03371041
231	0xbea5104a	-0.3223899
232	0x3f048e19	0.51779324
233	0xbeb399f9	-0.3507841
234	0xbd8a5cf6	-0.06756012
235	0x3f20d1d1	0.62820154
236	0xbd8f4f47	-0.06997543
237	0xbf1e67e5	-0.6187728
238	0xbf33c950	-0.70229053
239	0xbeb77053	-0.35827884
240	0xbeaf95e0	-0.34294033
241	0xbe802482	-0.25027853
242	0xbe8485c1	-0.25883296
243	0xbeac2b1b	-0.33626637
244	0xbee58a9e	-0.4483232
245	0xbec91751	-0.39275602
246	0x3f4150e6	0.75514066
247	0x3eacb11c	0.33728874
248	0x3db047ca	0.08607443
249	0xbe2dfd98	-0.1699127
250	0xbd9cf7f0	-0.07664478
251	0x3fb0a991	1.3801748
252	0x3df89e2f	0.12139546
253	0x3e035bc3	0.12827973
254	0xbf0fa1f1	-0.5610648
255	0x3ccb7801	0.024837496

gate.0.bias f4 [64]
0	0xbefc058d	-0.49222985
1	0x3f359c3f	0.7094154
2	0x3da28a80	0.07936573
3	0xbf18f447	-0.5974774
4	0x3f05a824	0.5220969
5	0x3f14709b	0.5798432
6	0x3e2ea8f1	0.17056634
7	0x3eaad12d	0.33362713
8	0x3f16c78b	0.5889823
9	0x3f1b124b	0.6057479
10	0x3f108e62	0.5646726
11	0x3ecba3d1	0.3977342
12	0x3f015932	0.50526726
13	0x3ee83314	0.4535147
14	0x3f49ad0d	0.7877968
15	0xbecd91a5	-0.4015018
16	0x3f273029	0.6530786
17	0x3f170c0e	0.5900277
18	0xbebe5b8b	-0.37179217
19	0x3ed76bb6	0.42074364
20	0x3e341852	0.17587402
21	0x3e46d0bf	0.19415568
22	0xbeb52e5e	-0.35386938
23	0x3dd1bb30	0.10240781
24	0xbd0cac12	-0.034343787
25	0xbe9dfa2c	-0.30854928
26	0x3f1e016e	0.6172093
27	0x3ea3703b	0.31921563
28	0xbebd912d	-0.37024823
29	0x3dabe7cc	0.08393821
30	0x3ed3e76b	0.41387495
31	0xbe6e58a8	-0.23276007
32	0xbf0b9316	-0.5452131
33	0xbee89a7a	-0.45430356
34	0xbe777c2a	-0.24168459
35	0x3ca7ef3d	0.02049982
36	0x3e4c1e2b	0.19933383
37	0x3e8e78e6	0.27826613
38	0xbf1e9f85	-0.6196216
39	0xbf1821e7	-0.5942673
40	0xbcbc495b	-0.022984197
41	0x3eeac71e	0.4585504
42	0xbeeb98ab	-0.46014914
43	0x3f53eb44	0.8278086
44	0x3ef4b644	0.47795308
45	0xbd53fb50	-0.051753342
46	0xbf634ef2	-0.88792336
47	0xbf1eb0c3	-0.61988467
48	0x3f252fee	0.6452626
49	0xbed8139e	-0.42202467
50	0xbe92e733	-0.28692016
51	0xbf0f77d4	-0.5604222
52	0xbf228d54	-0.634969
53	0x3f3fb585	0.7488635
54	0x3f6448c4	0.8917353
55	0xbf351330	-0.707324
56	0xbecc6746	-0.3992254
57	0x3e9de71f	0.30840394
58	0xbf199b86	-0.60002935
59	0x3f201c33	0.6254303
60	0x3f09c732	0.5381957
61	0x3ee9fe4d	0.4570183
62	0x3f4b01b1	0.79299456
63	0x3e67e092	0.2264426

gate.2.weight f4 [36, 64]
0	0xbd110408	-0.035404235
1	0x3edc9c39	0.43087938
2	0x3e49f261	0.19721366
3	0xbdd63335	-0.10458986
4	0x3efb800e	0.49121135
5	0x3ed5bf8b	0.41747698
6	0x3e127e72	0.14306048
7	0x3d80f4fa	0.062967256
8	0x3e6f986e	0.23397991
9	0x3eac6df2	0.33677632
10	0x3efe13a1	0.4962435
11	0x3f03de4f	0.5151109
12	0x3ee593f2	0.44839436
13	0x3f37fdc2	0.7187158
14	0x3eaf51be	0.34242052
15	0xbd91d2ee	-0.0712031
16	0x3eb34ffc	0.3502196
17	0x3e4bc9c2	0.19901183
18	0x3da1b32e	0.07895504
19	0x3e3b11dc	0.18268532
20	0x3e23dd6d	0.16002436
21	0x3e8c8544	0.27445424
22	0xbcd279f3	-0.025692916
23	0x3e877747	0.2645819
24	0x3e8dcb06	0.27693957
25	0xbd4f5fe6	-0.050628565
26	0x3ea02f86	0.31286258
27	0x3e55c238	0.2087487
28	0xbd45fe92	-0.04833848
29	0x3e019e6c	0.1265809
30	0x3e0157f0	0.12631202
31	0x3dff85fe	0.12476729
32	0x3ddc8f0e	0.10769473
33	0x3dc4003f	0.095703594
34	0x3e683db3	0.22679786
35	0x3dfd1b91	0.123587735
36	0x3d4dc425	0.050235886
37	0x3e0e0aa0	0.1387124
38	0x3e1920b7	0.14953886
39	0x3e64543c	0.22297758
40	0x3e5f10d4	0.21783763
41	0x3e44659f	0.1917939
42	0xbcdc7ae7	-0.026914073
43	0x3f1e28fa	0.61781275
44	0x3f3748de	0.7159556
45	0x3d371408	0.044696838
46	0xbdb25b2d	-0.08708797
47	0xbd06ba99	-0.032892797
48	0x3e834525	0.2563869
49	0xbd9e3e69	-0.077267475
50	0x3dd42673	0.10358896
51	0xbd421108	-0.047379524
52	0x3dda42f1	0.10657299
53	0x3e8a449f	0.2700548
54	0x3eba7d69	0.36423805
55	0x3e73be9d	0.23803182
56	0xbd2d7fe5	-0.042358298
57	0x3e2574dd	0.16157861
58	0x3cf28e57	0.029608889
59	0x3ef43dcb	0.47703394
60	0x3da48e8f	0.080350034
61	0x3e2df4d7	0.1698793
62	0x3f168f6b	0.5881259
63	0x3d80529b	0.06265756
64	0x3d69e650	0.05710441
65	0x3e90d436	0.28286904
66	0x3d9f853b	0.077890836
67	0xbe0329ca	-0.1280891
68	0x3ef07e05	0.46971145
69	0x3e5ece72	0.2175844
70	0x3e862319	0.26198652
71	0x3d94f112	0.07272543
72	0x3e5e4066	0.21704254
73	0x3e5fb5c0	0.21846676
74	0x3ebfb624	0.3744365
75	0x3efee119	0.4978111
76	0x3ea86259	0.32887533
77	0x3d4149fc	0.047189698
78	0xbe145d6f	-0.14488767
79	0x3c959420	0.018259108
80	0x3e2e2c27	0.1700903
81	0xbdfd7403	-0.12375643
82	0xbe048b90	-0.12943864
83	0xbe949ed1	-0.29027417
84	0x3e409cbf	0.18809794
85	0x3e8bc166	0.2729599
86	0xbe14ba39	-0.14524163
87	0xbd723fef	-0.059143003
88	0x3e84d229	0.2594159
89	0xbe2249e8	-0.15848505
90	0x3e9edeb9	0.310293
91	0x3e8a79ef	0.27046153
92	0xbe6b149e	-0.22957084
93	0x3e7710a6	0.24127445
94	0x3d41d409	0.047321353
95	0xbea5db44	-0.3239385
96	0x3d6b0d6e	0.057385854
97	0xbdb18a6c	-0.0866898
98	0x3e9a7d1a	0.3017357
99	0x3d098608	0.033575088
100	0x3de73a00	0.112903595
101	0x3d9b91cb	0.07596167
102	0x3dfdc712	0.12391485
103	0x3ef5070e	0.47856945
104	0x3ee34c92	0.44394356
105	0xbe2a8ecd	-0.16656037
106	0x3c551956	0.013006529
107	0x3eda292e	0.42609543
108	0x3eb4971e	0.35271543
109	0x3dd06f7d	0.10177515
110	0xbd982abb	-0.07430025
111	0xbe136def	-0.14397405
112	0x3db58c51	0.08864654
113	0xbe35155b	-0.17683928
114	0xbe7403a0	-0.23829508
115	0xbddde492	-0.10834612
116	0xbe6de7cf	-0.23232959
117	0xbe61db97	-0.22056423
118	0xbd1b2ca8	-0.037884384
119	0x3de23bd4	0.110465676
120	0xbdf4968a	-0.119427755
121	0x3e201ba1	0.1563554
122	0xbda8951c	-0.08231565
123	0x3ebff3e1	0.37490752
124	0x3dde8a7b	0.10866257
125	0x3b8c37b9	0.0042791036
126	0x3ec00d23	0.37510023
127	0x3e802aae	0.25032562
128	0xbd6067bb	-0.054786425
129	0x3d852d4c	0.0650278
130	0x3dc91fa1	0.09820486
131	0x3b9c61b1	0.004772388
132	0x3dc00379	0.09375662
133	0xbd1949d4	-0.037423924
134	0x3e674542	0.22585014
135	0xbd7a54ab	-0.061115902
136	0x3e1bb3c6	0.15205297
137	0xbd813657	-0.06309193
138	0x3ecc6ce4	0.39926827
139	0xbdb68406	-0.089119
140	0x3d913978	0.070910394
141	0xbe5e2ad9	-0.21696033
142	0x3cdb3e21	0.026763024
143	0xbe2d2a2b	-0.16910617
144	0xbbcc9430	-0.0062432513
145	0x3d7ede58	0.062223762
146	0xbe02448f	-0.12721466
147	0xbe8a4395	-0.27004686
148	0x3e2d2978	0.1691035
149	0x3dc39d84	0.09551528
150	0xbd789385	-0.06068756
151	0x3ed984ac	0.42484033
152	0x3e2eaaad	0.17057295
153	0x3dd5efde	0.10446142
154	0x3dba8ebb	0.09109255
155	0x3e81ad03	0.2532731
156	0xbd730e4f	-0.059339818
157	0x3ea1cd97	0.31602165
158	0x3e7e575d	0.24838014
159	0x3e8eb379	0.27871302
160	0xbdb01723	-0.08598163
161	0x3c85c84a	0.016330857
162	0x3e1b4763	0.1516395
163	0x3d3ff82d	0.04686754
164	0xbe097a2c	-0.13425511
165	0x3e4d011b	0.20019953
166	0x3cacfaf9	0.021115767
167	0x3ef92a26	0.4866497
168	0x3eafce3e	0.34337038
169	0xbea1f8da	-0.3163517
170	0xbcb6ce71	-0.022315236
171	0x3e069ae6	0.13145027
172	0xbd919971	-0.07109345
173	0xbd0b5552	-0.034016915
174	0x3de7974b	0.11308154
175	0x3c911210	0.017708808
176	0x3e17e200	0.14832306
177	0x3e0791a6	0.13239154
178	0x3e785ffb	0.24255364
179	0xbd2b20e5	-0.041779418
180	0x3e0887da	0.13333073
181	0xbe440819	-0.19143714
182	0x3d532d69	0.05155698
183	0x3e179028	0.14801085
184	0x3e88cf9f	0.26720902
185	0x3e50d618	0.2039417
186	0xbd839b1d	-0.0642607
187	0x3e3605b1	0.17775609
188	0xbcd30258	-0.025757954
189	0xbde54556	-0.111948654
190	0x3d4e4e77	0.0503678
191	0xbda03b38	-0.07823795
192	0x3d8ac6c9	0.067761965
193	0x3e65887d	0.22415347
194	0x3d201c65	0.03908958
195	0xbe1d84c0	-0.15382671
196	0x3e6ee610	0.2332995
197	0x3d0e9e54	0.034818962
198	0xbecab355	-0.39589944
199	0xbd3cefda	-0.046127178
200	0x3db95fd3	0.0905148
201	0x3e2d5c70	0.16929793
202	0x3e6b6b92	0.22990254
203	0x3e2d3583	0.16914944
204	0x3e1f5d38	0.15562904
205	0xbe3090f2	-0.17242792
206	0xbe13d5be	-0.14437005
207	0xbdce5d69	-0.1007641
208	0x3e80b816	0.25140446
209	0x3d9004d4	0.07032171
210	0x3da0951a	0.07840939
211	0xbf78c936	-0.97182024
212	0x3e130477	0.14357172
213	0x3d70762c	0.058706447
214	0x3d27bc6b	0.040951174
215	0xbca4aba6	-0.02010138
216	0xbe6b842d	-0.2299964
217	0x3d41af34	0.047286227
218	0xbe7d5a15	-0.24741395
219	0x3de8a4aa	0.11359532
220	0xbcccaa1c	-0.024983458
221	0x3de6c3ce	0.112678155
222	0xbe92bfe1	-0.28662017
223	0xbecb7635	-0.39738622
224	0x3da9236a	0.08258708
225	0xbe2d713a	-0.16937724
226	0xbe9a7c45	-0.30172935
227	0xbc700656	-0.014649948
228	0x3df3927d	0.11893175
229	0x3e382f5e	0.17986819
230	0x3e438d32	0.1909683
231	0xbf1a73c3	-0.6033289
232	0xbdffecb1	-0.12496317
233	0xbf29c1cc	-0.66311336
234	0x3dc510dd	0.09622357
235	0x3dd36f09	0.10323913
236	0x3ec2bebe	0.3803615
237	0x3a8f1a9f	0.0010917968
238	0xbd46570a	-0.04842285
239	0xbd92e9b6	-0.07173483
240	0x3e07a77e	0.13247487
241	0xbe3889f5	-0.18021376
242	0xbd033731	-0.032035057
243	0xbec06917	-0.37580177
244	0xbd1c01cd	-0.038087655
245	0x3d771ff1	0.060333196
246	0xbe1ce5b0	-0.15321994
247	0x3e239eb2	0.15978506
248	0xbd6be75f	-0.0575937
249	0x3e73b770	0.23800445
250	0xbd425bb9	-0.047450755
251	0x3e53f61c	0.20699352
252	0x3dec9f02	0.11553766
253	0xbe36e2bd	-0.17859931
254	0xbd902005	-0.07037357
255	0xbb506b62	-0.0031802286

gate.2.bias f4 [36]
0	0x3eb3998f	0.35078093
1	0x3e835244	0.256487
2	0x3cb73a0d	0.022366548
3	0x3e8f0c1f	0.27938935
4	0x3eb9a740	0.36260414
5	0x3d9288ef	0.07155024
6	0x3cbe9a9a	0.02326708
7	0x3e48073d	0.19534011
8	0x3ee4ae8f	0.44664428
9	0x3d99ff9b	0.07519456
10	0x3e2aea6f	0.16690992
11	0xbd5805b2	-0.052739806
12	0x3d2b4542	0.041814096
13	0x3e52043a	0.20509425
14	0xbe7f7f6b	-0.2495095
15	0xbe45566f	-0.19271253
16	0xbdf0223a	-0.11725278
17	0x3eab97ea	0.3351434
18	0x3d51c35b	0.051211696
19	0x3e134961	0.1438346
20	0xbd43755e	-0.047719352
21	0xbe19076d	-0.14944239
22	0xbda8fc9a	-0.08251305
23	0xbec9526b	-0.39320692
24	0xbdfa8523	-0.12232425
25	0xbe730bc8	-0.23734963
26	0x3dc83081	0.097748764
27	0xbdf7754a	-0.12082918
28	0xbc6732ee	-0.014111264
29	0x3e0f31cc	0.1398384
30	0x3e22a709	0.15884031
31	0xbe13922a	-0.14411226
32	0x3d1c4e00	0.038160324
33	0xbe9fed3d	-0.31235686
34	0x3d2a85c3	0.04163147
35	0x3df1f1c8	0.11813694

Wc.weight f4 [3, 6]
0	0xbc86de02	-0.016463283
1	0x3bbd79c1	0.0057823365
2	0x3bd8a344	0.0066112597
3	0xb92dff9c	-0.00016593788
4	0x3d65c08a	0.056091823
5	0x3d29c129	0.041443978
6	0xbcaf7936	-0.021420103
7	0x3b8d3fcc	0.0043105837
8	0xba39296a	-0.0007063361
9	0x3da65fa8	0.08123714
10	0xbd659fff	-0.056060787
11	0x3d34f5c8	0.044179708
12	0xbc829138	-0.015938386
13	0x3af4c55a	0.0018674538
14	0xbad8abae	-0.0016530657
15	0x3dc0bb98	0.09410781
16	0xbbeb321d	-0.007177605
17	0x3c44bcb5	0.012007882
