checkpoints/NeuralGVAR/VOL_h12_h12_tr2021-01-01_te2023-01-01_seed2_lam1.0e-04.pt (torch, 16393 bytes, 7 tensors)

S f4 [4, 3, 3]
00000000: 4351 0c3f f16d 723e 5e22 433e 5e04 543e
00000010: bb08 043f 0c8b 403e b860 173e c737 5d3e
00000020: 20b7 163f 473c 413e 8c81 723d d39b 793d
00000030: 25d7 d93d be51 143e c2fa de3d 4f0e 143e
00000040: 29d3 e13d ec1f 8c3e a6a7 d23d d4ce 603d
00000050: 4b85 01bc 2b04 9c3d f2d6 043e ed19 d03d
00000060: bc92 b33d 5ec9 b73d a8df 2d3d 81d7 66be
00000070: e255 88bd c088 12be 1671 c43c 2c6e 463d
00000080: da63 ad3d 88f9 153e fd1d e1bd 7980 67be
0.54811496 0.23674752 0.19056079 0.20704791 0.5157582 0.18803042 0.14782989 0.21603309
0.58873177 0.1887065 0.059205577 0.06093962 0.10636739 0.14484307 0.10887672 0.14458583
0.11026604 0.27368104 0.10285883 0.054884747 -0.007905315 0.076179825 0.1297262 0.10161195
0.08768222 0.089739546 0.042449623 -0.22543146 -0.06657006 -0.14309978 0.023979705 0.04844491
0.08466311 0.1464597 -0.10992048 -0.22607602

bias f4 [3]
00000000: 74f4 07bd 7509 9abc d65a 2abc
-0.033192113 -0.018803338 -0.010397634

gate.0.weight f4 [64, 6]
00000000: e2fe ad3e 0703 513d e5fb 1dbe c000 93bd
00000010: 6427 3ebe c18c d83e f671 e33e 8cde ee3e
00000020: 3e0a d73c 02c5 cfbe ee2f 6f3e 1289 753f
00000030: 38be 2d3f c065 9a37 cc73 893e 1901 8abf
00000040: f536 18bf ce52 233e 6b51 bfbe ae82 cc3e
00000050: 2917 32bf 843f bd3e b088 ce3d 81b2 253e
00000060: 47db 493e 09b6 febe 1e52 413d 7e7d abbe
00000070: c0ea 0f3f 02fb d0bd a3df 99be b5a2 bd3d
00000080: 99f6 a43d 8ee6 febe d492 d7bd 94f5 fe3d
00000090: 623f 33be 44e6 cabe b97b 3cbe 67f0 43be
000000a0: 1dee d63e 6817 47bd e83a 593d 0538 2bbd
000000b0: 6cc5 08bf f5fd ccbe cb2b acbe 58eb efbd
000000c0: e5a1 04bf a8d0 7bbe d4eb 31bf 5e8f b13e
000000d0: af69 903e 135e 343e 7147 413d 7790 16bd
000000e0: 4783 15bf 9b9d 6a3e 7e8b 093f c625 a0be
000000f0: ac5e 4dbd 1598 a7bd 8997 3fbe 28d7 d53d
00000100: f313 17be ec0c e83e 3cea 2dbd 439b c5bc
00000110: 0a97 92bd 457d e13e 4825 9abe 0035 08be
00000120: 5ece 52bc 68e8 d6be 9597 0ebe 1f72 e33e
00000130: da63 f8be d585 bdbe 441d f0be 04b7 41bd
00000140: ac64 0cbf cc06 abbe db88 0a3f 4e2c f23e
00000150: 4391 8e3e f299 13be c3c7 373e a7de e2be
00000160: 530e 25bf 3c44 b5bc ba16 7f3e 43bd 6a3e
00000170: c996 45be 4b2e e93e f68f c3be 0a98 603f
00000180: 5e99 243f 72f2 56bd aacc 4b3e 725e 2fbf
00000190: 4dab 35bf 7358 6e3d a1da d4bc ecc7 d8be
000001a0: 1154 22bf f1df 3e3e 39e8 163f 6865 153e
000001b0: f2b3 82be a826 b33d 86cf 0e3e d9cf 3abf
000001c0: 262d f1bc ffa2 163e 85a3 7fbe b71c c7bd
000001d0: efda eabe 1df2 b5be 7d8b 88be 8801 ae3c
000001e0: 01c5 6a3e d714 a4be 474f 36bf e77a 16be
000001f0: ed71 15bf b4a1 7abc b3ea 903e 21bf 81bd
00000200: 2e91 d7bd 7121 cf3d b1e4 e13e 32fb 2bbe
00000210: f617 00bf 1ce2 aebe fe4b f6be 97ab 673d
00000220: d28e ae3e 456f 1b3e 89a3 af3c fd31 95be
00000230: 4f85 3e3e f214 7a3e adb0 67bd f72f a4be
00000240: f917 2cbe 2bd8 91be cb4b 5d3d 6718 a73e
00000250: 638e e5be 54a0 b6be ce2c fbbe f7fc e9be
00000260: f1fd b43d 349b 883e 5117 813d a57a 87be
00000270: 21d0 8cbc 5c25 a2bb ebca 28be ef78 fc3d
00000280: c38d a13e 7bfd cabe 20fe 88be c021 b1be
00000290: b62c 2ebe a63a 143e 4cc6 5a3e d182 913f
000002a0: e858 2bbc f52e 6dbe eb17 bc3e 395c d53e
000002b0: 1a6e 0e3c 2840 a2be 2fd2 923e 2f52 0c3f
000002c0: 3520 493e 6757 58bf 77a5 8bbe 9577 243e
000002d0: aa81 113e b0c3 f13c 510b 77be 162f 223d
000002e0: 6a02 09be 96a3 40be 62c7 eebe 3945 9dbe
000002f0: 6c01 fdbe 6985 763e def3 17bf ff6f 15bf
00000300: ec7a 163f 6bd5 163f 0c30 b03e 11d8 a23e
00000310: 5245 9cbe 7e72 66be 0cda 73be c2c1 d9bd
00000320: 86fa fe3d ff1d 23bf 3f32 febe d2ce 463e
00000330: e717 aa3e 47fc 163f ed26 bd3e f196 933e
00000340: 90f0 31be 116d 9bbe a709 803e 32a7 fb3e
00000350: fa59 3abf 8039 7b3e 42ab ddbe 7814 dabe
00000360: b96d 5d3d 0ed9 e23b 1c8e aebd 0707 983e
00000370: 184c 13bd 204c 88bd 03e7 65bf f6b3 eabe
00000380: 4447 88bb c6a6 45bd 155b 26bd 5317 ffbc
00000390: 66d7 bbba 336c c2bd 7d78 ca3b 6db3 bebd
000003a0: dd44 a73e 048c a5be e731 f93d 0b74 3fbd
000003b0: e66d 293e 17db 14bf 8397 dabe b1de 4c3d
000003c0: c802 293e f0a4 66be 75ca 1c3f 0d2f c4be
000003d0: 3910 e03e fe78 1a3f 77e7 4f3e 3974 7d3e
000003e0: 241e 29bd 2c3d 98be bbf4 033f 8be5 11be
000003f0: b950 98bc d920 353e 9c0f c83d 198b dbbe
0.33983523 0.051028278 -0.15428121 -0.071778774 -0.18569714 0.42294887 0.44422883 0.46654165
0.026250001 -0.40579993 0.23358127 0.9591228 0.67868376 1.8405612e-05 0.26846159 -1.0781585
-0.5945886 0.15949556 -0.37366804 0.3994345 -0.6956659 0.3696252 0.10084665 0.16181375
0.19712554 -0.49748257 0.047197454 -0.3349418 0.56217575 -0.10204126 -0.30053434 0.092595495
0.08054847 -0.49785274 -0.10526052 0.12449184 -0.17504647 -0.39628804 -0.18406571 -0.19134675
0.4197854 -0.048606306 0.053034693 -0.04180147 -0.5342624 -0.40037504 -0.3362716 -0.1171481
-0.5180953 -0.24591315 -0.6950047 0.34679693 0.2820563 0.17614011 0.047187272 -0.036758866
-0.5840344 0.22911684 0.53728473 -0.3127882 -0.050139114 -0.08183304 -0.1871015 0.104414284
-0.14753704 0.4532236 -0.04245971 -0.024121886 -0.07157715 0.44040886 -0.30106568 -0.13301468
-0.012866585 -0.41974187 -0.13925011 0.44423005 -0.4851368 -0.37016168 -0.46897328 -0.047293678
-0.54841113 -0.33403623 0.54115075 0.47299427 0.278452 -0.14414194 0.17947297 -0.44310495
-0.6447498 -0.022127263 0.24911013 0.2292376 -0.19295801 0.4554313 -0.3819577 0.87731993
0.6429652 -0.052477308 0.19902292 -0.6850349 -0.7096451 0.05818982 -0.025983157 -0.42340028
-0.63409525 0.18640114 0.58948094 0.14589465 -0.25527912 0.087476075 0.13946351 -0.729734
-0.029440474 0.14710616 -0.24964722 -0.09722274 -0.45870158 -0.3553628 -0.2666892 0.021240965
0.22926714 -0.3204715 -0.7121472 -0.14695321 -0.5837696 -0.015297342 0.2830406 -0.06335283
-0.10525738 0.101138 0.4411979 -0.16795042 -0.5003656 -0.34156883 -0.48104852 0.056560125
0.34093338 0.15179165 0.021440284 -0.291397 0.1860554 0.24422053 -0.056564976 -0.32067844
-0.1680602 -0.28485236 0.05402736 0.32635805 -0.44835195 -0.35669196 -0.4905762 -0.4570081
0.08837498 0.2668091 0.063032754 -0.26460758 -0.017189087 -0.0049483012 -0.16483657 0.12327754
0.31553468 -0.39646515 -0.26756382 -0.34596062 -0.17009243 0.14475498 0.21364707 1.1368047
-0.010458209 -0.23162444 0.36736998 0.41671923 0.008693242 -0.31689572 0.28675982 0.548129
0.19641192 -0.84508365 -0.27274677 0.16061242 0.14209619 0.029512256 -0.2412541 0.039595686
-0.13379827 -0.18812403 -0.46636492 -0.30716875 -0.49415147 0.2407433 -0.59356487 -0.5837402
0.58781314 0.589194 0.34411657 0.3180547 -0.30521637 -0.22504613 -0.23813647 -0.106326595
0.12450127 -0.63717645 -0.4964771 0.19414833 0.3322136 0.58978695 0.3694376 0.28826097
-0.17376924 -0.3035665 0.25007364 0.49150997 -0.72793543 0.24533653 -0.43294722 -0.4259374
0.054059718 0.0069228476 -0.08523199 0.2969286 -0.03596124 -0.06655145 -0.8980562 -0.45840424
-0.004158886 -0.04825475 -0.040614206 -0.031139052 -0.0014331162 -0.094932936 0.006178914 -0.093115665
0.32669726 -0.32333386 0.12167721 -0.046741527 0.16545829 -0.58146805 -0.4269372 0.050017063
0.16504967 -0.22523856 0.61246425 -0.38317147 0.43762377 0.6034087 0.2030314 0.24751367
-0.04128851 -0.2973417 0.51545304 -0.1424772 -0.018593179 0.17688312 0.09768602 -0.4287956

gate.0.bias f4 [64]
00000000: d8ed 0e3f b69a 583e 7b7c c43e 4074 8dbe
00000010: 43d1 c9be 570e ef3e 25b3 0e3f 26ad 073f
00000020: 0955 44be 0448 f33d a211 093f b188 2e3f
00000030: fc93 20bf baf9 93be ffd0 4a3e 5bd2 cb3e
00000040: c33d a73e 8fe9 0ebc 9b4c d43e 4f42 113e
00000050: ee13 843d e673 4d3e 1bcb 80be d2a5 0b3f
00000060: 060d 753d 9315 373e c050 d8be ba8b 623e
00000070: 3b63 863e c057 cc3e d2be cc3d 76cf a8bc
00000080: ae48 02bf da0c a83e 7cb3 2abf f8b2 713e
00000090: 5f90 d93e 6f56 69be c7f0 8c3c 9459 fa3d
000000a0: de29 90be 65dd f3be 84ed 493f 4ee4 103f
000000b0: cb7e 273d de4f fa3e 3352 da3e d66d eb3e
000000c0: 7e2d 39be 8f28 213f c21d 873e c6b7 8c3e
000000d0: ba1d cabd 51ab 523f 3d9f 1ebd 79fd 233e
000000e0: 456a 043c 0c46 c5be 1412 9b3d db3e 063d
000000f0: 30d7 9b3e c729 28bf 68de b43e e1ae df3e
0.5583167 0.21152768 0.3837622 -0.27627754 -0.39417467 0.46690628 0.557421 0.5299858
-0.19173063 0.1187897 0.5354253 0.68177325 -0.62725806 -0.28901464 0.19806288 0.39808926
0.32664308 -0.008722677 0.41464695 0.14185451 0.06449114 0.20063743 -0.25154957 0.54549897
0.059826873 0.17879324 -0.42249107 0.22123614 0.26247582 0.39910698 0.099973336 -0.020606738
-0.5089215 0.32822305 -0.6668012 0.23603427 0.4249296 -0.22786878 0.017204655 0.12224117
-0.28156942 -0.47629848 0.78878045 0.56598365 0.040892404 0.4888906 0.42640838 0.45982236
-0.1808376 0.6295251 0.2638989 0.27483958 -0.09868951 0.8229266 -0.03872608 0.16014661
0.008081977 -0.38530004 0.075718075 0.032774787 0.30437613 -0.6568875 0.35325933 0.4368811

gate.2.weight f4 [36, 64]
00000000: 4122 b23e f96e d7be 0b46 c63e 694c a73c
00000010: 2b29 a7be 7651 c83e f69d 5f3e 070b 3d3e
00000020: b66e 56bc 53ff b03e a702 ac3e f27d dd3e
00000030: c6cc 3a3e f78c 0bbf 109a b63e 066d 2b3e
00000040: 9954 033f 1446 f23d 25bb ab3e fd93 993e
00000050: 12db 763e aed1 653e 4a73 0abd 7ce1 a13e
00000060: ee3c ad3e d998 bb3e 231a 273e a4ab 4fbe
00000070: 8047 003f 5a05 78bc 236a c43e 13e6 033f
00000080: 8cca a03d 148e 723e c5f2 193d c012 e73e
00000090: ee26 ab3e 9eb5 f73d e6b4 413e ed6b 873e
000000a0: 7698 07bf 34d3 d93c 6954 093e 8e82 a43e
000000b0: 8afc c53e a761 bf3e d96f 563e f224 b93e
000000c0: a47a 163e 8df0 053f 9397 a43e 8249 9d3e
000000d0: bbdf dc3e fee9 f03e 969d 203c 9958 e53e
000000e0: d198 353f f259 a63d 4ef3 013f 059a a53e
000000f0: dffa 87be 22c0 223e 5a5b e6bd ebd5 b5be
00000100: f190 c0bd dafa b0be 0307 ee3b 0650 9f3e
00000110: ec95 9a3c da9a 89bd ba2c 6d3d e19b ac3d
00000120: 46ef 903e 4a8a c43e 28a2 3dbd 9bd9 863e
00000130: ed8c 993d 07a8 62be c173 793d 2272 8e3d
00000140: 7272 153e 3b74 8c3e 497b 38be 52bf 973d
00000150: 2bac 063e 7aa1 1d3e 8d89 0b3e 6288 743e
00000160: 2ea3 c63e c26b 9c3e 1a7e c73e 6266 89bb
00000170: e483 b33e d2f1 50bd 5f23 853e 17e7 5e3f
00000180: d53c 233e 9c0b 0e3c 833e d23d e2d9 943e
00000190: ec64 863e 4f0f 123e 93b0 263f 25b3 6c3e
000001a0: 0269 98be b3d0 7e3e ad26 a8bd be6d bcbd
000001b0: e2ad 1b3f 6727 9f3d 6810 cfbd 1e43 013e
000001c0: 6f2e 9c3e 1ae9 813e 60e7 d83e 2032 7a3e
000001d0: 8543 a33e 04b8 413d 3701 b33e 4d60 093f
000001e0: 0399 34bc 54fa 523e 1419 a13e e983 5c3f
000001f0: e343 b1be 8ba5 aa3e 112a f0be 5ede a2be
00000200: 0c4c ac3e b0e4 c23e cf1e 12bd e6d5 75be
00000210: 4989 dd3e e88f 9b3e 3ba1 a93e a660 353e
00000220: a86c 62be 1861 3abe 39bc 873e fff7 843e
00000230: eef9 dcbd 4763 e13e c758 4c3e 44ea 52be
00000240: 3cda 223e 5a62 2dbe 7b6e 473e 2bea 643e
00000250: 6015 753e 17b1 6bbd 54d5 01bd 5cd9 733e
00000260: bf51 3f3e 4854 70bd 8efc 7abe 2e65 09bd
00000270: c526 203d 1cd4 853e 6dac 033e a3a9 c63d
00000280: 508e 823e d6f6 623e 3727 41bd 8ecb 5c3e
00000290: efed 0c3d 0401 143b ab48 bfbd 6639 6f3e
000002a0: c3cb 2a3f 10bb d83d d45a 963e d3a8 153e
000002b0: e11a d2bc 38ec 7e3e 2257 f53d 2396 9d3e
000002c0: 23d9 71be 7fa1 3c3e 6f33 b63c c5a3 133e
000002d0: 220c 793e df7c ca3e 7bc7 9fbe 7d95 4d3d
000002e0: 9433 403e 3ad6 49bd 1ea5 d7be 384d 8bbd
000002f0: 4094 80bd 3e48 c03e 3f1d 0f3e 4a62 c03d
00000300: 5c27 103e cafb 89be 0b66 eabe d81a 27be
00000310: a21c c63e 0411 863d 6b60 733e be25 173d
00000320: 5e90 2a3d cdf9 483d 7d16 db3c bd6c 123e
00000330: c74c 2fbe 46ab 933e 6949 30be e387 8ebe
00000340: 92ef 43be 878a 48bd daab 45bd d083 023d
00000350: d4b9 a43a b25b bebd 2bd8 c83d b7c1 3a3e
00000360: edf8 a4bd c07f 233e 64af 45bd 16cb 9bbe
00000370: 6394 e13d e599 64be 54da cf3a 26d6 273b
00000380: f5a3 ba3d efb2 a6bc 4e99 8bbd 75c0 2cbd
00000390: 9671 073e 49a3 b6bc 6fa3 033d de94 57be
000003a0: 7a79 fbbd 200d 9e3e 6578 f6bc 730c 38be
000003b0: 510f 3dbc acf6 55bd c5ff 4fbe 79fe 143e
000003c0: be15 123d 8341 2b3e 3af2 3d3c aaa5 f9bc
000003d0: 81e1 b3bd 8e4d ceba 56d8 e13c d86d 3e3d
000003e0: ac58 5bbf cdd0 34be e25f f5be c1ef f63c
000003f0: 4c54 d9be 3bad e93e fce0 79bf 14a4 1ebf
0.3479176 -0.42076853 0.38725314 0.020422177 -0.32648596 0.3912465 0.21837601 0.18461238
-0.013087919 0.34569797 0.33595774 0.4326015 0.18242177 -0.5451197 0.35664415 0.16740808
0.5130096 0.118297726 0.33541217 0.2999572 0.24107006 0.22443268 -0.033801354 0.31617343
0.33835548 0.3664005 0.16318564 -0.2028032 0.501091 -0.015137995 0.38362226 0.5152294
0.07851133 0.23687011 0.03758504 0.45131493 0.33428138 0.120951876 0.18916664 0.26449528
-0.5296701 0.026589967 0.13411106 0.32130855 0.38669235 0.3737919 0.20941104 0.36161
0.14695221 0.52320176 0.32146892 0.30720145 0.43139443 0.47053522 0.009803196 0.44794157
0.70936304 0.081226245 0.5076188 0.3234407 -0.26558587 0.15893605 -0.11247893 -0.3551477
-0.094026454 -0.34566385 0.0072640195 0.3111574 0.018870316 -0.06718989 0.057903983 0.08428169
0.2830755 0.38386756 -0.046297222 0.26337895 0.074975826 -0.2213441 0.060901407 0.06955363
0.14594439 0.27432427 -0.1801578 0.07409538 0.13151614 0.1539363 0.1362669 0.23880151
0.3879637 0.30550963 0.38963395 -0.004193113 0.35061562 -0.051011868 0.26003549 0.87071365
0.15941174 0.00866976 0.102658294 0.2907248 0.26248872 0.14263652 0.6511318 0.23115213
-0.29767615 0.248843 -0.08210502 -0.09200619 0.608122 0.07771187 -0.10110551 0.1262326
0.30504176 0.25373155 0.42364025 0.24433184 0.3188745 0.04729463 0.34961864 0.5366257
-0.011022809 0.20603305 0.31464446 0.8613878 -0.34622106 0.33329424 -0.46907094 -0.31810278
0.3365177 0.380651 -0.035673913 -0.24007377 0.43268803 0.3038323 0.33130822 0.1771265
-0.22111762 -0.18201101 0.2651079 0.25970456 -0.10789858 0.44021055 0.19955741 -0.20597178
0.15903562 -0.1693205 0.19475739 0.22354953 0.23933935 -0.057541933 -0.031697586 0.23813385
0.18683527 -0.058674127 -0.24510404 -0.033543758 0.039099474 0.2613839 0.12858744 0.097003244
0.254992 0.22164473 -0.04715654 0.21562025 0.0344066 0.0022583613 -0.09340032 0.2336174
0.66717166 0.10582554 0.2936617 0.14615183 -0.025647582 0.24894798 0.1197951 0.30778608
-0.23617987 0.18420981 0.022241322 0.14417942 0.24321035 0.39548394 -0.3120688 0.05019139
0.18769675 -0.049276568 -0.42118162 -0.06801838 -0.062782764 0.37555116 0.13976 0.09393747
0.14077514 -0.26949912 -0.45780978 -0.16318834 0.3869372 0.06546214 0.2376725 0.036901228
0.041641586 0.049066354 0.026744122 0.14299293 -0.17119132 0.2884161 -0.17215504 -0.27838048
-0.19134358 -0.048960235 -0.048259594 0.031863987 0.0012567588 -0.09294833 0.09806856 0.18237959
-0.08055291 0.15966702 -0.04826297 -0.3042838 0.11014631 -0.22324331 0.0015857914 0.002560982
0.091133036 -0.020348994 -0.0681635 -0.04217573 0.13226923 -0.022294657 0.032138284 -0.21052882
-0.12279029 0.3086939 -0.030086705 -0.17973499 -0.011539296 -0.052237198 -0.20312412 0.14550199
0.035665266 0.1672421 0.011593396 -0.030474503 -0.08783246 -0.0015739666 0.027568977 0.046491474
-0.8568218 -0.17657776 -0.47924715 0.03014362 -0.42447126 0.45639977 -0.97608924 -0.61969113

gate.2.bias f4 [36]
00000000: 637d d73e 3cf9 743e 4884 983e 5e51 683e
00000010: 5b5c bc3e a58f 9f3d 360b 93bc 73d2 d03d
00000020: 7793 a13e ea91 073e 0521 f93d 16f0 3cbd
00000030: db8f 393d 3e06 093e 4fb5 a5bd 7a91 f6bd
00000040: 15d9 59bd 8046 923e 0f2e 2f3e b937 74ba
00000050: 51b2 ae3c eb94 50be 56ec 7ebd c114 5cbe
00000060: 3085 43be 1df2 0bbe fd82 c93d 1551 91bd
00000070: 0aed 52be 5ec5 783e e259 f6bd 8dcc 82bd
00000080: ae29 bbbe 1ab4 28be bbd6 783d 34cb 063e
0.4208785 0.239232 0.29788423 0.22687289 0.36789212 0.0779107 -0.017949682 0.1019639
0.3155782 0.13239256 0.12164501 -0.0461274 0.045303207 0.13381287 -0.080912225 -0.12039466
-0.05318554 0.28569412 0.17107414 -0.00093161647 0.021325262 -0.20369308 -0.062237106 -0.21492292
-0.19093776 -0.13666578 0.09839437 -0.07095543 -0.20598236 0.2429404 -0.120288625 -0.06386671
-0.36555237 -0.16474953 0.060751658 0.13163453

Wc.weight f4 [3, 6]
00000000: 5819 46bd d435 08bc 0cef 07bc 34de c3bc
00000010: a75b 9f3d f04b 1d3d 97a6 45bd 343d 16bc
00000020: 95fe a3bc 4c8d b93d 88de fcbd c1e2 003e
00000030: b8f7 0bbd e8a4 c2bb 989e 15bb fe12 21bc
00000040: 58f0 973d 5128 ed3c
-0.048364013 -0.008313615 -0.008296739 -0.023909666 0.07781153 0.038402498 -0.048254576 -0.009169865
-0.020018855 0.09060153 -0.12347132 0.125865 -0.03417179 -0.0059400685 -0.0022830125 -0.009831188
0.07418889 0.028949888
