checkpoints/NeuralGVAR/VOL_h12_h12_tr2021-01-01_te2024-01-01_seed3_lam1.0e-04.pt (torch, 16393 bytes, 7 tensors)

S f4 [4, 3, 3]
000000 63 bf 21 3f 35 e1 6d 3e d6 19 06 3e 58 27 1a 3e
       0.6318266 0.23230441 0.13095793 0.15054071
000010 8c c5 1d 3f 8f 83 2b 3e 38 b8 fb 3d 13 e5 4a 3e
       0.6162956 0.16749404 0.12290996 0.19813947
000020 2c f9 09 3f 9a ac 21 3e d5 ad 79 3d d9 f0 04 3e
       0.5389583 0.15788499 0.060956795 0.12982501
000030 2b 60 97 3d 81 42 4d 3e 8d ea 99 3d 0a 2d ff 3d
       0.073913895 0.200449 0.0751544 0.124597624
000040 ec c8 10 3e e6 62 40 3e ff 43 d6 3d f8 84 52 3d
       0.14139146 0.18787727 0.10462188 0.05139634
000050 f0 93 d7 3d 8a f1 da 3c a1 66 1a 3d 19 17 87 3d
       0.10526264 0.026726503 0.03769553 0.065962024
000060 51 4f 04 3e 86 2c 07 3e 38 70 49 3d 82 c9 8e be
       0.12920882 0.13200578 0.049179286 -0.27888113
000070 02 9a 1b bd 31 4e 77 3d 1b 63 1d be da 40 b2 3d
       -0.03798867 0.060377304 -0.15369837 0.08703776
000080 aa 57 fc bd ce 30 ce 3d 4d 4c c0 3d e2 0c c7 3d
       -0.12321408 0.100679025 0.09389553 0.09719254

bias f4 [3]
000000 6d 17 54 bd f5 82 63 bd 70 21 af bc
       -0.051780153 -0.055544812 -0.021378249

gate.0.weight f4 [64, 6]
000000 2e 5a 27 bd 2e 4e 33 3f 35 d0 d9 3d cc 19 a8 3e
       -0.040857486 0.7004117 0.106354155 0.3283218
000010 94 11 38 be d5 cd d2 3f 85 5d cc bd 05 d8 b5 be
       -0.17975456 1.6469065 -0.09978775 -0.35516372
000020 3c e0 a1 3e 25 ef 69 3e b4 5c 18 bf c7 bd 72 be
       0.3161639 0.22845133 -0.59516454 -0.23705207
000030 e8 fa 06 be 50 4c 20 be 08 74 ab 3d f6 ed 3c bf
       -0.1318165 -0.15654111 0.083717406 -0.738006
000040 9d 3c 6a 3e ee 80 af 3d 64 f7 25 3d c0 76 20 3f
       0.22874685 0.08569513 0.040519133 0.626812
000050 1e 9a 0d bf d1 7b df bd 78 2c e6 3e 23 a7 25 3e
       -0.5531329 -0.10912288 0.44955802 0.16177039
000060 df c4 f8 3d 4d 82 2d 3f cb 0d de 3e 65 55 06 3f
       0.12146925 0.6777695 0.43369898 0.5247405
000070 3d 04 f1 be 70 eb c0 be 81 2d 95 be 66 03 0b bd
       -0.47073546 -0.37679625 -0.2913628 -0.033938788
000080 d6 d0 a9 3e 03 d3 66 be 9d 3a 8a 3e 3a 9e 00 bf
       0.33167142 -0.22541432 0.26997843 -0.50241435
000090 93 07 e6 be b2 c7 6d be 39 f2 31 bf 93 fc 6b 3e
       -0.44927654 -0.23220709 -0.6951023 0.23045568
0000a0 e6 15 b1 be f3 d8 83 3e 23 90 66 bb a2 52 50 bb
       -0.3458702 0.25751457 -0.0035181127 -0.0031787534
0000b0 a6 2f 2f bf af ab 88 3e 3d d9 df bc 75 00 9d be
       -0.6843208 0.26693484 -0.027325267 -0.3066441
0000c0 f2 9d 81 be ba 08 e8 bd c4 cc 0b be e5 e9 f7 bd
       -0.25315815 -0.113297895 -0.1365233 -0.12105159
0000d0 88 ae d3 3d d2 5a 37 be ac 4e 00 be 08 33 b3 3b
       0.103360236 -0.17905739 -0.12530011 0.00546873
0000e0 69 4d 40 3f 71 2e 9a be cf 32 01 3f 6c c3 95 3d
       0.7511812 -0.30113557 0.5046815 0.073126644
0000f0 9b 0f 5a be 9b c5 d4 bd c6 c1 29 bf 2e ee 1a bf
       -0.21295016 -0.10389253 -0.663113 -0.60519683
000100 2c 04 28 3e 7a 8e 67 3f 5d 37 28 be 80 0f 89 3e
       0.16407841 0.90451777 -0.1642737 0.26769638
000110 40 7e a7 3c eb b3 83 be 2d 7a 04 bf 04 b7 e3 be
       0.020445943 -0.25723204 -0.51748925 -0.44475567
000120 b7 68 40 bf 1f 34 9e be 8c c0 c3 3e f2 fc 84 3e
       -0.7515978 -0.3089914 0.3823284 0.25974232
000130 25 ab 0f be 24 65 55 be b1 76 27 3f 08 0f f6 bd
       -0.1403013 -0.20839363 0.65415484 -0.12014586
000140 c1 40 8d 3e 9e e3 5e bf 48 e3 e6 be 14 a1 51 3e
       0.27588466 -0.87066066 -0.45095277 0.20471603
000150 3e 3e 4a 3d 53 c4 e1 3c c7 b7 0f bf 80 b1 b5 be
       0.049375765 0.027559435 -0.56139797 -0.35486984
000160 b5 ca 1a bf 6d 25 b8 3d 4b f4 53 be 49 f2 c3 bd
       -0.60465556 0.089915134 -0.20698659 -0.095676966
000170 ef 43 8e be 4c ae 84 bd c7 26 09 3e d5 7c ca be
       -0.27786204 -0.06478557 0.13393699 -0.39548364
000180 01 0d 52 bc 28 d1 98 bd 28 58 ba be f7 9f 35 3f
       -0.012820483 -0.074617684 -0.36395383 0.7094721
000190 a8 3c 60 3e 93 73 ec 3e f5 6b a4 3e 5f 0f c0 be
       0.21898139 0.46181926 0.32113615 -0.37511727
0001a0 d5 51 7b 3e 19 d6 07 bd af c8 18 3e 63 49 10 bf
       0.24542935 -0.033163164 0.14920305 -0.5636198
0001b0 26 e7 b7 be 11 d9 b5 3b d4 c5 47 bd 7d 7b 95 3e
       -0.3591854 0.005549558 -0.048772648 0.29195777
0001c0 7c cd fc be b4 78 cf be ab 30 26 3f 8c fa 91 bd
       -0.49375522 -0.40521777 0.6491801 -0.07127866
0001d0 75 1a 8d 3e fd 36 85 bf 5c cd 3f be fd 03 7b 3e
       0.27559248 -1.0407406 -0.18730682 0.2451324
0001e0 44 f6 53 be f4 10 0a 3e 53 92 0f be 60 11 af 3e
       -0.20699412 0.1348303 -0.14020662 0.34192944
0001f0 3e dc aa be ef f5 f9 3e 62 06 21 3e 53 66 b3 be
       -0.33371156 0.48820445 0.15725091 -0.35039005
000200 9a 46 41 3e c0 e5 66 3d 7a 70 e7 3e a6 27 a7 3e
       0.18874589 0.05637145 0.45203 0.32647437
000210 50 dd 28 3d ea 28 e3 ba 80 f8 9e 3e 03 1a ec 3e
       0.041226685 -0.0017330919 0.31048965 0.46113595
000220 bb 0f 21 bf 57 73 09 be 0c 11 23 3f 4f 81 f2 be
       -0.6291463 -0.13422905 0.63697886 -0.4736428
000230 a4 b6 d4 be 11 99 23 3e ec 99 44 3e da 70 b3 3f
       -0.41545594 0.15976359 0.19199342 1.4018815
000240 8b 7f 43 3d df 4e 1f be c1 d5 9d be 19 3e 02 3f
       0.047729056 -0.1555743 -0.30827144 0.50876004
000250 79 5d 32 be b5 e9 d5 3c a1 5a 1a 3e 66 21 cd bd
       -0.1741847 0.026112417 0.15073635 -0.10016136
000260 2e 99 c6 3d 20 58 4d be 07 44 81 3e 89 04 d8 be
       0.096971855 -0.20053148 0.25247213 -0.4219096
000270 8e aa ac 3e 2a dd b0 be 54 f9 9d be 06 2e 02 be
       0.33723873 -0.34543735 -0.30854285 -0.12712869
000280 6f 79 af 3e f9 c4 71 3f d0 28 16 bf 5a d8 ce be
       0.34272334 0.9444118 -0.58656025 -0.40399438
000290 4b 18 13 be ba 31 63 be e0 e1 cb 3e 98 5b e9 3e
       -0.14364736 -0.22186938 0.39820766 0.45577693
0002a0 81 5c 00 bf cc 36 0f bf 01 c2 b8 3d 37 07 99 3e
       -0.5014115 -0.5594299 0.09021378 0.29888317
0002b0 64 a1 83 3e 10 e5 40 be ee 84 20 3f 14 bc 64 3e
       0.2570907 -0.1883738 0.62702835 0.22337371
0002c0 8d 4a 99 3e 0d 89 99 bf 65 84 a4 be ac 0d 6c 3e
       0.2993969 -1.199495 -0.3213226 0.2305209
0002d0 f1 ab 8d 3e 41 a1 ea 3d 04 e7 f3 3d 41 37 eb 3e
       0.27670243 0.11456538 0.11909297 0.45940593
0002e0 16 6b 28 bf 8e 44 ef bd 42 e1 e2 3d 5f 27 5b 3d
       -0.657884 -0.11682998 0.11078121 0.053504344
0002f0 6e 99 f6 bd 5e 24 9e 3e 05 55 03 bf 2b 65 47 bc
       -0.12040983 0.3088712 -0.51301605 -0.012170116
000300 53 99 b4 3d c2 c2 e7 bc c4 9d 4d bd 8e 5c c4 3e
       0.08818307 -0.02829111 -0.050199285 0.38351864
000310 58 d5 68 bd 69 83 3b be 9d fd 68 3e a0 9e 88 3e
       -0.056844085 -0.18311848 0.22752996 0.2668352
000320 23 2c 11 3e 41 cd d6 be 59 14 bf 3d c5 a4 e2 be
       0.14176993 -0.4195347 0.09330053 -0.44266334
000330 91 ef 14 3f 43 b8 99 3e fe f0 ce 3e 36 f1 5d bf
       0.5817805 0.30023393 0.40418237 -0.86696184
000340 2d 37 fa be 9a 4e cc be 74 6c 8d 3c 0d 2d a3 3d
       -0.4887022 -0.39903718 0.017263629 0.07967577
000350 83 65 cd bd e2 cc 29 bf 9e 48 8c bd 2e 15 b5 3d
       -0.100291274 -0.6632825 -0.06849788 0.0884193
000360 3f d7 d2 bd 82 5e f9 3d d0 f2 28 bd 79 d3 7b be
       -0.10294961 0.12176229 -0.04124719 -0.24592389
000370 50 d8 90 be c7 0c cc bd ce 88 9f be c7 b7 0c bf
       -0.28290033 -0.099633746 -0.3115906 -0.5496792
000380 f3 e9 40 be 46 ae 43 bf 65 06 85 be 8f 05 81 be
       -0.18839245 -0.76437795 -0.2598144 -0.25199553
000390 c8 d2 74 be 27 a1 fe bc 95 c9 89 3c e8 c2 9f be
       -0.23908532 -0.031082703 0.016819755 -0.3120339
0003a0 31 2d 20 3d 0d 60 ec be 00 ab 0a be 6a a2 d7 3e
       0.039105598 -0.4616703 -0.13541794 0.421161
0003b0 b3 05 8c 3e 1c 04 14 3f 26 da 09 3c bd bf bd 3e
       0.27348098 0.5781877 0.008413827 0.37060347
0003c0 00 e1 e0 3d 76 d8 3c 3d cf 94 50 3e 93 4e 6e bf
       0.10980415 0.04610487 0.20369266 -0.93088645
0003d0 d2 00 1c bf 9f 35 68 3e e6 d9 d3 3d 2c c3 9a bd
       -0.6093875 0.22676705 0.10344295 -0.07556757
0003e0 8d 80 07 bf e6 9a 40 be 3a 31 b8 bd a9 aa 72 be
       -0.5293053 -0.18809089 -0.08993764 -0.23697914
0003f0 d5 df 2a be 16 ce 15 be 95 cd c0 be 7b a9 dc be
       -0.16686948 -0.14629397 -0.37656847 -0.43098053

gate.0.bias f4 [64]
000000 de 9f 00 3f e5 fe 48 3c 0e ee 41 3f ce ad eb be
       0.5024394 0.012267803 0.7575387 -0.4603104
000010 ef b8 3a bf 6b 3f 52 3e ee c9 5d 3e fa b2 52 3d
       -0.72938436 0.20532005 0.21659061 0.051440217
000020 18 f2 25 3f 7a 3b 37 be be c6 0e 3f 2b ba 31 3d
       0.6482253 -0.17893782 0.55772007 0.043390434
000030 15 ec 44 bf 95 0d 0d 3f 5f 0a e2 3e f6 e0 08 3f
       -0.7692273 0.5509885 0.44148538 0.53468263
000040 ea 8c 80 be 62 eb 2b 3e 4b 52 a6 3e 90 b1 36 3f
       -0.2510751 0.1678901 0.3248466 0.7136469
000050 2c c4 f9 3d f4 d7 b4 bd 37 b6 89 3d 52 3f 16 3f
       0.1219562 -0.08830252 0.06724208 0.5869037
000060 3e f2 1c 3f e6 ad d2 3e 23 1b fa 3e 0b 95 e4 be
       0.6130713 0.411483 0.4884883 -0.4464496
000070 7d 9d 08 be 17 2d 32 3f d2 49 6f 3e 7c 6e d6 3e
       -0.13341327 0.6960005 0.23368004 0.41881168
000080 9c 92 87 3e 7a ba 6a 3d 26 7f 00 bf 31 31 ae 3e
       0.26479042 0.057306744 -0.50194013 0.34021905
000090 36 2c 42 3e 28 c4 ed be 1b 26 96 3d 75 f4 47 3e
       0.18962178 -0.46438718 0.07331487 0.19526847
0000a0 64 4e 7b 3e e0 65 e8 3e 4c 0d 44 3e 6b e2 f8 3e
       0.24541622 0.45390224 0.19145697 0.48610243
0000b0 89 94 4e be ac 33 06 3f 65 4c 28 3e 81 09 13 3f
       -0.20173849 0.52422595 0.16435392 0.57436377
0000c0 89 cd a4 3e a9 b5 7a 3d 64 57 0c 3f 77 3b de 3e
       0.3218806 0.0612084 0.5482085 0.43404743
0000d0 c8 6f ff 3e de cc f1 3e 95 95 d0 be a8 75 4d 3e
       0.4988997 0.47226614 -0.40739122 0.20064414
0000e0 b9 01 06 3f d0 de e9 be 68 1b 20 3f c0 35 fd bd
       0.5234638 -0.45677805 0.6254182 -0.123637676
0000f0 1e ea a9 3d e0 94 23 3f 64 a0 0e 3f 71 e2 b7 3e
       0.082966074 0.6389904 0.55713487 0.3591495

gate.2.weight f4 [36, 64]
000000 80 12 c1 3e e1 d4 b6 3e a1 28 78 3e ac 91 f8 3d
       0.37709427 0.3570929 0.24234249 0.1213716
000010 73 16 df 3c 81 97 3b 3e 00 6d a9 3e c9 b9 6f 3e
       0.027232384 0.18319513 0.33090973 0.23410715
000020 26 d4 97 3e 8b 39 ae 3d 5e 23 0b 3e 97 38 87 3e
       0.29654044 0.08507069 0.1358771 0.26410362
000030 fe fd ac bc e4 70 ac 3e 14 8d 13 3e 5e b0 76 3e
       -0.021117207 0.3367988 0.14409286 0.24090716
000040 41 f6 96 3e 27 f8 ad 3e 3d d3 c6 3e 63 d6 06 3f
       0.29484752 0.33978388 0.38833037 0.5267088
000050 87 6e 3a 3e 2e e7 b8 3d 33 12 ca 3e c1 aa 9d 3e
       0.18206225 0.09028469 0.3946701 0.30794337
000060 5c 67 07 3f b3 0e b6 3e 93 03 a1 3e 1b 0d b1 3c
       0.5289209 0.3555809 0.3144804 0.021612694
000070 2b 08 76 3e f8 10 91 3e 98 62 a2 3e a7 db f0 3e
       0.24026553 0.2833326 0.31715846 0.4704258
000080 52 fe b5 3e de 98 cd 3e f6 67 14 bc 41 1f ae 3e
       0.35545594 0.4015569 -0.009057989 0.3400822
000090 c6 92 81 3e 41 f1 c9 3d d8 ae 6b 3e d3 c5 f5 3e
       0.25307292 0.09860469 0.23015916 0.4800249
0000a0 d2 d9 a5 3e b5 21 c7 3e 59 89 6c 3e 00 db d1 3e
       0.32392746 0.38892904 0.23099269 0.40987396
0000b0 ac ef 0d 3e 64 20 aa 3e 88 b2 90 3e 79 2a aa 3e
       0.13860959 0.33227837 0.2826121 0.3323553
0000c0 8e d0 17 3e fc fb d2 3e e6 bb 79 3e 5b 2e 3d 3e
       0.14825651 0.41207874 0.24388084 0.18474714
0000d0 94 1a 2e 3e 28 8f ec 3e 6f 7a 2e 3d d3 46 a4 3e
       0.17002326 0.4620297 0.04259723 0.32085285
0000e0 2e 05 91 3e 05 46 1d 3e 76 c6 ee 3e ed 7d dc bc
       0.28324264 0.15358742 0.4663579 -0.026915515
0000f0 0d 6d 2a 3e eb 93 ea 3e 5b ee 9a 3e 2b 04 d8 3e
       0.16643162 0.45815977 0.30259976 0.4219068
000100 f4 07 da be 30 3d 9e 3e f3 bc 83 3e 04 82 8d be
       -0.42584193 0.30906057 0.25730094 -0.27638257
000110 29 5d d7 3d a3 4f c1 3e d7 94 06 3e e7 05 fe 3c
       0.10515816 0.3775607 0.13142715 0.031008674
000120 70 73 cf 3e e1 23 0d be f1 ee fb 3d 48 e2 25 3e
       0.4051776 -0.13783218 0.12301434 0.161996
000130 b6 cb 85 bb 76 9e 1f 3e f6 e7 88 bb 71 ac bb 3e
       -0.004083122 0.15587792 -0.0041780425 0.36655
000140 19 1c f3 bd df d1 47 3f 35 4a bf 3d 00 d9 bd 3d
       -0.118705936 0.7805461 0.09340326 0.09269905
000150 62 a4 58 3e f2 b5 b1 bb eb 13 6f 3f c2 94 42 bb
       0.21156457 -0.005423301 0.9338977 -0.0029690717
000160 50 5b 55 3e c8 2a 05 3f bc 9a 26 bc f8 dc d3 be
       0.20835614 0.52018404 -0.0101687275 -0.41379523
000170 d3 97 d4 3d bd ce d1 bc 39 a3 27 3f 7e 35 af 3e
       0.10380521 -0.025611276 0.65483433 0.342205
000180 6c 3b aa 3e b1 24 ab 3e 76 65 e4 3d ae 05 e1 3d
       0.3324846 0.3342643 0.11152165 0.109874114
000190 1e 3b 20 3e 8c 83 33 3e 17 7f 87 3e 39 4f 43 be
       0.15647551 0.1753065 0.2646415 -0.1907319
0001a0 3b 85 17 3e 88 c3 83 3e 60 bf 71 3e 25 2c 81 3e
       0.14796917 0.25735116 0.2360816 0.25228992
0001b0 83 da 84 bd 60 3a 0c bd ee ec df 3d 3f 52 8e 3d
       -0.0648699 -0.03423536 0.109338626 0.06949281
0001c0 eb 6b 4e 3e 8a f3 00 3f 1c 73 93 3e ab f1 72 bd
       0.20158355 0.5037161 0.2879876 -0.059312504
0001d0 f1 b9 98 be 53 81 ce 3e fd 02 a5 3e f5 8a 1c 3d
       -0.29829362 0.40333042 0.32228842 0.038218457
0001e0 ee 95 b9 3e 2b 4c 34 3e c8 69 ae 3e 52 b6 6c be
       0.362472 0.17607181 0.3406508 -0.23116425
0001f0 d8 81 1d 3e 5a a6 65 3e cd 43 02 3e a5 a5 0d 3f
       0.15381563 0.2242674 0.12721176 0.5533088
000200 d1 57 95 be e4 75 bc 3e 7b cf cd bd 8d 3d c7 3e
       -0.2916856 0.36808693 -0.100493394 0.38914147
000210 14 c8 db 3d a9 93 1e 3e 69 60 b4 bc 70 ee bb bd
       0.10731521 0.15486015 -0.022018628 -0.09176338
000220 29 2c c8 3b 39 8d 9c 3e 9b bb 57 be 1f 5d 74 3e
       0.00610878 0.30576494 -0.2106766 0.23863648
000230 f8 6a bc 3e cb 23 ce bd c4 e7 d4 3d 6b 30 0e 3e
       0.3680036 -0.10065421 0.10395768 0.13885657
000240 80 41 1d be 98 77 63 3e 6d ec d3 3d fb 45 a5 be
       -0.15357018 0.2221359 0.10347829 -0.32279953
000250 9b ef 85 bd 1f da 11 3e 85 24 01 3f f1 a4 9c be
       -0.06539842 0.14243363 0.5044635 -0.3059459
000260 35 3f 0e 3d ef e5 e0 3d d5 30 a1 be 3b c8 3a 3f
       0.034728248 0.10981356 -0.31482568 0.7296178
000270 e2 06 c1 bd 91 60 f3 bb 77 49 61 3e 87 f6 4f 3e
       -0.09425141 -0.007427283 0.22000681 0.20308886
000280 d5 6d 45 bc 54 9e de 3d 87 fc 80 be fe 7a ab bd
       -0.012050112 0.108700424 -0.25192663 -0.08373068
000290 b1 23 42 3e 03 5c b0 be 2f 51 0f 3d cb 3d 90 bc
       0.18958928 -0.344452 0.034989532 -0.01760759
0002a0 9d ff d0 bd 3f 2e b1 3d 6c a1 2c 3e ae 5a e0 3c
       -0.10205004 0.08651399 0.16858453 0.02738699
0002b0 80 ac 98 bd de be 5d be 61 2d b5 3a b0 f8 08 be
       -0.07454777 -0.21654841 0.0013822728 -0.13376117
0002c0 cf 1b 03 3e 2b dc 5b 3e a7 6a f7 3c 49 1a 2d 3d
       0.12803577 0.21470706 0.030202223 0.042261396
0002d0 74 03 06 bf ca fb 2a 3e 47 39 16 be 30 d0 87 bd
       -0.5234902 0.16697612 -0.14670287 -0.066315055
0002e0 8d 7d 14 3e d4 2f a5 be e8 cf c9 bd 4a ec 4f 3e
       0.14501019 -0.32263052 -0.09854108 0.20304981
0002f0 a5 72 cb 3d bf 3f 84 3d 36 fa ab 3d 7f 9b 3c 3e
       0.09933976 0.06457471 0.08397333 0.18418692
000300 71 5a d8 be 90 05 01 bc 9c 1d 54 bd cd f1 86 3d
       -0.422565 -0.007874861 -0.05178605 0.065890886
000310 a6 37 0f be 83 05 f3 3e 75 71 c9 3d b5 ae f6 bc
       -0.13986072 0.47465143 0.09836093 -0.030112604
000320 fc 9f 90 3e 50 c3 13 be 70 11 20 be c5 9a 9d 3d
       0.28247058 -0.14429975 -0.15631652 0.076955356
000330 75 e9 38 3e 4b dd af be 44 8c f7 3d a5 0e c9 3e
       0.18057807 -0.3434852 0.120873004 0.39268985
000340 d5 ba b2 bd e7 22 d2 3e ad 32 c2 3e f5 a9 d5 be
       -0.08727042 0.41042253 0.37929288 -0.4173123
000350 78 39 1a 3e 48 71 4a 3d d6 20 86 3e 4e 9c 13 be
       0.15060985 0.04942444 0.26196927 -0.14415094
000360 0a 9c b5 3d db a6 81 3e 14 d7 15 bd 38 d8 c3 3b
       0.08867653 0.25322613 -0.036582068 0.005976703
000370 ce dd 5e 3e ee d6 a6 be 68 59 14 3e 03 db 33 3e
       0.217643 -0.32585853 0.14487231 0.17564015
000380 22 81 ed 3d 0e ca 77 3d cb a8 66 bf 9d 6e 9f 3d
       0.11596896 0.06049543 -0.9010131 0.0778477
000390 e6 19 fc 3d 10 2f 31 bf ed 57 0a 3f 43 80 75 be
       0.12309627 -0.69212437 0.54040414 -0.23974709
0003a0 bb 3c 11 be 2d d3 b8 bc 01 38 bb 3e 48 65 19 3e
       -0.14183323 -0.022561634 0.36566165 0.14980042
0003b0 29 68 64 3c dd 84 39 be 9b 31 07 bd d4 73 82 3c
       0.013940849 -0.1811709 -0.03300629 0.015924372
0003c0 70 0f 55 3e ea af 03 3f 79 a3 97 3d 93 86 87 3d
       0.2080667 0.514403 0.07404227 0.06617465
0003d0 c9 2a bb be 35 97 3e 3e 91 37 34 3e 96 20 8f 3e
       -0.3655608 0.18612368 0.17599322 0.2795455
0003e0 72 b6 4b 3e ed fa 19 bf 9a 12 55 3e e9 4d 37 be
       0.19893816 -0.6014851 0.20807877 -0.17900814
0003f0 51 78 41 3e 12 9b 9e bc e7 6d 18 3e 00 9a b8 3e
       0.18893553 -0.019361053 0.14885674 0.36054993

gate.2.bias f4 [36]
000000 57 a6 ab 3e df 68 d1 3e 5e df e3 3c ea f5 ef 3d
       0.33525345 0.40900323 0.02781647 0.11716826
000010 99 f1 9d 3e d8 9c 23 3e 6f 8d fb ba 43 bf f9 3d
       0.30848387 0.159778 -0.0019191931 0.121946834
000020 0b d3 d4 3e cc 93 f3 3d 39 a4 d4 3d 1e a3 08 bd
       0.41567263 0.118934244 0.103828855 -0.033358686
000030 ea db 93 bc 22 80 21 3e 52 94 0f 3b 98 2e 2e bd
       -0.0180492 0.15771535 0.0021908474 -0.042524904
000040 b8 96 b5 be 77 30 17 3e 14 8f 03 3e 44 08 e9 bd
       -0.35466552 0.14764582 0.12847549 -0.1137853
000050 bd 46 6c bd 20 a2 d0 bd 8d bf bd bd 1e 2c 34 be
       -0.05768465 -0.10187173 -0.09265051 -0.17594954
000060 05 ef ba be 15 4f 86 be d7 da 2c 3d d0 c6 58 3d
       -0.36510482 -0.2623221 0.04220089 0.052923977
000070 da fc ab 3c 77 a9 8d be bb 59 d2 3d 7f cf 63 bd
       0.020994592 -0.27668354 0.10271021 -0.055617806
000080 f7 f9 1d 3e 4d d5 60 be 76 5d ae be 02 e1 38 be
       0.15427385 -0.21956368 -0.3405568 -0.18054584

Wc.weight f4 [3, 6]
000000 84 b2 97 bc 82 77 88 3b 93 21 eb 3b d1 e3 26 bd
       -0.01851774 0.004164637 0.007175633 -0.040744606
000010 13 0f 9e 3d 61 3c d1 3d 68 0c a3 bc 28 11 90 3b
       0.07717719 0.102165945 -0.019903377 0.0043965764
000020 aa e3 28 3b e1 82 8a bc 0a 04 37 3d 1f 3a 1c 3d
       0.0025770464 -0.016908111 0.044681586 0.038141366
000030 d6 fd 78 bc c6 bd 4f 39 91 c1 4f bb 3d 82 c6 3d
       -0.015197238 0.00019811754 -0.0031701068 0.0969281
000040 e3 f7 d2 bc 4d 02 b3 3c
       -0.025752967 0.021851683
