checkpoints/NeuralGVAR/VOL_h12_h12_tr2021-01-01_te2024-01-01_seed1_lam5.0e-04.pt (torch, 16393 bytes, 7 tensors)

S f4 [4, 3, 3]
0	0x3f1ca91f	0.6119556
1	0x3e668cab	0.22514598
2	0x3e3a1ef2	0.18175867
3	0x3e3d7be3	0.1850429
4	0x3f18e62d	0.5972622
5	0x3e47e126	0.19519481
6	0x3e3e2703	0.1856957
7	0x3e66b588	0.22530186
8	0x3f215db8	0.6303363
9	0x3e27aad5	0.16373761
10	0x3d84f9ca	0.06492956
11	0x3d58a081	0.052887443
12	0x3cc9bc5a	0.024625946
13	0x3e688b9d	0.22709508
14	0x3d7ef0f6	0.062241517
15	0x3e406459	0.1878828
16	0x3e26f4a3	0.16304259
17	0x3e457a13	0.19284849
18	0x3de46631	0.11152304
19	0x3d189da0	0.037259698
20	0x3d3b42a7	0.04571786
21	0xbdfbb363	-0.12290075
22	0x3d96376a	0.07334788
23	0xbd7296bd	-0.059225786
24	0xbe1e13cb	-0.15437238
25	0x3e0cd683	0.13753705
26	0x3da85c69	0.08220751
27	0xbe608df5	-0.21929152
28	0x3d1d0ece	0.038344197
29	0xbe0ad38b	-0.1355726
30	0xbdf00696	-0.11720006
31	0x3d8feb82	0.070273414
32	0xbdceabee	-0.10091387
33	0x3e010f47	0.12603484
34	0x3e10bcc1	0.14134504
35	0x3d2e92fd	0.042620648

bias f4 [3]
0	0xbd32b692	-0.043631144
1	0xbd3b752b	-0.045766037
2	0xbc73e5f3	-0.014886367

gate.0.weight f4 [64, 6]
0	0x3da6a4de	0.08136915
1	0xbc6f9913	-0.014623898
2	0x3ed287b4	0.41119158
3	0x3f0fc8a7	0.56165546
4	0xbe6b4bb1	-0.22978093
5	0xbe41aae6	-0.18912849
6	0x3ca8f9a0	0.020626843
7	0xbe0591c1	-0.13043882
8	0xbe8f30b5	-0.27966848
9	0x3e995e10	0.29954576
10	0x3e8bf1f3	0.2733303
11	0x3eacecea	0.337745
12	0xbf1dd20c	-0.6164863
13	0xbe165621	-0.14681293
14	0xbd677fb6	-0.05651828
15	0x3ec9a4a6	0.3938343
16	0xbf077464	-0.52911973
17	0xbe60437e	-0.21900746
18	0x3e18f5dc	0.14937538
19	0xbd9f2907	-0.07771497
20	0x3c95f645	0.018305907
21	0x3e3721e4	0.17884022
22	0x3cde12d6	0.027108591
23	0x3d78b7ed	0.06072228
24	0x3e0c2b27	0.13688336
25	0x3e8317d9	0.25604132
26	0xbd85f7de	-0.065414175
27	0x3eda1211	0.4259191
28	0xbf006bc7	-0.50164455
29	0xbec2e86c	-0.3806795
30	0x3e701f4e	0.23449442
31	0xbe08b64c	-0.1335079
32	0xbe013c4b	-0.12620656
33	0xbeaaa14d	-0.33326188
34	0xbe75cdf8	-0.24004352
35	0x3f35a4c1	0.7095452
36	0x3efb27f4	0.4905392
37	0x3e99182a	0.29901248
38	0x3e9634d0	0.29337168
39	0xbf9c9592	-1.2233145
40	0xba213396	-0.00061493495
41	0xbdc23210	-0.09482205
42	0xbf198bf1	-0.5997916
43	0xbec10ca4	-0.37704957
44	0xbd875bc4	-0.066093
45	0x3e6a1624	0.22860008
46	0xbe2f6f3a	-0.17132273
47	0xbe1ac370	-0.15113616
48	0x3ecb07d7	0.3965442
49	0xbe15c256	-0.14624915
50	0x3ddece09	0.10879142
51	0x3f2a7ba7	0.6659493
52	0xbf02e92a	-0.5113703
53	0xbe1bf832	-0.15231398
54	0x3c9b35ea	0.018946607
55	0xbcdc2c71	-0.02687666
56	0xbc2fa670	-0.010720834
57	0x3e2a163e	0.16610047
58	0x3e489081	0.19586374
59	0x3fb38ea4	1.4027905
60	0x3e4500da	0.19238606
61	0xbeab2f9d	-0.33434764
62	0x3e77fab2	0.24216726
63	0x3e0c880a	0.1372377
64	0x3e5f6acf	0.21818088
65	0x3e1b753e	0.15181443
66	0xbee221a1	-0.44166282
67	0xbeac56dd	-0.3366002
68	0xbf2ed917	-0.683
69	0xbe49fa94	-0.19724494
70	0x3edbe31c	0.42946708
71	0xbebcfa40	-0.36909676
72	0xbe30eaee	-0.17277119
73	0x3d9d6a02	0.07686235
74	0xbf17f791	-0.5936213
75	0x3d040cc8	0.03223875
76	0x3e8df2b6	0.27724236
77	0x3f19bbd7	0.60052246
78	0xbe2dba36	-0.16965565
79	0x3d573471	0.052540246
80	0x3e85ca75	0.26131025
81	0x3ea34598	0.31889033
82	0x3e887d40	0.26658058
83	0x3ebeb33a	0.37246114
84	0xbd6721ee	-0.056428842
85	0xbdaebdb0	-0.08532274
86	0xbee136f7	-0.43987247
87	0xbefe12d0	-0.49623728
88	0xbd590a40	-0.05298829
89	0xbe7f822e	-0.24952003
90	0xbd97df81	-0.07415677
91	0xbd6ecdf2	-0.058301874
92	0xbe082329	-0.13294663
93	0xbe41278a	-0.18862739
94	0x3e230438	0.15919578
95	0x3d885374	0.066565424
96	0x3d77d09d	0.060501684
97	0x3e9db85c	0.30804718
98	0xbdf79ac1	-0.12090064
99	0x3f06648f	0.5249719
100	0xbd673a59	-0.05645213
101	0xbcdef0ce	-0.027214434
102	0xbf812c6e	-1.0091684
103	0xbefc3e58	-0.49266315
104	0xbf09df02	-0.5385591
105	0xbe134c59	-0.14384593
106	0x3e6925e8	0.22768366
107	0xbdecd2f8	-0.115636766
108	0xbcf0d610	-0.029398948
109	0x3e08e864	0.133699
110	0xbe37005d	-0.17871232
111	0x3edc6980	0.4304924
112	0xbe8c1a82	-0.27363974
113	0x3dd2234b	0.10260638
114	0xbe478775	-0.19485267
115	0xbe44137f	-0.19148062
116	0xbf1fdce9	-0.6244646
117	0xbde1e064	-0.11029127
118	0xbe42de2d	-0.19030066
119	0x3ea34b7f	0.31893536
120	0x3e577940	0.21042347
121	0x3e5ec29c	0.21753925
122	0x3ee8d4fb	0.4547499
123	0x3e5e9725	0.21737345
124	0x3e44f64d	0.19234581
125	0xbe6713dc	-0.2256617
126	0x3ba6e0bb	0.005092708
127	0x3e383e7c	0.17992586
128	0x3c4c99fe	0.0124878865
129	0x3b4b2c3d	0.003100171
130	0xbf2a6db7	-0.6657366
131	0xbe00e12d	-0.12585898
132	0xbe8e9a67	-0.27852175
133	0xbdb40178	-0.08789343
134	0xbed97a29	-0.42476013
135	0xbe71347c	-0.23555177
136	0x3d3545c8	0.044256
137	0xbe556baa	-0.20841852
138	0x3e08346b	0.13301246
139	0xbe52ac71	-0.20573594
140	0xbd32e83b	-0.043678503
141	0xbe1dd2dd	-0.15412469
142	0x3ece1862	0.40252978
143	0xbebfd82b	-0.3746961
144	0xbdf4c5a8	-0.119517624
145	0x3df13e47	0.117794566
146	0xbd89dba2	-0.06731345
147	0xbece134c	-0.40249097
148	0x3e8af221	0.27137855
149	0xbf0bb69b	-0.5457551
150	0x3ebb5257	0.36586258
151	0xbebe7a97	-0.37202904
152	0x3eb5482c	0.35406625
153	0xbecba313	-0.39772853
154	0xbea61210	-0.32435656
155	0xbe2d3618	-0.16915166
156	0x3e380e7b	0.17974274
157	0x3d746a9d	0.059671987
158	0x3cd38b3a	0.025823224
159	0x3d6d76ec	0.05797474
160	0xbef32f66	-0.474971
161	0x3ed4ecb7	0.4158685
162	0xbe25bf36	-0.16186222
163	0x3e3741c1	0.17896177
164	0x3df3ec34	0.119102865
165	0xbe7d7a01	-0.24753572
166	0xbd31b282	-0.04338313
167	0x3fca8b6b	1.5823797
168	0xbd83d00c	-0.06436166
169	0x3f09fe79	0.5390392
170	0xbc4fb043	-0.012676301
171	0xbeba88da	-0.36432534
172	0x3e28347e	0.16426274
173	0xbebe144e	-0.37124866
174	0xbebe6f03	-0.3719407
175	0x3e2cbf1a	0.16869774
176	0x3eeba053	0.46020755
177	0x3f04c4ca	0.51862776
178	0xbdf20db4	-0.1181902
179	0xbeda4a56	-0.4263484
180	0x3f22c3bf	0.63579935
181	0x3e9eeee7	0.31041643
182	0x3e55d34d	0.20881386
183	0xbe2b99ca	-0.16757885
184	0xbf1e6247	-0.6186871
185	0x3f21bdd6	0.6318029
186	0x3d20f12f	0.03929251
187	0xbe8ed1c4	-0.27894413
188	0xbf24592b	-0.6419856
189	0x3d88f567	0.06687432
190	0x3e903c30	0.2817092
191	0xbebe32eb	-0.37148222
192	0xbe64e3e8	-0.22352564
193	0xbd8d74ee	-0.06907068
194	0xbf62d316	-0.8860334
195	0xbf18b3ce	-0.5964936
196	0xbf0b000b	-0.5429694
197	0x3ef61c5f	0.4806852
198	0x3eadffbc	0.33984172
199	0xbe20acb5	-0.15690883
200	0x3e67b8a1	0.22629024
201	0x3f068ea6	0.52561414
202	0xbd74e142	-0.059785135
203	0xbe43a5b8	-0.19106185
204	0xbe59fd70	-0.21288085
205	0x3e4e4827	0.20144711
206	0x3d425b29	0.04745022
207	0xbe5096f4	-0.20370084
208	0x3eaee64f	0.34160087
209	0x3eb2d8de	0.34931082
210	0xbe06816a	-0.13135305
211	0x3e8409f2	0.25788838
212	0x3dc8051d	0.097666
213	0xbebe3690	-0.37151003
214	0x3e945c93	0.2897688
215	0xbed746a0	-0.4204607
216	0x3e466e85	0.19378097
217	0xbe58d257	-0.21173988
218	0xbe19a7b8	-0.15005386
219	0x3e3bcf10	0.18340707
220	0x3d7aa4b2	0.061192222
221	0x3e88579b	0.26629338
222	0xbd0ac8f9	-0.03388307
223	0xbdd45ff2	-0.103698626
224	0xbf4341e7	-0.76272434
225	0x3df2c09b	0.11853143
226	0x3caaee51	0.020865591
227	0x3d83146e	0.06400381
228	0xbe127829	-0.1430365
229	0x3e325ae7	0.17417489
230	0x3e56f609	0.20992292
231	0x3e596926	0.21231517
232	0xbe980fec	-0.29699647
233	0xbe5030f3	-0.20331173
234	0xbea42e0a	-0.32066375
235	0x3d98530e	0.074377164
236	0xbcae5d08	-0.021284595
237	0x3d4ab583	0.04948951
238	0x3db41499	0.08792991
239	0xbef6d7d3	-0.48211536
240	0x3ecf6686	0.40507907
241	0x3e3287f8	0.1743468
242	0x3eab2411	0.33425954
243	0xbf31bec3	-0.69431704
244	0xbeb2bfc2	-0.34911925
245	0xbe36c703	-0.17849354
246	0x3c258959	0.010103547
247	0xbe25ff53	-0.1621068
248	0xbd398016	-0.045288168
249	0xbeb2533a	-0.34829122
250	0x3f0450dd	0.5168589
251	0xbe2aaa8b	-0.1666662
252	0x3c8158e7	0.015789462
253	0xbdefc1ea	-0.11706908
254	0xbeb45247	-0.35219023
255	0x3f1ba6a1	0.6080113

gate.0.bias f4 [64]
0	0x3e6a23f8	0.22865283
1	0xbdfc203d	-0.123108365
2	0x3e872469	0.26394966
3	0x3ec69fdf	0.38793847
4	0xbf260093	-0.64844626
5	0x3f4c46c2	0.7979547
6	0x3e9ed800	0.3102417
7	0x3ecc2eae	0.39879364
8	0x3cc46f21	0.023978772
9	0x3f50e131	0.81593615
10	0xbf0de59d	-0.5542849
11	0x3df66358	0.12030667
12	0xbec35143	-0.38147935
13	0xbf21d741	-0.63219076
14	0x3e47ba92	0.19504765
15	0x3f2f4437	0.6846346
16	0x3ed87351	0.4227548
17	0xbeefdfe9	-0.46850517
18	0x3f173e3a	0.59079325
19	0x3f17bacb	0.592694
20	0xbe0fd3bf	-0.14045618
21	0xbf1a4373	-0.6025917
22	0x3eaf686d	0.34259358
23	0xbea389a8	-0.3194096
24	0x3e14eb68	0.14542925
25	0xbecbb543	-0.3978673
26	0x3f4f343c	0.8093908
27	0x3f0ac801	0.5421143
28	0xbe85f9a3	-0.2616702
29	0x3e6b4893	0.22976904
30	0xbe8d78d5	-0.2763125
31	0x3e2f58e7	0.17123757
32	0x3e3e3194	0.185736
33	0xbe744678	-0.23855007
34	0xbec9e96f	-0.39435908
35	0xbeadca97	-0.33943626
36	0x3f3a3536	0.72737443
37	0x3f2cc4b5	0.6748765
38	0x3ed0c403	0.40774545
39	0x3ecc5e86	0.39915866
40	0xbed6dd33	-0.41965637
41	0x3ed9bdb0	0.42527533
42	0x3eee942e	0.46597427
43	0xbf14d24a	-0.58133376
44	0x3e7671a4	0.24066788
45	0x3efd0b8b	0.4942287
46	0xbcb07555	-0.021540323
47	0x3f05485b	0.5206353
48	0x3ec312e0	0.38100338
49	0xbe931331	-0.2872558
50	0xbf132c37	-0.5748934
51	0x3f4de930	0.8043394
52	0x3ed33209	0.4124911
53	0x3ee56ef7	0.44811222
54	0x3e66526f	0.22492383
55	0xbe93f191	-0.28895238
56	0x3e63d1d2	0.22248009
57	0xbf2c872c	-0.67393756
58	0x3e231120	0.15924501
59	0x3f565634	0.83725286
60	0x3ef69891	0.48163274
61	0xbea4c68e	-0.32182735
62	0xbeceb0be	-0.4036922
63	0x3e79e5c2	0.24404052

gate.2.weight f4 [36, 64]
0	0x3d1667e9	0.03672019
1	0x3acec98e	0.0015776621
2	0x3ea280fd	0.31739035
3	0x3e195d22	0.14976934
4	0xbdacb521	-0.08432985
5	0x3e8219d2	0.25410324
6	0xbe8c3595	-0.2738463
7	0x3ed2ec33	0.4119583
8	0x3dc9c1f1	0.098514445
9	0x3dd6d454	0.10489717
10	0xbc86ac16	-0.016439479
11	0x3e2b9c88	0.1675893
12	0x3c2bdcdb	0.010489668
13	0x3e0c1400	0.13679504
14	0x3ee2add8	0.44273257
15	0x3e972739	0.29522112
16	0x3e286f29	0.16448654
17	0xbd21ce82	-0.03950358
18	0x3ee683da	0.4502247
19	0x3ee231da	0.4417866
20	0xbd8aefb6	-0.067840025
21	0xbe1ebccd	-0.1550171
22	0x3eddbc3b	0.4330767
23	0xbc955e8f	-0.018233566
24	0x3e199efe	0.15002057
25	0xbec9fdf8	-0.39451575
26	0x3efebc15	0.4975287
27	0x3dea55b4	0.11442128
28	0xbd49002a	-0.049072422
29	0x3df9e887	0.12202554
30	0xbe924e78	-0.28575492
31	0x3e0fa893	0.1402915
32	0x3ee49134	0.4464203
33	0x3d785e97	0.060637083
34	0x3d3387e4	0.043830767
35	0xbdce9063	-0.10086133
36	0x3e8e27a2	0.27764612
37	0x3efebd1f	0.49753663
38	0x3e8e41c4	0.2778455
39	0x3f091535	0.53547984
40	0xbefbabd6	-0.49154538
41	0x3e946277	0.28981373
42	0x3d984575	0.07435123
43	0xbc5c35e7	-0.013440586
44	0x3e56c051	0.209718
45	0x3e0d7124	0.13812691
46	0xbb6d2fde	-0.003619186
47	0x3f172419	0.59039456
48	0x3e85b4f8	0.2611463
49	0x3e4bcc3b	0.19902126
50	0x3d68de1f	0.056852456
51	0x3eb39ee9	0.35082176
52	0x3edd2b17	0.43196937
53	0x3e90ecea	0.2830575
54	0x3e9b6df7	0.30357334
55	0x3dc8147f	0.09769534
56	0x3e9e0b39	0.30867937
57	0xbca37c9b	-0.019956877
58	0x3e61fc09	0.220688
59	0x3e7aa539	0.2447709
60	0x3e8951c3	0.26820192
61	0x3d78a000	0.060699463
62	0xbe822252	-0.2541681
63	0x3e1858f1	0.14877678
64	0x3da68bce	0.081321344
65	0x3d7a7fa4	0.061156884
66	0x3d04037e	0.032229893
67	0x3d69e9a3	0.05710758
68	0xbee4d774	-0.44695628
69	0xbc9d5911	-0.01920751
70	0x3dea9442	0.11454059
71	0x3e3e54f3	0.18587093
72	0xbe666049	-0.22497667
73	0xbe311ac4	-0.17295367
74	0x3cbd60c5	0.023117432
75	0x3dcaf807	0.09910589
76	0xbd78089e	-0.060555093
77	0xbc919ad7	-0.017774029
78	0x3eb6a895	0.35675493
79	0x3dd71591	0.1050216
80	0x3eb91f54	0.36156714
81	0x3da437e6	0.08018474
82	0x3e35ad79	0.17741956
83	0x3e039fdb	0.12853949
84	0x3d8979a4	0.06712654
85	0xbed93173	-0.4242054
86	0x3e9014a1	0.2814074
87	0x3de1a129	0.11017067
88	0x3ee3f9d0	0.4452653
89	0xbecd6a02	-0.4011994
90	0x3d0a782f	0.033806022
91	0xbe54d342	-0.20783713
92	0x3f0f83e8	0.5606065
93	0x3e6ec561	0.23317482
94	0xbf0c8b7c	-0.54900336
95	0x3e90d585	0.28287902
96	0x3b9a3e95	0.0047071674
97	0xbcf5bfb2	-0.029998634
98	0xbd165bba	-0.03670857
99	0x3ebb1459	0.36538962
100	0x3e2c1be5	0.16807516
101	0x3e17535f	0.14777897
102	0x3e960045	0.2929708
103	0x3f08558f	0.5325555
104	0xbf3c976c	-0.7366855
105	0x3dc19afd	0.0945339
106	0x3dc712ba	0.09720369
107	0x3e2fa96f	0.17154478
108	0x3d9dcb77	0.077048235
109	0x3c5d702c	0.013515513
110	0x3df60abd	0.12013767
111	0x3e08bc31	0.1335304
112	0x3df7f183	0.121066116
113	0xbdb10c0f	-0.08644878
114	0x3d241694	0.040060595
115	0x3e8380a0	0.2568407
116	0x3e7bdd77	0.24596201
117	0x3e294808	0.16531384
118	0x3f20a504	0.62751794
119	0x3e0b8e8f	0.136286
120	0x3e821575	0.25406995
121	0xbc66c855	-0.014085849
122	0x3f18e594	0.5972531
123	0xbc929fe2	-0.017898504
124	0x3d2371f2	0.03990359
125	0x3e2ea2e0	0.1705432
126	0xbe6e24c6	-0.23256215
127	0x3eb0432e	0.34426254
128	0x3dc61309	0.096715994
129	0x3e30acc6	0.17253408
130	0x3e601ca9	0.21885933
131	0x3e04df3f	0.12975787
132	0x3c4d544e	0.012532307
133	0x3d152ce8	0.03641978
134	0x3e9d1acc	0.30684507
135	0x3db3c2ae	0.087773666
136	0x3d123acc	0.035700604
137	0xbdc8fc3c	-0.09813735
138	0xbd22f6b7	-0.039786067
139	0xbd87e4f6	-0.06635468
140	0x3d723f0e	0.059142165
141	0x3d9ddf49	0.07708604
142	0x3e4ce833	0.20010452
143	0x3e7586a7	0.23977147
144	0x3e97aa33	0.2962204
145	0x3da9022c	0.082523674
146	0x3e751db6	0.23937115
147	0x3e6bc123	0.23022895
148	0xb9ed4eba	-0.00045262818
149	0xbc86a8ac	-0.01643785
150	0x3bc5dda3	0.006038384
151	0x3d52389c	0.05132352
152	0xbd2743b0	-0.040836036
153	0x3c9b0ce0	0.018927038
154	0x3e337e68	0.17528689
155	0xbe52cd3e	-0.20586106
156	0xbd38c742	-0.045111902
157	0x3e7b857c	0.24562639
158	0x3e2a7268	0.16645205
159	0x3dd12ecd	0.10214005
160	0x3de02a45	0.10945562
161	0x3e045527	0.12923108
162	0x3cc3a692	0.023883138
163	0xbe030343	-0.12794213
164	0x3e4cf304	0.20014578
165	0x3d844de7	0.06460171
166	0x3e85821d	0.2607583
167	0x3cb5c796	0.022189897
168	0xbdef8aa2	-0.11696364
169	0xbdd64ecf	-0.1046425
170	0xbd470c23	-0.04859556
171	0xbcfb1166	-0.030647945
172	0x3e07bef8	0.13256443
173	0x3e3a8940	0.18216419
174	0x3cb36f6b	0.021903714
175	0x3d8f8587	0.0700789
176	0x3d88469a	0.06654091
177	0x3d8d3aba	0.06895967
178	0x3e319db9	0.17345323
179	0xbd953bc3	-0.07286789
180	0x3dc704d3	0.09717717
181	0x3e4d947c	0.20076174
182	0x3c50f412	0.012753503
183	0x3c4a649f	0.0123530915
184	0x3deb5df8	0.114925325
185	0xbcf1683b	-0.029468646
186	0x3e0ad7bd	0.1355886
187	0x3d2f97ff	0.042869564
188	0x3e79b79c	0.24386448
189	0xb7f2cfa4	-2.8945338e-05
190	0x3e4954bb	0.19661228
191	0xbd02162f	-0.031759437
192	0xbe1370e9	-0.1439854
193	0xbe2324c2	-0.1593199
194	0x3e92ab0f	0.28646132
195	0xbd6d95df	-0.058004256
196	0xbe4e54ce	-0.20149538
197	0xbe09b1ba	-0.13446704
198	0xbe80a624	-0.25126755
199	0x3e8de91a	0.27716905
200	0xbe967acc	-0.29390562
201	0xbe2ef328	-0.17084944
202	0xbe443b2a	-0.19163194
203	0x3e31a975	0.17349799
204	0x3bbbdc5f	0.0057330574
205	0xbe44c60c	-0.19216174
206	0x3e9eb10b	0.30994448
207	0x3ee15a4a	0.44014198
208	0xbc65687b	-0.014001961
209	0x3d4e08c1	0.050301317
210	0xbe2d4e1b	-0.16924326
211	0x3d38b70c	0.045096442
212	0x3a3a3933	0.000710386
213	0xbec4c9cc	-0.3843521
214	0x3e7c34e8	0.24629557
215	0x3b92b6bf	0.0044773514
216	0x3ed0d687	0.4078867
217	0xbda7be0d	-0.08190546
218	0xbda2030d	-0.07910738
219	0xbe7397a4	-0.23788315
220	0x3e8ffea5	0.28123966
221	0x3d8bd028	0.06826812
222	0xbf37b979	-0.71767384
223	0xbd6881ac	-0.05676429
224	0x3d40661e	0.046972387
225	0xbe2f29c7	-0.1710578
226	0x3d8f63f5	0.07001487
227	0x3dda0dab	0.10647138
228	0xbc92ec21	-0.01793486
229	0x3d985445	0.07437948
230	0x3ea301e0	0.31837368
231	0x3f089193	0.5334713
232	0xbf1048fa	-0.56361353
233	0x3ebb84e7	0.36624834
234	0xbde78226	-0.11304121
235	0x3e4c324f	0.19941066
236	0x3bab56b9	0.005228844
237	0xbeb2dff4	-0.34936488
238	0x3d816fae	0.06320129
239	0x3ec59d01	0.38596347
240	0xbe5b6a6e	-0.21427318
241	0x3e84371e	0.258233
242	0xbd5055f5	-0.050863225
243	0x3f10734c	0.5642593
244	0x3e673d84	0.2258206
245	0x3eee5d61	0.46555617
246	0x3f455ee8	0.7709794
247	0xbd94567c	-0.07243058
248	0x3d5da704	0.054114357
249	0xbdeb0e7e	-0.114773735
250	0x3ee7967c	0.45231998
251	0x3e72bc3b	0.23704617
252	0xbdebd9e6	-0.1151617
253	0xbe8c9fa6	-0.27465552
254	0x3dcc7f4a	0.09985216
255	0x3e52fb26	0.20603618

gate.2.bias f4 [36]
0	0x3ee3158f	0.44352385
1	0x3e4e388c	0.20138758
2	0x3e41ff01	0.18944933
3	0x3e95d67c	0.292652
4	0x3ec31d86	0.38108462
5	0x3e30695f	0.17227696
6	0xba82a2d3	-0.0009966738
7	0xbd7c7df0	-0.06164354
8	0x3dca781b	0.098861896
9	0xbc05ec25	-0.008173977
10	0x3d327cf0	0.04357618
11	0xbe0fdee8	-0.14049876
12	0x3d79e967	0.061013605
13	0x3e5ca3cf	0.21546863
14	0xbe0603b1	-0.13087346
15	0xbd9d7b75	-0.07689563
16	0xbdf799d9	-0.12089891
17	0x3d88d4fe	0.0668125
18	0x3d9c728d	0.07639036
19	0x3cb13af2	0.021634553
20	0x3cc1410b	0.023590585
21	0x3ce045d4	0.027377047
22	0x3dd7cfb5	0.10537664
23	0x3cf93aba	0.03042351
24	0x3e33f819	0.1757511
25	0xbe92548c	-0.2858013
26	0xbe3dc513	-0.18532209
27	0x3d474d3f	0.048657652
28	0xbe305a02	-0.17221835
29	0x3e4ee149	0.20203127
30	0x3e1aa355	0.15101369
31	0xbe687356	-0.22700247
32	0x3e8a2b47	0.26986143
33	0xbece35fa	-0.40275556
34	0xbe96ea55	-0.29475656
35	0xbea02181	-0.3127556

Wc.weight f4 [3, 6]
0	0xbcfc9e70	-0.030837268
1	0x3b1a2c86	0.0023525073
2	0x3b8b5497	0.0042520273
3	0xbcb6a37b	-0.02229475
4	0x3d67d3c3	0.056598436
5	0x3d10691f	0.0352565
6	0xbce554db	-0.027994564
7	0xbb264525	-0.0025370803
8	0xbbc54827	-0.006020564
9	0x3d8777fb	0.06614681
10	0xbd14c93f	-0.036324736
11	0xbb82ccf7	-0.003991719
12	0xbc9f5f13	-0.019454515
13	0xbaf7ff82	-0.0018920752
14	0xbb76b05e	-0.0037641744
15	0x3cd97650	0.026545674
16	0x3da9b042	0.08285572
17	0xbce35086	-0.027748358
